lstm_model_weights/model_3.pth (torch, 96789 bytes, 5 tensors)

lstm_layers.0.weight_ih_l0 f4 [300, 1]
000000 56 3f ab bc 30 1f dd 3d 72 c0 88 be 7f 28 b0 3a
       -0.020904224 0.10796964 -0.26709324 0.0013439803
000010 e5 6e 98 bc 58 eb d5 3d 32 2a a5 3d 3c 4c 0c 3e
       -0.018607566 0.10445279 0.08064689 0.13700956
000020 68 d0 98 bd b4 6e 2a 3d ec c1 1e 3e 38 91 31 3e
       -0.07461625 0.04160948 0.15503663 0.17340553
000030 b9 dc cc 3e 2a 07 49 be 61 10 58 bf 08 b4 20 3d
       0.40012148 -0.19631639 -0.8439999 0.03923419
000040 ef 19 0b 3e 9b 88 06 be 59 d0 82 3e 05 e6 2a 3c
       0.13584112 -0.13138048 0.25549582 0.0104308175
000050 9a c2 3e be 66 3f ed be 7a 23 13 3d 68 59 59 3d
       -0.18628922 -0.46337432 0.035922505 0.05306378
000060 16 14 91 be ce b2 19 3c 87 28 1f 3e f0 0c be bd
       -0.28335637 0.009381009 0.15542804 -0.092798114
000070 4e b2 38 bd 96 bc 2f ba ba 23 03 3e 0a a1 c4 3e
       -0.04509192 -0.0006703822 0.12806597 0.38404113
000080 ff a3 b5 3d df e0 cf be e3 03 21 3d be 2a 80 3e
       0.088691704 -0.4060125 0.039310347 0.2503261
000090 8c 45 07 3e 34 9a c9 3e d1 22 21 3e 35 da 99 be
       0.13210124 0.3937546 0.15735938 -0.3004929
0000a0 ed 78 3b bf 76 d0 a8 3c 1a 86 95 be e6 d4 80 3e
       -0.73231393 0.020607214 -0.29203874 0.2516243
0000b0 9a 6b a1 3e 4e 1a eb 3d 14 30 48 3e fe 87 11 3e
       0.31527406 0.114796266 0.1954959 0.14212033
0000c0 50 a4 e1 3d db 3a 04 be e5 5e dc bd 20 08 ea bc
       0.11017668 -0.12913077 -0.10760287 -0.028568327
0000d0 68 e2 e1 be 5d 5b a5 be 56 1f 59 be 68 be 9c be
       -0.44118047 -0.32296267 -0.2120336 -0.30614018
0000e0 37 8a 9a be df 30 20 3d 6e bf b2 3c 76 c6 5b 3c
       -0.30183575 0.039109107 0.021819796 0.013414016
0000f0 5c 5c ee bd e8 25 99 be 57 02 a1 be 9d 54 52 3e
       -0.1163871 -0.29911733 -0.31447098 0.2054009
000100 1a 15 ec bd 08 4a 2f bd d2 46 c3 3d 49 4d 6c be
       -0.11527462 -0.04279521 0.09534992 -0.23076357
000110 c8 89 16 3d c7 54 43 3d 46 dc 12 be 54 0d 5d 3e
       0.036752492 0.04768827 -0.1434184 0.21587116
000120 79 7c 3c 3c 3a 80 0e 3f bf 23 98 3d 43 b2 ea bd
       0.011504286 0.5566441 0.07428693 -0.11459782
000130 63 46 0c bd a9 8b e4 be be 6d bd be f0 d2 08 3d
       -0.034246814 -0.44637802 -0.3699779 0.03340429
000140 d1 3e 79 be 12 9f 99 3e 22 21 b6 3c c9 4d 54 3d
       -0.24340369 0.30004174 0.022232596 0.051831994
000150 d7 5d 76 bd dc ce 3b 3e ec 68 05 3d f3 6c c7 bb
       -0.060148086 0.1834063 0.032570764 -0.006085986
000160 36 f5 e0 bd 54 4e 1b be 7d 39 0a be 66 43 2e 3e
       -0.1098427 -0.15166599 -0.13498493 0.17017898
000170 51 23 11 bd eb cd e7 3d 30 02 6f be ec bf fa be
       -0.03543407 0.113185726 -0.23340678 -0.4897455
000180 4f 4e 46 bf 14 20 83 3b 76 56 42 bd 82 8b ad bd
       -0.7746324 0.0040016267 -0.047445737 -0.08473875
000190 4b fc 8b be b4 67 eb 3d 25 ea c2 be 93 0b 16 3e
       -0.27340922 0.11494389 -0.38069263 0.14652853
0001a0 64 80 78 3e 4e 99 bc be 5a 4a 68 be c9 92 77 be
       0.24267727 -0.36835712 -0.22684613 -0.24177088
0001b0 d2 aa 1f be 77 43 ee bd 1e e8 b7 bc 4c 64 8f be
       -0.15592507 -0.11633962 -0.02244955 -0.28006208
0001c0 c7 45 ac bd d5 e0 7a be 31 ec 10 bf 6d 5a 6e 3d
       -0.084117465 -0.24499829 -0.566104 0.058191705
0001d0 cf 21 11 be db f4 fe be 3e 98 1b 3e e3 70 36 3e
       -0.14173053 -0.49796185 0.15194795 0.178165
0001e0 44 b3 83 bd 5f 12 81 3e c2 fa 19 3d 62 e5 2f 3c
       -0.064306766 0.2520933 0.037592657 0.0107358415
0001f0 00 31 1f 3f 4a a6 aa bd 66 d9 86 be bd 79 c6 be
       0.62184143 -0.08332498 -0.26337737 -0.38764754
000200 57 c2 2f 3c e9 44 7e be ab e4 11 be 8e 10 82 be
       0.010727487 -0.24830975 -0.14247386 -0.25403255
000210 4c c6 08 bd f9 8c 3c 3e c1 e9 82 bc 3f 03 61 be
       -0.033392236 0.18413152 -0.015980603 -0.21973895
000220 50 02 94 bd 46 f0 f1 be cc e4 1d 3e a3 fb c4 bc
       -0.072270036 -0.47253627 0.1541931 -0.024045771
000230 5f 4f ae bd 6f 60 58 be 62 06 ca bd 6f a7 4a be
       -0.085112326 -0.21130536 -0.09864499 -0.19790433
000240 2e 3f 3b bd 22 b5 9d be 8d bb 3b 3b 2e 9b 0b be
       -0.04571455 -0.30802256 0.0028645725 -0.13633415
000250 5b 3a 47 be 55 c3 4c be 98 d1 ab 3e be d4 52 be
       -0.19455855 -0.19996388 0.33558345 -0.20588967
000260 97 4d 4b 3d 17 32 c6 3e d3 54 d8 be 15 43 6b be
       0.049634542 0.3871009 -0.42252216 -0.22974809
000270 88 3a b2 3e fb f5 d7 bd d1 0d cc bc 3e 2a ab bd
       0.3481028 -0.10544964 -0.024908932 -0.083576664
000280 b5 e7 81 bd f8 34 ac be 7c d8 27 be 71 39 32 ba
       -0.06343023 -0.33634162 -0.16391176 -0.00067987206
000290 15 8c e4 3e cf 82 8c be 94 eb c0 3e 9e ad 3b bf
       0.44638124 -0.2744355 0.37679732 -0.73311794
0002a0 a0 dd bf 3e fd b1 f5 bd f8 a5 e2 be 34 6a 99 bc
       0.37473774 -0.11996839 -0.4426725 -0.0187274
0002b0 f5 0e 11 bf 01 f9 98 3e f9 04 31 3e 86 a5 1c bd
       -0.5666345 0.29877475 0.17287053 -0.038243793
0002c0 b6 1a 15 bc e7 7e 97 3d d3 85 94 3e 7b bc 4c 3e
       -0.009100607 0.073972516 0.2900835 0.19993775
0002d0 ae 8c f8 bd 4a 83 ba 3e b0 64 9d be 31 0f 3e be
       -0.121362075 0.3642829 -0.3074088 -0.18560483
0002e0 3c f7 d6 be b0 8d a9 3e 1f fb 65 be ab 33 5b 3e
       -0.419855 0.3311591 -0.22459076 0.21406429
0002f0 95 fe ca 3e 6c 68 ce 3e c8 4d 18 bf 47 d0 cd 3d
       0.39647356 0.40314043 -0.59493685 0.100494914
000300 1a 66 4c be bf 62 43 bd e8 0d 8e be 3c de 77 be
       -0.19960824 -0.047701593 -0.27744985 -0.2420587
000310 a4 36 00 3f ea 4a fd 3e c9 43 ea 3d 5c ec f1 be
       0.50083375 0.49471217 0.1143871 -0.4725064
000320 23 b2 23 3b 31 38 ab 3d bb 70 00 3e f4 58 93 be
       0.0024978004 0.08360327 0.12543003 -0.28778803
000330 3d 2d 8f be bf b8 bd be 33 b7 8c be 55 f6 b6 3e
       -0.27964202 -0.37055013 -0.2748352 0.3573481
000340 c6 5d aa 3d 41 b3 9b be 6b dd 95 bc d6 70 7a 3e
       0.08318667 -0.30410197 -0.018294057 0.24457106
000350 ae c8 e6 3d 05 ad b5 3e 88 03 a3 be a7 a2 9a 3e
       0.11268745 0.35483566 -0.31838632 0.3020222
000360 ba a0 a8 be 5f 31 32 bd be 85 0d be 78 65 70 be
       -0.32935125 -0.043504115 -0.1382055 -0.23476207
000370 29 68 1b 3f 65 f1 a7 be 4c 23 fa bd 1b 48 5e 3e
       0.6070581 -0.32801357 -0.122137636 0.21707194
000380 f3 55 80 bd 0d ae 03 be f6 0e 7c bd 0f ec 0a bf
       -0.062663935 -0.12859364 -0.061537705 -0.54266447
000390 1e a8 34 be 4f 2f 0f bc d1 c3 40 be 49 e5 ac 3c
       -0.17642257 -0.008739307 -0.18824698 0.021105425
0003a0 38 33 53 3e 73 72 11 be 3d 03 57 be 46 6e aa 3d
       0.20625007 -0.14203815 -0.20997329 0.08321814
0003b0 f2 13 cb 3d d7 f9 34 3e 4f d5 a1 be 4a 79 55 bf
       0.09915914 0.17673431 -0.31608054 -0.833882
0003c0 6b 14 7a 3e bf b6 02 3e 57 2d 0e be c8 38 01 3e
       0.24421851 0.12765025 -0.13884483 0.12619317
0003d0 c4 5d d0 bd 2d c4 81 bd e1 02 8e bf 08 0d 7e bd
       -0.101741344 -0.06336246 -1.1094629 -0.062024146
0003e0 a2 1c 84 be 69 4e c2 be 07 3b a3 bc be 9d 33 3e
       -0.25803095 -0.37950447 -0.019925607 0.17540643
0003f0 ec 95 d7 be d4 76 0f 3e 17 8c 68 3e 08 a5 1e be
       -0.4210657 0.14010173 0.2270969 -0.15492642

lstm_layers.0.weight_hh_l0 f4 [300, 75]
000000 02 d4 87 bc 26 73 55 be 91 da 31 3d 50 bb dd bb
       -0.016580585 -0.20844707 0.04342133 -0.006766714
000010 11 e4 92 3c 1b af b1 bc 0c b3 90 bd 12 c9 96 bd
       0.017931016 -0.021689942 -0.070654005 -0.0736257
000020 fe b8 c2 ba fc 66 5d bd 7d 10 85 3d 78 0b e9 bd
       -0.0014856157 -0.05405329 0.064972855 -0.113791406
000030 40 29 6f bd b3 e2 72 3d 08 b4 81 3d 07 47 80 bd
       -0.05838895 0.05929823 0.06333166 -0.062635474
000040 a8 5e ae 3d b2 71 99 be e6 a1 6d 3d 98 b3 25 be
       0.08514148 -0.29969555 0.058015727 -0.16181791
000050 8d 7a 3f be c4 10 3a bd f7 74 f1 bd 23 b2 30 bd
       -0.18699093 -0.045426145 -0.117898874 -0.043138634
000060 7c e7 03 3d 92 5d 9a 3c b8 2a 53 be 08 a9 f5 3d
       0.032203183 0.018843446 -0.20621765 0.11995131
000070 1b 80 d3 3d e6 25 ba bd 60 2b ec bd c7 2b ff bd
       0.103271686 -0.0908926 -0.115317106 -0.12459522
000080 4f 2a 8e 3d b9 6c 99 bc 62 e5 a8 bd 9e f5 11 be
       0.069416635 -0.0187286 -0.08246876 -0.14253852
000090 9a 08 f7 bd 07 06 91 bc b6 ae 34 3d ed 4b cb 3d
       -0.120621875 -0.01770307 0.04411193 0.09926591
0000a0 72 82 a4 3d 3b af 91 3d f3 55 11 be 22 41 af bd
       0.08032693 0.07113501 -0.14192943 -0.08557345
0000b0 ee 59 4f be 85 c7 1e be ab fa d3 3d c5 80 15 bd
       -0.20249149 -0.15505798 0.103505455 -0.036499757
0000c0 2b 42 75 3e f9 25 e0 bd bd 79 13 3e 6c d0 8a 3c
       0.23951022 -0.10944743 0.14401908 0.016945086
0000d0 3d 95 62 3c 5f 30 9c bd e9 55 d0 3d f1 8c c8 3d
       0.0138295265 -0.076264136 0.10172636 0.097925074
0000e0 19 4c db bc be 46 10 3e e7 f2 81 bd 51 75 eb bd
       -0.026769685 0.14089486 -0.06345158 -0.11496986
0000f0 f2 92 e2 3c d2 d2 24 3c 65 b3 72 3d 8a af 37 3e
       0.02765796 0.010060029 0.059253115 0.17938057
000100 a8 11 0e be f1 1e 32 3d 9a 48 38 be a7 07 09 be
       -0.13873923 0.04348654 -0.17996445 -0.13381825
000110 e5 a3 01 3e 9f df 72 3d be b7 8f 3c 17 05 55 bd
       0.12660177 0.059295293 0.01754367 -0.052006807
000120 55 7a 1f bd 87 80 a9 bc b8 78 09 be d6 0e a4 3c
       -0.038935024 -0.02069117 -0.13424957 0.020026606
000130 51 27 88 bd 04 a0 9a bd 50 66 7c be 27 52 c8 bc
       -0.06648124 -0.07550052 -0.24648404 -0.024453236
000140 35 ff 98 3d 75 06 2a bd be 1f 1e bd f1 38 1d be
       0.07470552 -0.041510064 -0.03860449 -0.15353753
000150 92 fb f0 bc 6d ef 99 3d 9e 49 8c 3d 57 6f 1a 3c
       -0.029416833 0.0751637 0.06849979 0.00942596
000160 fc 32 24 3d 37 6f 30 be 2e 39 da 3c a0 ec c5 bd
       0.040087685 -0.17229925 0.026638594 -0.09664273
000170 55 a5 c8 bd 4e 55 85 3c 15 8c 75 3d 7c 3e 8d be
       -0.097971596 0.016276028 0.059948046 -0.27586734
000180 17 63 67 bc ad a1 82 bd cd ff 40 3b 40 89 78 3c
       -0.014122746 -0.063784935 0.0029449344 0.015169442
000190 eb 49 09 bd 27 d9 e1 bc f4 50 af 3d 24 37 e4 bd
       -0.03351776 -0.027569367 0.085603625 -0.1114333
0001a0 23 02 01 be 38 be be 3d 2d 6e 21 be 35 52 3e 3e
       -0.12598471 0.09313625 -0.15764685 0.18586047
0001b0 fd 10 cc bd 4d 34 1e 3e 3e 8e 10 bd f8 23 41 bd
       -0.09964178 0.15449639 -0.035291903 -0.047153443
0001c0 4a c0 b2 3d 2d 9c c7 3c 66 7b c4 3d 1d bf 33 3e
       0.087280825 0.024366463 0.09593849 0.17553373
0001d0 e6 25 56 3c e3 4d 98 be 78 66 5c bd 68 00 ff bc
       0.013070559 -0.29746923 -0.05380866 -0.031128123
0001e0 b9 08 10 bd b2 f4 c9 39 2d 47 a9 bc cf dd 02 3e
       -0.03516457 0.0003852002 -0.020663822 0.12779926
0001f0 c5 07 14 be 32 85 3e bd b9 07 e4 bd 2b 49 cf 3d
       -0.14456089 -0.046513744 -0.111342855 0.101213776
000200 61 fc 6c be 71 17 cc bd 3d b4 52 3d 90 27 a9 3d
       -0.2314315 -0.099654086 0.05144142 0.08259499
000210 d2 66 13 be 97 c7 6b bd e6 c6 e2 bc 2a 49 eb 3c
       -0.14394692 -0.05756339 -0.027682733 0.02872141
000220 c4 9a 86 bd b2 43 77 bd 64 94 bb 3d 89 c9 53 3c
       -0.06572488 -0.060367294 0.09159163 0.012926468
000230 78 7e 12 be 11 16 61 3e c7 db 88 3b 77 46 71 bd
       -0.14306056 0.21981074 0.00417659 -0.05890509
000240 de 6e e6 bb 3b fd 30 be 6a 68 05 3e 6e 98 d5 3d
       -0.0070322594 -0.172841 0.13028112 0.10429464
000250 fe ff ed bd 43 74 17 3e d3 81 a3 bc 9b 63 1c 3d
       -0.11621092 0.14790444 -0.019959366 0.03818093
000260 fe d9 7e 3d 38 6f ad bc ed 8f c9 be bb dd 70 3d
       0.062219612 -0.021171197 -0.3936762 0.05880521
000270 de f6 17 3e 16 bb d9 bd ee b7 ad bc bf eb 63 3d
       0.14840266 -0.10631387 -0.021205869 0.055644747
000280 76 c7 3f be 96 98 cc bb ea db 59 bd a5 8a c6 bd
       -0.18728432 -0.0062437756 -0.053188242 -0.09694413
000290 4b 3a 04 3e 9e fc 88 bd 2b 99 54 39 0e 4f c5 3d
       0.12912862 -0.06688808 0.00020274955 0.09634219
0002a0 8d f8 56 3d be 4e 7f bc 90 20 88 3d 00 50 95 bd
       0.05248313 -0.015582738 0.06646836 -0.072906494
0002b0 2f 67 c6 3d f9 ec eb 3d bb e2 c0 3d 2e fd 51 3b
       0.096876495 0.11519808 0.094182454 0.0032041776
0002c0 04 e5 e0 ba 42 40 10 be fb 33 b0 bd e7 0c 82 3b
       -0.0017158096 -0.14087012 -0.086036645 0.0039688232
0002d0 82 cd f5 bd dc 33 93 3d c6 14 54 bd 65 95 da 3d
       -0.12002088 0.07187626 -0.051777624 0.10673026
0002e0 64 3b 1c be 92 17 ff 3b 74 88 f2 bd 96 37 c7 3d
       -0.1525703 0.007784792 -0.118424326 0.09727399
0002f0 46 66 65 3d 12 9c de bd 8b 1a 79 bd 6f ba c4 bd
       0.05600574 -0.10869612 -0.06081633 -0.09605872
000300 87 a8 d3 3d 25 d6 3b bc d1 d3 2c 3e 9f 88 e9 3a
       0.103348784 -0.01146463 0.16877677 0.0017817206
000310 9c 42 51 3c 2b b1 7e bd 8e 0d 76 bd 82 6a e4 3d
       0.012772229 -0.06218068 -0.06007152 0.11153127
000320 8a a9 90 bd 41 ec 88 3c 5b 5d 51 be d1 d9 c2 bc
       -0.07063587 0.016714217 -0.20445769 -0.023785504
000330 cd d9 94 3c 08 c5 93 bd e6 12 db bd 9d 76 c3 bc
       0.018170262 -0.07215315 -0.10696964 -0.02386027
000340 52 c3 a9 3c 53 2e 82 bd e5 0f be bc db bb 08 3e
       0.020723019 -0.06356492 -0.023200938 0.13352911
000350 4d 6c 92 bd 28 b4 3b be 1f fb a7 bd 2b 1b ea 3d
       -0.07149563 -0.18330443 -0.082021944 0.11430963
000360 57 d1 ba bd d4 dc 20 be 1d e4 a4 bd 9b 59 f7 bd
       -0.0912196 -0.15709239 -0.08051322 -0.12077638
000370 e8 f4 a3 3d bd a9 ae bd 55 4b c5 bc df 80 fa 3d
       0.080056965 -0.08528469 -0.024083773 0.122316115
000380 31 eb 1b bd 05 96 ee 3c 5c 4f d1 3d 34 e6 90 bc
       -0.038066093 0.02912427 0.10220215 -0.017687894
000390 93 09 23 bc 03 31 45 be cc 1c 80 3d ad ba 90 3e
       -0.009951013 -0.19256978 0.062554926 0.28267422
0003a0 de 6e a7 be b9 82 60 3e 3c 31 3b 3d b3 95 f6 3c
       -0.32701772 0.21924867 0.04570125 0.030100679
0003b0 de 0a 23 3e cf 8e c3 be a6 68 31 3d c7 b3 ca be
       0.15922114 -0.38194892 0.04331269 -0.39590284
0003c0 0d 47 ce be 50 c6 93 3e 1d d6 5a be 50 2b 41 3e
       -0.40288582 0.28862238 -0.2137074 0.18864179
0003d0 f1 4d 21 be ff f5 20 bf 16 c9 cc 3d 17 84 10 bf
       -0.15752389 -0.6287536 0.099992916 -0.56451553
0003e0 28 ff 07 be 33 d2 01 be 20 29 d3 3b dd 6a 32 3e
       -0.13280928 -0.12677841 0.0064441115 0.17423578
0003f0 40 3d 00 3d 3b 15 2c be 35 6c f4 3e cd 40 fb bd
       0.031308413 -0.16804974 0.47738805 -0.12268219

lstm_layers.0.bias_ih_l0 f4 [300]
000000 52 89 7e bd 56 fe f3 bc eb 3a b7 3c ea 8c 2e 3e
       -0.062142678 -0.029784363 0.022366961 0.17045942
000010 22 5c 65 3e 9a 58 98 3d 62 f7 ea 3b d0 49 32 be
       0.22398427 0.074387744 0.0071706036 -0.1741097
000020 4c f3 d5 bd 62 a7 be 3d 8f dc 3f ba 69 61 cc 3d
       -0.10446796 0.093092695 -0.00073189376 0.09979517
000030 c9 29 53 bd 63 76 35 3d de e4 ba 3e 6c b5 d2 bc
       -0.05155352 0.044302355 0.36502737 -0.025721274
000040 24 88 28 bd 8b 29 c7 3e d4 60 62 3d 72 f2 06 3e
       -0.04114546 0.38898882 0.055268124 0.13178423
000050 69 be 92 3e c2 52 c6 3b 3d da 66 3e cc c4 5a bd
       0.28660896 0.006052346 0.22544189 -0.053410336
000060 e4 47 d7 bd 6a fd 3b be 41 6c 67 be 90 b7 db bc
       -0.10511759 -0.18358389 -0.2259989 -0.026820928
000070 53 54 c0 3d fe 6f 84 bd 2f 4d f0 3c f2 d4 79 3e
       0.093910836 -0.06466673 0.029333679 0.24397638
000080 98 19 f4 bc 7a ce be bd 64 48 91 3d 72 60 c1 3d
       -0.02979736 -0.09316726 0.070938855 0.094422236
000090 72 19 4c 3d 9f 94 62 3e 35 3c 7d 3e 7d 97 e7 3d
       0.049828954 0.22127007 0.24729998 0.11308191
0000a0 a4 0b d6 3e 74 b9 08 be 9d e7 62 3c 0d 74 b9 bd
       0.41805756 -0.13351995 0.013849166 -0.09055338
0000b0 c1 68 f5 3c 1a 99 59 bc e7 bc b8 3d 8c 3f b5 3d
       0.029957177 -0.013281131 0.09020405 0.08850011
0000c0 78 5c 1f bd f6 89 d0 3e 85 e8 d0 3d e0 d3 a0 bc
       -0.038906544 0.40730256 0.102005996 -0.01963228
0000d0 c0 a8 33 3c 91 58 bc 3e 40 5a f4 3d 38 90 d5 3d
       0.010965526 0.3678632 0.11931276 0.10427898
0000e0 43 b6 8e 3d 8a 66 37 3e 11 e5 b1 bd 12 a3 74 bd
       0.069683574 0.1791021 -0.08686269 -0.05972583
0000f0 9f e2 4f 3d 93 fe 1f bd 0d ff a6 3d 29 bd 03 3d
       0.050753232 -0.03906114 0.08154116 0.03216282
000100 11 a3 ad 3d aa 46 8a 3c e6 7e 9b 3d d0 25 9c bc
       0.08478368 0.016879398 0.07592563 -0.019061
000110 b2 16 8c bd cc 9e a8 3d 91 39 ef 3d 6c 8c db 3d
       -0.06840266 0.08233413 0.11680902 0.10720143
000120 4c a8 9a bd 78 e6 27 3d c5 85 ee bd 39 61 1d 3b
       -0.07551631 0.040991277 -0.11646608 0.0024014248
000130 8d e3 f2 bd f5 e4 78 3d 9f 38 cf bd 6d bb 42 bd
       -0.11859808 0.060765225 -0.101182215 -0.047542024
000140 e9 ae c1 3d 60 fe ec bc bd bd a7 bd 07 b9 0b bd
       0.094571896 -0.02892989 -0.081904866 -0.034112003
000150 f0 1c d5 bd 99 66 50 3a 8c 33 de 3d 00 09 fe ba
       -0.1040591 0.00079498586 0.108496755 -0.0019381344
000160 07 36 19 3d 2c 68 1c bd 0a a1 93 3c f6 98 a0 3d
       0.03740504 -0.038185284 0.018021125 0.07841675
000170 87 8f 2f 3e 59 d0 48 bd 95 af 9e bd 1f e6 83 3e
       0.17144595 -0.04902682 -0.07748333 0.25761506
000180 b5 85 69 3c 2d 46 77 bd f3 2d 59 3d 72 69 b8 bd
       0.01425307 -0.06036966 0.053022336 -0.09004487
000190 ff b4 cd bd 5f cc c3 bd ca 70 a9 bd fb fb 2c 3e
       -0.10044288 -0.09560465 -0.08273466 0.16892998
0001a0 30 f1 fc bd d1 0e dd bd b6 11 1a 3d e9 80 a4 3d
       -0.1235069 -0.10793842 0.037614547 0.080324
0001b0 b1 f1 30 be 91 ac 4b bc ce 02 67 3e 90 10 cf 3c
       -0.17279698 -0.01243128 0.22559664 0.025276452
0001c0 0b db ee bc 3a 90 70 3d 7e 02 c3 3d da 53 f0 bd
       -0.029157182 0.058731295 0.0952196 -0.117347434
0001d0 9d b3 e7 bd c1 b7 26 bd 44 19 5c 3c d1 45 15 bd
       -0.113135554 -0.040702585 0.013433758 -0.036443535
0001e0 eb 5d b8 bc 0d 35 6b bd 3b 98 68 bd d5 08 29 be
       -0.022505721 -0.05742364 -0.056785803 -0.16507275
0001f0 27 6a 3a 3b 67 db cd bb 41 93 40 3c d6 89 ee 3d
       0.002844462 -0.0062822583 0.011753858 0.11647384
000200 d6 96 cf bd 63 6a 98 bd 04 6b 6d bd a5 76 e3 bd
       -0.101361915 -0.07442167 -0.057963386 -0.11106614
000210 c2 9b c6 bd 58 26 11 be 82 ba 1c 3c dc 58 9c 3d
       -0.09697677 -0.14174783 0.009565951 0.07634136
000220 da 76 f6 bc c5 62 94 bd d6 0b 69 bd 29 90 9c 3d
       -0.03008597 -0.07245401 -0.056896053 0.07644684
000230 b2 10 a5 3d 71 1e e1 bd bc 14 d2 bd b4 9b d8 bd
       0.08059825 -0.10992134 -0.10257861 -0.10576573
000240 aa b3 04 be bd ac a1 bd 75 63 af 3d 86 37 29 bb
       -0.12959161 -0.07894275 0.08563892 -0.0025820448
000250 16 ab 86 3d 2e a7 66 bd ed 93 5b bd 22 c9 0d 3d
       0.06575601 -0.05631178 -0.05360787 0.034615643
000260 28 a9 a2 3d d7 9b 88 bd e0 33 0c 3d 71 33 45 bd
       0.0794242 -0.06670349 0.03422916 -0.04814476
000270 65 23 26 bd e9 61 80 3c da 34 de 3d f1 e3 de 3d
       -0.0405611 0.015671687 0.108499244 0.1088332
000280 3c 7b b2 bd 01 75 cc 3d 72 3d b6 3d 3a 3c e1 3c
       -0.08714911 0.09983254 0.088984385 0.027494539
000290 1d e2 0f bd 12 34 01 3d 3b 53 ee 3d c0 75 b5 bd
       -0.035127748 0.0315438 0.11636969 -0.0886035
0002a0 bf 84 53 bd 7f 90 b4 3d 89 39 78 be 65 f1 2f bd
       -0.05164027 0.08816623 -0.24240698 -0.04295482
0002b0 fa 0e d8 bd 92 66 2e bd a6 86 85 bc 7f a5 18 bd
       -0.105497316 -0.042578287 -0.016299557 -0.037267204
0002c0 7d 17 b3 bc 3c 64 07 bd c1 8d 27 bd 39 a7 03 3d
       -0.021861786 -0.033054575 -0.04090667 0.032141898
0002d0 e0 74 15 3e e5 11 f7 bd 36 d1 8b 3d 67 ab e4 bd
       0.14595366 -0.1206396 0.06827013 -0.11165505
0002e0 4e 3c 61 bd e1 4c 03 be ee 93 a4 3d 22 ac 01 be
       -0.05498915 -0.12822296 0.08036028 -0.1266332
0002f0 6a df 2e bd 85 01 69 bd 5a f3 09 3d 34 cc cc 3d
       -0.042693533 -0.056886215 0.033679344 0.09999886
000300 32 2f ff bd 20 52 7a 3d bf 23 b7 3d 3a a3 b1 3d
       -0.12460174 0.061113477 0.08942365 0.08673711
000310 9b 03 91 3c ba a7 19 3d da 2e a6 3d ab d6 46 bd
       0.017701915 0.037513472 0.08114405 -0.048544567
000320 e8 eb 1d be 11 f0 bd 3c e0 e7 df 3d e9 c4 18 3d
       -0.15422022 0.023185762 0.109328985 0.037297163
000330 9e c7 27 bd 7b 2b b8 3d 8d 9c ab 3d b6 a2 af bd
       -0.040961854 0.08992668 0.08379469 -0.085759565
000340 ea 12 e4 3d 76 d7 e3 3d 62 eb f0 3d 8a 2c cf 3c
       0.1113642 0.1112508 0.11763646 0.025289793
000350 18 53 49 3d e3 65 9b 3d 43 29 05 3c 18 26 2b bd
       0.04915151 0.07587793 0.008127513 -0.041784376
000360 bb 0a e3 3d e2 ae 6e 3d 58 16 c7 3d f5 20 09 bc
       0.11086031 0.05827225 0.097210586 -0.008369674
000370 0d 2a bb bd 07 d2 b8 3d 64 b6 48 3d 09 8e 02 be
       -0.0913888 0.090244345 0.049002066 -0.12749495
000380 f2 bb b2 3d 4c eb b5 3c c9 a9 4a bd e1 5d e9 3c
       0.08727254 0.022206925 -0.049478326 0.028487148
000390 a7 a6 a1 3d 3d 52 80 3e 65 3c cb 3d eb 01 fd 3c
       0.078931145 0.25062743 0.09923629 0.030884704
0003a0 ba 40 7b bc 89 1c 43 3d 06 44 25 3d 0d 0a 1c bc
       -0.015335256 0.047634635 0.040348075 -0.009523881
0003b0 b1 50 af 3d 84 1a fb 3d 8b aa 89 bd 2a 3e 16 3e
       0.085603125 0.12260917 -0.067219816 0.14672151
0003c0 f5 28 06 3e d4 20 cb 3b a7 ec 94 3e 1c 52 4c 3d
       0.13101561 0.006198982 0.290868 0.049882993
0003d0 c7 94 c5 bd 06 f6 31 3e fe fb d7 bd 22 7b 13 3e
       -0.09647518 0.17379007 -0.105461106 0.1440244
0003e0 e7 7a bb 3b ed 4e c3 3c 22 d4 b6 bd 25 04 8a be
       0.005721438 0.023841346 -0.0892718 -0.26956287
0003f0 1d 03 a1 bd b1 a3 ad 3d d8 7c 7e bd 38 e9 83 bd
       -0.07861922 0.08478487 -0.06213078 -0.06440967

lstm_layers.0.bias_hh_l0 f4 [300]
000000 82 f5 d8 bd 32 21 00 3a e1 c5 a6 bd 7b e9 ed 3d
       -0.10593702 0.0004887759 -0.08143211 0.116167985
000010 74 c6 3c 3e 40 68 4f 3c 59 0b c5 3d b0 06 65 bb
       0.18435079 0.0126591325 0.09621305 -0.0034946613
000020 94 0a b8 bd 3d 1b 93 bc e3 04 83 3a 79 ff 45 3e
       -0.089863926 -0.017957324 0.0009995963 0.19335736
000030 d5 92 d6 3d 68 11 06 be b4 cc df 3e 05 44 e1 3b
       0.10477225 -0.13092577 0.43710864 0.0068745636
000040 68 55 86 bc fb 6c e8 3e 43 31 73 3e 02 4d 0a bd
       -0.016398147 0.45395645 0.2374926 -0.033764847
000050 03 d6 eb 3e 81 9d b4 bb 1c 54 07 3e 40 a0 07 3e
       0.46061715 -0.00551194 0.13215679 0.13244724
000060 7d e1 d5 bc 54 22 96 bd fb 33 e2 bd 57 4f 9a bd
       -0.026108498 -0.07330766 -0.11045071 -0.07534664
000070 b3 bf a5 bb b4 6a a5 3c 5e 14 0e bd e0 30 67 3e
       -0.0050582527 0.020192482 -0.034687392 0.22577238
000080 b4 e9 aa bb 36 36 e9 bc 1c 6a e4 3d 37 29 43 3e
       -0.005215848 -0.028468233 0.11153051 0.19058691
000090 6e 93 43 3d 4a d9 9a ba 00 78 26 3d de eb 56 3e
       0.04774802 -0.0011814025 0.040641785 0.20988414
0000a0 c0 bf 03 3f b8 bc 58 bc 9e da f3 3d b0 c2 ee bb
       0.5146446 -0.013228588 0.11906932 -0.007286392
0000b0 3e a1 8e 3b ac ac 18 bd 94 34 af 3d bf 86 64 3e
       0.0043527177 -0.037274048 0.0855495 0.22317027
0000c0 c0 0e 8f bd ba 9e 8b 3e 8c 9a 58 3e 1d 30 85 bd
       -0.06985235 0.27269536 0.21152705 -0.065033175
0000d0 3c 0a 45 bd 07 33 a8 3e 81 2d c7 3d 3b 41 de 3d
       -0.048105463 0.3285143 0.09725476 0.108522855
0000e0 d1 ba cd bd 4d 1a 9c 3d c3 ee 98 3d 1d 93 d7 3d
       -0.10045398 0.07622204 0.07467415 0.105261065
0000f0 8c e5 a5 3c 9b ba a1 3d f6 4a 2d 3d 04 da ce bc
       0.020251058 0.0789692 0.042307816 -0.025250442
000100 bb 31 bd 3d 38 12 bc bc 1c 9d e3 3d 9c 03 1a 3d
       0.09238001 -0.022957906 0.111139506 0.0376011
000110 1a bf 10 bd a2 cb d3 bd 5a 0f 56 3e ad 9f 0c 3e
       -0.0353385 -0.10341574 0.20904294 0.13732786
000120 61 6b 91 3d 14 56 b9 3c 2e 68 ee bb c5 27 8f 3b
       0.07100559 0.022624053 -0.007275603 0.0043687546
000130 7d d2 0e 3d 2b ce bd bd 2b ac a3 bd 29 4c ca 3d
       0.034868706 -0.09267839 -0.07991823 0.09877808
000140 24 aa 49 bc 5a ab 14 be 91 54 27 be 99 57 7d 3d
       -0.012308631 -0.1451849 -0.16340853 0.061851118
000150 ce a5 bd bd 0d b1 bc bd 4c 5d 90 3d a1 96 ad bd
       -0.0926014 -0.09213457 0.07049045 -0.08475996
000160 4a e5 14 3c 32 82 3d bd 0b 7a df bd 2e 18 95 3d
       0.00908787 -0.046266742 -0.1091195 0.072800025
000170 9a 3f c9 3c b3 3d 32 3c 41 9c 81 3d 4a 64 e2 3d
       0.02456646 0.010878968 0.06328631 0.11054285
000180 23 c9 19 3e b9 3d 14 3d e8 73 30 bc af 36 e8 3c
       0.15018134 0.036191676 -0.010769822 0.028346388
000190 55 75 26 3c 2c 6f 4e bd fb 25 75 3d 2e 30 e9 3d
       0.01015981 -0.05039899 0.059850674 0.11386143
0001a0 4e 39 4e bc 72 e1 0f 3d c3 36 a8 3d 5f 43 87 bd
       -0.012586905 0.03512711 0.0821357 -0.06604647
0001b0 c5 33 64 bd ba ca f7 bd 33 47 22 3d c8 58 f8 3d
       -0.055713434 -0.12099214 0.039618682 0.12126309
0001c0 16 a4 9b 3d ba 2c 42 3e 84 f7 52 bd 17 16 2e be
       0.07599656 0.18962374 -0.05150558 -0.17000614
0001d0 0a a6 0b be fb 58 2f 3d 86 24 29 3d cb ed 50 bd
       -0.13637558 0.042809468 0.041294597 -0.051008027
0001e0 0b 34 a6 3d 0f 65 07 3b 32 a1 f2 bd 47 b5 1c be
       0.08115395 0.00206596 -0.11847152 -0.15303527
0001f0 a9 e8 de 3c 9b d7 ab bc 6a 7d 40 3d c6 7e e7 3d
       0.02721055 -0.020976832 0.046994604 0.11303477
000200 cc 0b b9 bd db 8f be bd 91 93 96 bd 71 c8 b9 bd
       -0.09035453 -0.09304782 -0.07352365 -0.09071434
000210 e8 fd c0 bd 1d 67 2c be d5 10 e5 3d 50 d8 b3 bd
       -0.09423429 -0.1683621 0.11184851 -0.08781493
000220 e0 06 a7 bd 5f ea c4 3d b9 9e ac 3c 81 79 e2 3d
       -0.08155608 0.09615015 0.021071779 0.11058331
000230 3c 58 35 bd c5 26 b9 3d 59 40 84 bd 2c 4c 0d 3c
       -0.0442736 0.09040598 -0.06457586 0.008624118
000240 14 31 88 bc 79 56 87 bd be a0 55 3d e7 03 8d 3c
       -0.016624965 -0.0660829 0.05215525 0.017213775
000250 bb 1f 02 3e 30 e4 8d 3d c5 6c 2d bd 3f 08 79 bd
       0.12707417 0.06928289 -0.04234006 -0.06079888
000260 3b d8 0a 3c 35 16 c7 bd 3e d7 58 bd 1a b0 fe 3d
       0.008474405 -0.097210325 -0.052939646 0.124359325
000270 4f bd 67 bc c1 e1 0f bd ac 30 e4 3d d9 ab 69 3d
       -0.014144256 -0.035127405 0.11142096 0.057048652
000280 b2 56 42 ba 45 80 a6 3b 88 12 4a 3c be 5b 42 3d
       -0.00074134313 0.005081209 0.01233352 0.047450773
000290 00 d2 bc bd bb ad 34 bc ed 90 be 3d dc 34 cb bd
       -0.09219742 -0.011027749 0.09304986 -0.099221915
0002a0 a7 1b 73 3d 0b 01 b8 3d c9 f1 0a be da 59 c7 bd
       0.059352543 0.08984574 -0.13568796 -0.09733935
0002b0 ea 2a 15 be 4b d7 a3 bd f8 07 74 bd 39 e7 25 3c
       -0.14567152 -0.08000048 -0.059577912 0.010125929
0002c0 99 68 cd 3c 9d c5 c0 3d c5 83 37 3d 78 75 56 3d
       0.02507429 0.09412692 0.0448034 0.05235812
0002d0 ce e9 bf 3d d3 ce 79 bd c0 79 5a 3d b4 17 47 bd
       0.093707666 -0.06098826 0.053338766 -0.04860659
0002e0 c4 73 4b bb 45 93 87 bd 10 aa 7c 3d 48 18 b6 bd
       -0.0031044343 -0.06619886 0.06168562 -0.0889135
0002f0 c8 0c 66 bd 3e 3d 0e 3e b4 ff 20 be b8 26 12 3e
       -0.056164533 0.1389055 -0.15722543 0.14272583
000300 ae 7e 90 bb 09 70 2a 3c 81 c3 9d bd 18 77 47 bc
       -0.0044096326 0.010402688 -0.07703305 -0.01217439
000310 20 83 e4 3d 3c f7 c2 3c 89 29 68 bc c3 77 32 3e
       0.111578226 0.023799531 -0.014170059 0.17428498
000320 36 f0 a2 bc 24 85 f9 3d c5 6f 3f 3e 0c c3 2c 3e
       -0.019889932 0.12183598 0.1869498 0.1687128
000330 7f f7 fb 3d e1 e2 aa bc e2 14 bd bb 3c 75 f1 bd
       0.123030655 -0.020860137 -0.0057703117 -0.11789939
000340 8b 48 29 3d c6 49 ba bd 4a 6c cc 3d 26 ed 9b bd
       0.041328948 -0.090961024 0.09981592 -0.07613592
000350 39 03 2b 3e 5c 93 19 3d d1 c1 69 3d c6 3b 14 3b
       0.16700448 0.03749405 0.057069603 0.0022618636
000360 fb df 74 bc 7c 72 66 3d f0 93 a0 bd 0a d2 86 3d
       -0.014945979 0.056261525 -0.07840717 0.065830305
000370 f1 cb dc bd d5 cb b8 3d 5d c9 cb 3c fd 69 1c be
       -0.10781086 0.09023253 0.024876291 -0.15274806
000380 32 35 86 3c 4f 43 bc 3b 0c bf b4 bb fd e6 08 be
       0.016382787 0.0057453285 -0.0055159386 -0.13369365
000390 9a 1e 14 3e 7f d9 6f 3e 92 14 66 3c 04 a7 e6 3d
       0.14464799 0.23422812 0.01404299 0.112623245
0003a0 70 65 94 bd e2 77 f7 bd a0 4e b8 bc 15 0d 1c be
       -0.0724591 -0.12083413 -0.022498429 -0.15239365
0003b0 43 ac f7 3d 2a 00 c1 3c ed d0 be 3c 76 d9 52 3e
       0.12093403 0.023559649 0.023292983 0.20590767
0003c0 91 84 b4 bc 33 7a ec bd 3e 26 a2 3e 22 0b 34 3d
       -0.022035869 -0.11546745 0.316698 0.04395593
0003d0 94 8b cb 3b 05 04 a1 3d b9 8d 2e bd fd 8d ea 3d
       0.0062117074 0.07862095 -0.042615626 0.11452863
0003e0 e3 87 fd bb 55 b6 aa bd 22 64 0f 3c dc 65 3e be
       -0.007737146 -0.08335558 0.008751901 -0.18593544
0003f0 05 aa c2 bd 92 ae 16 3e 10 cd cc 3d 85 f4 1a be
       -0.09505085 0.14715031 0.1000005 -0.1513234

linear.weight f4 [1, 75]
000000 7d 97 2f 3d d0 95 40 3c 4a ef 3c 3d fe 41 22 bc
       0.04286908 0.011754468 0.04612664 -0.009903429
000010 ed 0c 75 3d 15 56 06 be f5 35 0c 3e fb 69 25 bd
       0.05982678 -0.13118775 0.13692458 -0.040384274
000020 a0 a9 c4 bd f6 a1 e6 bd d0 f5 5d bd ce e0 1e bd
       -0.09602666 -0.1126136 -0.054189503 -0.03878861
000030 3b 0c 18 bd d4 65 8e bc 2f d0 6a 3e 7a 15 79 3d
       -0.03712104 -0.01738254 0.22930978 0.060811497
000040 ed 2b b9 3c 96 4f 9c be 73 18 47 3e 7a 4d 2f bd
       0.022603953 -0.3052947 0.1944292 -0.042798497
000050 e1 1a 82 bd 01 21 e7 3d ab 3f 4a bd 0e 3d c9 3d
       -0.06352783 0.11285592 -0.049377125 0.098260984
000060 18 68 d2 3d 90 c8 c9 3c a5 21 00 bd a7 5a 14 3d
       0.102737606 0.024631768 -0.031282086 0.036219265
000070 15 e9 ee 3d c0 74 1f bc 6d de 62 bd 5d aa bc 3d
       0.116655506 -0.009732425 -0.055387903 0.09212182
000080 1a 8d c0 bd d7 12 16 3e ef 41 f8 bd 25 cd 41 3e
       -0.09401913 0.14655624 -0.12121951 0.18925913
000090 33 76 b3 bd 1a 8b 04 3e 57 92 f4 3c 9c 4c 01 3e
       -0.08762779 0.12943688 0.029854937 0.1262688
0000a0 5c fb 57 be c5 76 9c 3b c1 bd 11 3d 96 b0 b3 3c
       -0.2109198 0.0047749006 0.035581354 0.021934789
0000b0 28 bb b9 bd 51 ee c7 bd 02 62 4a 3e 9f fe 0f 3e
       -0.090689 -0.09762252 0.1976395 0.14061974
0000c0 b7 9c e1 3d b7 ad ad be a8 66 15 3e de e5 69 bd
       0.11016219 -0.33921596 0.14589942 -0.057103984
0000d0 76 b3 33 be 13 48 82 be 56 6f cf bd 35 1a da bd
       -0.17548928 -0.25445613 -0.101286575 -0.1064953
0000e0 2f d1 0f be 3a e3 e8 3c 16 1e a8 bd d6 0e 9e bd
       -0.14044641 0.028428663 -0.082088634 -0.077176735
0000f0 24 a8 f1 3b 0e 9c c1 3d 91 13 ba bd f8 06 04 3e
       0.0073747803 0.09453593 -0.09085763 0.12893283
000100 43 ac 1d be ed ff 15 3d 3c 44 89 bd 04 06 39 bd
       -0.15397744 0.036621023 -0.06702468 -0.045171753
000110 27 9b 16 bc 5b 31 fc 3c 63 87 b2 3d 4f b8 08 be
       -0.009192265 0.030785253 0.08717229 -0.13351558
000120 36 d3 a9 bd 47 92 93 bd c4 a6 8e bc
       -0.082922384 -0.072056346 -0.017413504
