lstm_model_weights/model_4.pth (torch, 199301 bytes, 9 tensors)

lstm_layers.0.weight_ih_l0 f4 [300, 1]
0	0xbe06ddcf	-0.13170551
1	0x3d35c976	0.04438158
2	0xbe1378c4	-0.14401537
3	0x3dd0f829	0.10203583
4	0x3de52cbd	0.11190174
5	0x3d1ba46b	0.037998598
6	0xbdefd3c4	-0.11710313
7	0xbbc52994	-0.0060169194
8	0xbe3bee9c	-0.18352741
9	0x3e054479	0.13014401
10	0x3e456c96	0.19279703
11	0xbd34c903	-0.044137012
12	0x3dc8af3a	0.09799047
13	0x3e1d6440	0.15370274
14	0xbe2c8f8e	-0.16851637
15	0xbd5422ce	-0.051791005
16	0xbe714372	-0.23560885
17	0x3b10370b	0.0022005464
18	0x3eaedbd0	0.3415208
19	0x3e39232d	0.18079825
20	0xbde3ea68	-0.11128694
21	0x3dca440f	0.098762624
22	0xbcd00e24	-0.025397368
23	0x3dfa2c8c	0.12215528
24	0x3e0dbf4e	0.13842508
25	0x3cdc9b87	0.02692963
26	0x3d97b23e	0.07407044
27	0xbd782068	-0.06057778
28	0x3e43c747	0.19118987
29	0x3d028658	0.0318664
30	0xbd43ce85	-0.047804374
31	0xbe09fd0c	-0.13475436
32	0xbe44cb4f	-0.19218181
33	0x3b9d6c5b	0.0048041767
34	0x3d3def13	0.046370577
35	0xbe29a60a	-0.16567245
36	0xbe44dd28	-0.1922499
37	0x3dbe6887	0.09297281
38	0xbddb6964	-0.10713461
39	0x3e0b0f85	0.13580139
40	0x3d4e3e4a	0.050352372
41	0x3d4776f8	0.04869744
42	0xbdce96eb	-0.10087379
43	0xbd34b227	-0.04411521
44	0x3e4a2d39	0.19743814
45	0x3da8f4ce	0.08249818
46	0xbe1c1993	-0.15244131
47	0x3e1ece6e	0.15508434
48	0xbdeb7c6a	-0.114983395
49	0xbd9933de	-0.07480596
50	0xbe0866e3	-0.13320498
51	0x3dd02acd	0.101644136
52	0x3ea449bf	0.32087514
53	0xbe65b27b	-0.22431366
54	0x3e07b0e6	0.13251075
55	0xbe10f0c2	-0.14154342
56	0xbe26da8b	-0.16294305
57	0xbe1b7207	-0.15180217
58	0x3dd092ab	0.10184225
59	0x3e040806	0.12893686
60	0xbe6fcef5	-0.23418792
61	0xbbfe2ada	-0.007756573
62	0xbd34901e	-0.044082753
63	0xbe7d08b0	-0.24710345
64	0xbe3eb7bf	-0.18624781
65	0xbe3ac0a8	-0.18237555
66	0xbe755be0	-0.23960829
67	0xbc069ed0	-0.008216575
68	0xbdb523f0	-0.08844745
69	0x3b757525	0.0037453857
70	0xbe43cbf5	-0.19120772
71	0x3c80706e	0.01567861
72	0x3e8673b0	0.26260138
73	0xbddac7db	-0.10682651
74	0xbd627bbe	-0.05529379
75	0xbc4fa823	-0.012674364
76	0xbcfecd04	-0.031103618
77	0xbe11dbe1	-0.14244033
78	0x3d296dd9	0.041364525
79	0xbd990b4e	-0.07472859
80	0xbe4fafd6	-0.2028192
81	0xbba96f15	-0.0051707127
82	0xbd8aa439	-0.06769604
83	0xbe682034	-0.22668535
84	0xbe1e47be	-0.15457055
85	0x3d463eac	0.048399612
86	0x39e5781b	0.0004376777
87	0x3d020105	0.031739254
88	0x3e2d24ae	0.16908523
89	0x3cb79a2f	0.022412388
90	0xbd9b2e55	-0.075771965
91	0xbe86637b	-0.26247773
92	0xbd056107	-0.032563236
93	0x3ea867d4	0.32891715
94	0x3e4d9920	0.20077944
95	0xbd830c76	-0.06398861
96	0xbcba75c6	-0.022761237
97	0xbd5dfe5e	-0.05419766
98	0x3e557cee	0.20848438
99	0x3d02dddc	0.031949863
100	0xbd95b1c4	-0.07309297
101	0x3c85310c	0.016258739
102	0xbe4239fa	-0.18967429
103	0x3d733f75	0.05938669
104	0xbd1f23ed	-0.03885262
105	0xbe605755	-0.21908315
106	0xbe8d761b	-0.2762917
107	0xbd91542b	-0.07096132
108	0xbda017e8	-0.0781706
109	0x3cafd4dc	0.021463804
110	0xbd4762ef	-0.048678335
111	0xbbb3a002	-0.005481721
112	0xbd244f1c	-0.040114507
113	0xbdba6c18	-0.091026485
114	0x3e176dce	0.14787981
115	0x3cd69978	0.026196226
116	0xbe45b6b7	-0.19307981
117	0xbea20a40	-0.31648445
118	0x3d19ef50	0.03758174
119	0x3d474c4a	0.04865674
120	0xbc863f14	-0.0163875
121	0xbe71f85a	-0.23629895
122	0x3dc3ab56	0.09554164
123	0xbd9ee90c	-0.07759294
124	0x3d663787	0.0562053
125	0xbe2c6c83	-0.16838269
126	0x3e69c7db	0.22830145
127	0x3ea36ada	0.3191746
128	0xbe2845d0	-0.16432881
129	0x3d40101e	0.04689037
130	0xbe33a573	-0.17543583
131	0xbe453648	-0.19258988
132	0xbd31a84c	-0.04337339
133	0xbe52e7a3	-0.20596175
134	0xbdae3e10	-0.08507931
135	0xbc13499e	-0.00898972
136	0xbe1682cf	-0.14698337
137	0xbea06daa	-0.31333667
138	0xbe3ef32b	-0.18647449
139	0xbe174aa7	-0.14774571
140	0xbde69cb5	-0.11260358
141	0xbe9538d1	-0.2914491
142	0xbcbfd067	-0.023414804
143	0xbe1c4b79	-0.15263166
144	0x3cbc8c24	0.023016043
145	0xbe7b4f2a	-0.24541917
146	0xbd9b80b4	-0.075929075
147	0x3edad3f0	0.4273982
148	0xbe990331	-0.29885247
149	0xbba43bce	-0.005012012
150	0xbe5feb2e	-0.21867058
151	0xbeb3c997	-0.35114738
152	0xbe89fbb8	-0.2694986
153	0x3e48b4cb	0.19600217
154	0xbebcf7d4	-0.36907828
155	0x3c7043c9	0.014664599
156	0x3e73a789	0.23794378
157	0xbebc9441	-0.3683186
158	0x3e0f74ae	0.14009354
159	0xbeb0a56d	-0.3450121
160	0xbd364c4e	-0.044506364
161	0xbe27cb78	-0.16386211
162	0xbea4e0fa	-0.32202893
163	0x3e96d448	0.29458833
164	0x3e97400b	0.29541048
165	0xbefdb503	-0.49552163
166	0x3ebd30c5	0.3695127
167	0xbda39616	-0.07987611
168	0xbeeea42a	-0.46609622
169	0xbe55cdd9	-0.20879306
170	0xbee57b20	-0.448205
171	0x3e29c84b	0.16580312
172	0xbe438052	-0.19091919
173	0x3e96d483	0.2945901
174	0x3e78df6d	0.2430398
175	0xbec1a3e4	-0.3782035
176	0x3e93fe89	0.28905132
177	0xbea3443d	-0.31888
178	0x3ed05793	0.40691814
179	0xbc802cbd	-0.015646333
180	0xbe8d11d3	-0.2755266
181	0x3e60ecf8	0.21965396
182	0x3e088112	0.13330486
183	0x3eb75489	0.35806683
184	0x3c16f4e5	0.009213661
185	0x3e85284f	0.26007316
186	0xbe3b7ee0	-0.18310118
187	0xbe942788	-0.2893641
188	0x3e0f89bb	0.14017384
189	0x3e75fb41	0.24021627
190	0xbebd45ff	-0.36967465
191	0xbe94816a	-0.29004985
192	0x3f12634f	0.5718278
193	0xbe8ac6ff	-0.27104947
194	0x3d4a4211	0.049379412
195	0x3e3cddb3	0.18443947
196	0x3eb39fdf	0.3508291
197	0xbe961512	-0.2931295
198	0x3eae29f4	0.34016383
199	0x3d7ffcb5	0.06249686
200	0x3ea1e725	0.31621662
201	0xbdb8eb13	-0.09029212
202	0x3e5b29ef	0.21402715
203	0x3d2de583	0.042455208
204	0x3e96de7d	0.2946662
205	0x3e8f1a8b	0.27949938
206	0x3e3193d1	0.17341544
207	0xbe8b4d3e	-0.2720737
208	0x3ec26e70	0.37974882
209	0x3e18ef1a	0.1493496
210	0x3f036809	0.5133062
211	0x3e92a93d	0.28644744
212	0x3e42b285	0.19013412
213	0xbe8bfe7d	-0.27342597
214	0x3e3d16ba	0.18465701
215	0xbeb21eb4	-0.3478905
216	0x3eb202f2	0.34767872
217	0xbe16b945	-0.14719112
218	0x3e59d681	0.21273233
219	0xbe8111da	-0.25208932
220	0x3e525999	0.20541991
221	0x3e7649ad	0.24051543
222	0x3f0e8a66	0.5567993
223	0xbe5d5918	-0.21616018
224	0x3e703f05	0.2346154
225	0xbdc4281b	-0.09577962
226	0x3d8f405b	0.06994697
227	0xbe53f1a9	-0.20697655
228	0xbc2615f2	-0.010137068
229	0xbbd3d055	-0.006464044
230	0x3de0043a	0.10938306
231	0xbb956dc3	-0.0045602038
232	0x3cc2f447	0.023798121
233	0xbe9d39bc	-0.3070811
234	0x3c4dca86	0.012560492
235	0x3da81c9d	0.082085826
236	0xbe2e56db	-0.1702532
237	0x3da60c8f	0.08107864
238	0x3e2cbd3e	0.16869065
239	0xbe58d73c	-0.21175855
240	0xbc062d6a	-0.0081895385
241	0xbecf6356	-0.40505475
242	0x3d057ca5	0.032589573
243	0x3e76c430	0.24098277
244	0x3dce6ad3	0.10078969
245	0xbecaf842	-0.3964253
246	0x3d2671ff	0.04063606
247	0xbe13e5aa	-0.14443079
248	0x3b8714a0	0.0041223317
249	0x3e356d30	0.17717433
250	0xbd99770b	-0.07493409
251	0x3b838d87	0.004014674
252	0xbe6ecc97	-0.23320232
253	0x3e0126eb	0.12612502
254	0xbd6988ee	-0.057015352
255	0xbe9cf027	-0.30651972

lstm_layers.0.weight_hh_l0 f4 [300, 75]
0	0xbd13609d	-0.03598081
1	0xbd8c2f06	-0.068449065
2	0xbd73b232	-0.059496112
3	0xbdcc655e	-0.09980272
4	0xbd9f09b5	-0.07765523
5	0xbdaf3469	-0.08554918
6	0xbdc9fa66	-0.09862213
7	0xbdfa2e06	-0.122158095
8	0xbcaa22a3	-0.02076847
9	0x3dc06398	0.09393996
10	0x3d541b12	0.05178363
11	0xbd2b2e51	-0.041792218
12	0x3d23edaa	0.040021576
13	0x3d4b9a72	0.049707837
14	0xbe0730e0	-0.13202238
15	0xbe21ac58	-0.157884
16	0xbe074545	-0.13210018
17	0x3dcdc47c	0.10047242
18	0xbd35b166	-0.044358633
19	0xbd845d21	-0.064630754
20	0x3d1c692d	0.03818624
21	0xbe2059c1	-0.15659238
22	0xbd645d86	-0.055753253
23	0xbc501efc	-0.0127027
24	0x3d35f8ac	0.044426605
25	0xbd96029b	-0.07324716
26	0x3e2f7318	0.17133749
27	0x3e179752	0.14803818
28	0xbe1facfd	-0.15593334
29	0xbd2c8840	-0.042122126
30	0xbcf40af7	-0.029790385
31	0xbd7297f4	-0.059226945
32	0x3d1fa3cd	0.038974572
33	0xbd0b574d	-0.034018803
34	0x3db88615	0.09009949
35	0x3d9a5f52	0.07537712
36	0x3c691d93	0.014228242
37	0xbe0b7584	-0.13619047
38	0xbe0220ba	-0.12707797
39	0x3cdb7c8d	0.026792789
40	0xbde4fe70	-0.111813426
41	0x3a23b7ae	0.0006245327
42	0xbca3d1cb	-0.019997498
43	0x3db78e85	0.0896273
44	0x3dcb743a	0.09934278
45	0xbdbc170e	-0.09184085
46	0xbd9ebfc9	-0.07751424
47	0xbdc63664	-0.09678343
48	0xbdb6985c	-0.08915779
49	0xbdb8a39e	-0.090155825
50	0x3daed9eb	0.08537658
51	0xbb3a1aab	-0.0028397243
52	0x3e137b7d	0.14402576
53	0xbe22587f	-0.15854071
54	0xbd823e92	-0.063595906
55	0x3ba3d754	0.0050000343
56	0x3c3dcf05	0.011585002
57	0x3d355ffb	0.044280987
58	0xbd11bbd4	-0.035579517
59	0x3e10f0e2	0.1415439
60	0xbe223d8c	-0.15843791
61	0x3ce9f5f2	0.028559659
62	0xbe3c8a5e	-0.18412158
63	0xbd778532	-0.06042976
64	0x3d487e86	0.048948787
65	0xbd7f6aed	-0.06235783
66	0xbc8c3241	-0.017113807
67	0x3d65f024	0.05613722
68	0x3d25beca	0.040465154
69	0xbd7bcce1	-0.061474685
70	0x3d4b4287	0.049623992
71	0xbd6c59a0	-0.05770266
72	0xbd816d15	-0.06319634
73	0x3bdee5c4	0.0068022925
74	0x3d920219	0.07129306
75	0x3e13deda	0.1444048
76	0xbd845837	-0.06462138
77	0x3db34462	0.08753277
78	0xbdcbd50c	-0.09952745
79	0x3e18e34e	0.1493046
80	0x3d6cb3f4	0.057788804
81	0xbe5d177b	-0.21590988
82	0x3e608c3a	0.21928492
83	0xbe2fd0f3	-0.17169552
84	0x3de8fcf2	0.113763705
85	0xbdb395e4	-0.08768824
86	0x3dd9056e	0.10596739
87	0x3dc6d8d2	0.09709324
88	0xbdc23bb5	-0.094840445
89	0xbe54d4b9	-0.20784272
90	0x3e0a5655	0.13509496
91	0xbe444f85	-0.1917096
92	0x3d41ad1a	0.047284223
93	0x3d4c5f1f	0.049895402
94	0x3d8e03c5	0.06934313
95	0x3e50f80f	0.20407127
96	0x3da72031	0.08160437
97	0x3e517006	0.2045289
98	0x3dadfee0	0.08495879
99	0xbd416e72	-0.04722447
100	0x3e310758	0.17287958
101	0x3d1fca50	0.0390113
102	0x3e96f406	0.2948305
103	0xbdcceb02	-0.10005762
104	0xbd249291	-0.04017884
105	0x3c8ee37d	0.01744246
106	0x3cf113f9	0.029428469
107	0xbe00ce4c	-0.12578696
108	0xbdfe0214	-0.1240274
109	0x3c4651a5	0.0121044265
110	0xbe8d0930	-0.27546072
111	0x3e73ae69	0.23797001
112	0x3da7ac3a	0.081871465
113	0xbe38cca8	-0.1804682
114	0xbe036df2	-0.1283491
115	0x3dcf61e8	0.10126096
116	0x3e2d7c14	0.16941863
117	0xbe058850	-0.1304028
118	0xbd80c859	-0.06288213
119	0xbd1e0ba1	-0.03858531
120	0xbdef36c2	-0.11680366
121	0xbdfdd39a	-0.123938754
122	0x3db6fab5	0.08934537
123	0xbdb0a98b	-0.08626088
124	0x3c97a465	0.018511007
125	0xbe6c4993	-0.23074941
126	0x3ddef49d	0.108865
127	0x3d45d19c	0.048295602
128	0x3debb774	0.115096
129	0xbcf00fd1	-0.029304417
130	0x3b20b12d	0.0024519667
131	0xbe8ef49a	-0.2792099
132	0x3e6d8668	0.23195803
133	0xbe59e21f	-0.21277665
134	0x3df83fb3	0.12121525
135	0xbeab66e4	-0.33476937
136	0xbe285413	-0.16438322
137	0x3d5beb04	0.053690925
138	0x3e910dbe	0.28330797
139	0xbdef10f5	-0.11673156
140	0x3e2576d5	0.16158612
141	0xbe665b86	-0.22495851
142	0x3dfcdee2	0.12347199
143	0xbe29a539	-0.16566934
144	0x3dc95d6d	0.09832273
145	0xbe3a60b7	-0.18200956
146	0xbd01c41a	-0.031681158
147	0xbd813896	-0.06309621
148	0x3e91c2c0	0.28468895
149	0xbd6fc9f4	-0.058542207
150	0xbd488902	-0.048958786
151	0xbe3a2016	-0.18176302
152	0x3d75c9b7	0.060006823
153	0x3df39c0a	0.118949965
154	0xbe59ec4e	-0.2128155
155	0x3d8fa912	0.070146695
156	0x3cee0142	0.029053334
157	0xbe77e613	-0.2420886
158	0x3c73919a	0.014866257
159	0xbde457e4	-0.11149576
160	0x3d73151e	0.05934631
161	0xbd3999e5	-0.04531278
162	0xbdb9a4ab	-0.09064611
163	0x3d61ae9a	0.055098154
164	0x3dff73b1	0.12473238
165	0x3bc09c44	0.0058780033
166	0xbdea5d5a	-0.11443587
167	0x3dfacce1	0.12246109
168	0xbcc90049	-0.024536269
169	0xbe2ead62	-0.17058328
170	0xbbdebd87	-0.0067974958
171	0x3d9c5caa	0.07634862
172	0xbd4f154e	-0.050557427
173	0x3e3e03d4	0.18556148
174	0x3e3dcd4e	0.18535349
175	0xbe67bc6b	-0.2263047
176	0xbc2eaef0	-0.010661826
177	0xbb6b92fa	-0.003594576
178	0x3cd73ae1	0.026273193
179	0x3c4f97da	0.012670482
180	0xbe1d31b6	-0.15350994
181	0xbd7cdaca	-0.06173209
182	0xbd3fa2ab	-0.04678599
183	0x3dcae602	0.09907152
184	0xbd3b3eef	-0.045714315
185	0x3bbf908a	0.005846088
186	0x3d8c18fc	0.06840703
187	0xbe4e5b13	-0.2015193
188	0x3d1c990a	0.038231887
189	0x3e3fc45b	0.18727247
190	0xbe0de9e3	-0.13858752
191	0x3d4beab9	0.049784396
192	0xbdc095c5	-0.09403566
193	0xbc42ecf8	-0.011897318
194	0xbd74be09	-0.059751544
195	0xbccbd6ad	-0.024882639
196	0xbd5d790a	-0.05407051
197	0xbe2fda56	-0.17173132
198	0x3c5f0581	0.013612152
199	0xbbbda423	-0.005787389
200	0xbcfb0dab	-0.030646166
201	0x3bc4781f	0.005995765
202	0x3d1f56c7	0.038901117
203	0x3df1a610	0.11799252
204	0xbc81cad8	-0.015843794
205	0x3d358c25	0.044323105
206	0xbcdeb0d3	-0.027183926
207	0xbd933b4e	-0.07189046
208	0x3ce76c37	0.028249843
209	0x3c920795	0.017825881
210	0x3e33474f	0.17507671
211	0xbc92d378	-0.017923102
212	0x3dd3aadb	0.103353225
213	0xbc6dd158	-0.0145152435
214	0x3cb9305d	0.02260607
215	0xbc42a928	-0.01188115
216	0x3d202d0b	0.039105456
217	0xbd07cb78	-0.033153027
218	0x3ddc9ce5	0.10772113
219	0xbd9f6e8c	-0.07784757
220	0xbde9335b	-0.113867484
221	0x3e54119a	0.2070984
222	0xbb6c561c	-0.0036062067
223	0x3d9a7cb2	0.07543315
224	0x3d472610	0.048620284
225	0x3d2d151e	0.042256467
226	0xbe27dbc6	-0.1639243
227	0x3d9b8115	0.0759298
228	0x3e02a9e0	0.12760115
229	0x3bac9d71	0.005267792
230	0xbd196c0d	-0.03745656
231	0x3e130299	0.1435646
232	0xbe78b6cf	-0.24288486
233	0xbd4cf98a	-0.050042666
234	0xbcf0e27d	-0.029404873
235	0x3c8b036b	0.016969403
236	0x3d2b17f1	0.04177088
237	0xbd2911ed	-0.04127686
238	0x3ddad1f5	0.106845774
239	0x3e086bc1	0.13322355
240	0xbcb17cce	-0.021665957
241	0xbdccf36b	-0.10007366
242	0xbde8afd9	-0.11361665
243	0x3b90e88a	0.004422252
244	0xbd89b8cd	-0.06724701
245	0xbddaf673	-0.10691538
246	0xbdb63eaf	-0.08898675
247	0xbdc349b2	-0.09535541
248	0x3e72bc06	0.23704538
249	0x3e33a4f2	0.1754339
250	0xbcbd1def	-0.023085563
251	0x3e157ac6	0.14597616
252	0xbd8f4398	-0.06995314
253	0x3e686993	0.22696523
254	0xba41b840	-0.0007389821
255	0x3d43949a	0.04774914

lstm_layers.0.bias_ih_l0 f4 [300]
0	0xbd92a379	-0.07160086
1	0x3dc299c1	0.095019825
2	0x3d87385d	0.06602547
3	0x3cafd780	0.021465063
4	0x3d6cfe35	0.05785962
5	0x3c3a1813	0.011358279
6	0x3dbb97d6	0.0915982
7	0x3d7eda5a	0.062219955
8	0xbdde9ebc	-0.1087012
9	0x3e26aaa5	0.16276033
10	0x3d22f071	0.039780084
11	0x3db04269	0.08606417
12	0x3de0cd42	0.1097665
13	0x3e206263	0.15662532
14	0xbd5be0f6	-0.053681336
15	0x3e6c8b93	0.23100118
16	0x3d573ed6	0.05255016
17	0xbdda4b2a	-0.10658868
18	0x3e7e4d6f	0.24834226
19	0xbd9a0b3a	-0.075216725
20	0x3d4d6fc2	0.05015541
21	0xbe05a84f	-0.13052486
22	0xbd051bdb	-0.03249727
23	0xbd10e27c	-0.035372242
24	0xbdb910a3	-0.09036376
25	0x3df51d5e	0.11968492
26	0xbdb0670c	-0.08613405
27	0x3e0fdf19	0.14049949
28	0x3e6712a5	0.22565706
29	0xbdd78661	-0.105236776
30	0x3e00d991	0.12582995
31	0xbdf31171	-0.11868561
32	0xbc86cb3a	-0.016454328
33	0xbc117ea7	-0.008880294
34	0x3d1ad3c2	0.037799604
35	0xbd215ff0	-0.039398134
36	0xbcaa16c0	-0.020762801
37	0x3db78c9b	0.08962365
38	0x3da26616	0.079296276
39	0x3d082e0a	0.03324703
40	0x3e2ef641	0.17086126
41	0x3de2be29	0.110714264
42	0x3e51562c	0.20443028
43	0x3b3587ef	0.002769943
44	0xbd4e42b2	-0.050356574
45	0xbd408c74	-0.047008947
46	0x3e1883f7	0.1489409
47	0xbd2e5150	-0.042558014
48	0x3e3ddca5	0.185412
49	0xbd090f8a	-0.033462085
50	0x3e36ff54	0.17870837
51	0xbd99c478	-0.075081766
52	0x3d10e1af	0.03537148
53	0xbe0e6689	-0.13906302
54	0x3d8c2e9a	0.06844826
55	0xbdbe11c0	-0.09280729
56	0x3dcaea58	0.09907979
57	0xbbe3a054	-0.006946603
58	0x3ded8848	0.11598259
59	0xbd06beba	-0.032896735
60	0x3e9cd994	0.3063475
61	0x3dea9622	0.11454417
62	0x3dd29aac	0.102834076
63	0x3d25a61a	0.04044161
64	0xbe306673	-0.17226581
65	0x3e1e67e2	0.15469316
66	0x3e359de3	0.1773601
67	0xbdefec84	-0.11715034
68	0xbdba7fe9	-0.09106428
69	0xbd913285	-0.07089714
70	0x3d54fbc3	0.05199791
71	0x3d01e81c	0.031715497
72	0x3efd8b92	0.49520546
73	0x3df3b11f	0.118990175
74	0xbc2b2e6d	-0.0104480805
75	0x3c84bb6f	0.016202657
76	0xbd12bc9c	-0.035824403
77	0xbdac48ee	-0.08412348
78	0x3dbb2721	0.091383226
79	0x3dee7b29	0.11644585
80	0x3d2f8471	0.042850915
81	0xbc5cc25b	-0.013474072
82	0xbdfd1cc2	-0.12359001
83	0xbd51a4be	-0.0511825
84	0x3d83edc4	0.064418346
85	0xbdf2b351	-0.11850608
86	0xbd816e85	-0.06319908
87	0xb8c20840	-9.2521776e-05
88	0x3c9ace92	0.018897329
89	0xbe1bc099	-0.15210189
90	0xbb519180	-0.0031977594
91	0x3dc971e4	0.09836176
92	0xbd8ec22d	-0.0697063
93	0xbddaf8ad	-0.106919624
94	0x3d284ae3	0.041087043
95	0x3ca9b096	0.020714086
96	0x3bf2de15	0.007411728
97	0xbd84b5d7	-0.06479996
98	0xbcd7385d	-0.026271993
99	0xbd24cd4b	-0.040234845
100	0x3dc5eadd	0.09663937
101	0x3ce15e1a	0.027510691
102	0xbded947b	-0.11600586
103	0x3d68cc5b	0.056835514
104	0xbdfb057b	-0.12256905
105	0x3c53e92f	0.012934013
106	0xbe04f5c6	-0.1298438
107	0xbd973f12	-0.073850766
108	0x3c193fb2	0.009353565
109	0x3c23173f	0.009954273
110	0xbdff1125	-0.12454442
111	0xbdb6b550	-0.08921301
112	0xbdcd8b56	-0.10036342
113	0xbe0f1f93	-0.13976888
114	0x3d2b916a	0.041886725
115	0x3d0c420d	0.03424268
116	0x3d013e7d	0.031553734
117	0x3daaea2c	0.08345446
118	0xbd81b489	-0.063332625
119	0x3d92bef7	0.0716533
120	0x3c3e1e71	0.0116039375
121	0xbc71083b	-0.014711435
122	0x3dacb039	0.08432049
123	0xbd2a4943	-0.041573774
124	0xbd94302e	-0.07235752
125	0xbd45b41a	-0.04826746
126	0xba1459ce	-0.0005659134
127	0xbdb2ed84	-0.08736709
128	0xbd83f2ee	-0.064428195
129	0x3cf7d1c7	0.030251397
130	0xbda9b15c	-0.08285782
131	0xbdbb3e42	-0.09142734
132	0x3d856d75	0.06515018
133	0x3d76dda2	0.06026996
134	0x3d79db33	0.06100006
135	0xbe12bab9	-0.14329042
136	0xbc5fd22c	-0.013660949
137	0xbcaa6e55	-0.020804564
138	0x3d1a0307	0.037600543
139	0xba0090e4	-0.0004904403
140	0x3cb4bfbb	0.02206408
141	0xbc0b6cbb	-0.00850981
142	0xbc6802ba	-0.014160806
143	0x3c939aed	0.01801821
144	0xbdd6348b	-0.104592405
145	0x3c118895	0.008882661
146	0xbe0ee541	-0.13954641
147	0xbc4d4988	-0.012529738
148	0xbe0293fa	-0.12751761
149	0x3da92227	0.08258467
150	0x3d3e5469	0.04646722
151	0xbcbecb26	-0.023290228
152	0xbbd9ae27	-0.006643075
153	0xbdc45f69	-0.095885105
154	0xbde9b5bb	-0.114116155
155	0xbcaaae75	-0.02083514
156	0xbdc7fa3a	-0.09764524
157	0x3dd3f32d	0.103491165
158	0x3c35af3e	0.011089144
159	0xbde2c184	-0.110720664
160	0x3d5cd9d2	0.053918667
161	0x3da0901c	0.07839987
162	0x3d2bb12a	0.041917004
163	0x3db0e665	0.08637694
164	0xbd583130	-0.052781284
165	0xbdc46d5c	-0.09591171
166	0xbd440991	-0.047860686
167	0x3d04e5b0	0.03244561
168	0xbd6cda84	-0.05782558
169	0xbdae5d23	-0.08513858
170	0xbdd0f7ca	-0.10203512
171	0xbcea8015	-0.028625527
172	0x3d123df4	0.035703614
173	0x3ca7bd99	0.02047615
174	0x3dd82d9a	0.10555573
175	0x3cf04be9	0.029333072
176	0x3dbb9827	0.0915988
177	0xbc913e85	-0.017730007
178	0xbbed1f88	-0.007236425
179	0xbd336103	-0.04379369
180	0xbca2913a	-0.01984464
181	0x3b40e84e	0.002943534
182	0xbd9ac31e	-0.07556747
183	0xbb6726c1	-0.0035270902
184	0x3d898d2b	0.06716379
185	0xbda027ab	-0.07820066
186	0x3d65e843	0.056129705
187	0xb84cf2ec	-4.886363e-05
188	0xbd8cdc95	-0.0687801
189	0x3dfd426a	0.12366183
190	0xbc8062da	-0.015672136
191	0x3d834567	0.06409722
192	0x3cae7919	0.021297978
193	0x3daa70c9	0.08322293
194	0x3dc28fc9	0.09500081
195	0x3cd72b75	0.02626584
196	0x3cc14ca9	0.023596125
197	0xbdc53e39	-0.09631009
198	0x3ded8cce	0.11599122
199	0xbde8ea6a	-0.11372836
200	0xbd61f258	-0.055162758
201	0x3c2a2afa	0.010386223
202	0x3d2ae815	0.041725237
203	0xbd9415f9	-0.072307535
204	0x3d927a47	0.07152229
205	0x3d059a62	0.032617934
206	0xbbde368d	-0.0067814053
207	0x3d3398ff	0.04384708
208	0xbc4ffbec	-0.01269434
209	0x3dc2c2e9	0.095098324
210	0x3d55e8af	0.052223857
211	0xbd6ca23e	-0.057771914
212	0xbe06d266	-0.13166198
213	0x3d0a683f	0.033790823
214	0xbd8cd57c	-0.068766564
215	0x3cfcd8e9	0.03086515
216	0xbcdd5e84	-0.027022608
217	0x3d81df79	0.06341452
218	0xbd867e61	-0.065670736
219	0x3d8df5ee	0.06931673
220	0x3db570cc	0.08859405
221	0x3db66f79	0.089079805
222	0xbd428068	-0.04748574
223	0x3d6bfea7	0.057615902
224	0xbb3ba6d5	-0.0028633375
225	0x3c9e41b2	0.019318435
226	0x3d92ddca	0.07171209
227	0x3da301f4	0.07959357
228	0x3db03845	0.086044826
229	0xbcf6c7a0	-0.030124485
230	0x3d78bd5a	0.060727455
231	0x39587c81	0.00020645747
232	0x3e957edb	0.29198346
233	0xbd990a03	-0.07472613
234	0x3db9b920	0.09068513
235	0xbde34740	-0.11097574
236	0x3db5d609	0.088787146
237	0x3e0847cb	0.13308637
238	0x3dee1053	0.11624207
239	0xbcf941ca	-0.030426878
240	0x3e54df4a	0.20788303
241	0x3d73dcfa	0.05953691
242	0xbdbebadd	-0.09312985
243	0x3e89d994	0.2692381
244	0x3dc15cab	0.09441503
245	0x3e60effe	0.2196655
246	0xbdb7d692	-0.08976473
247	0x3da37dd9	0.07982988
248	0x3d99c3ec	0.07508072
249	0xbdba0d92	-0.090846196
250	0x3e60640c	0.21913165
251	0xbdff3948	-0.124620974
252	0x3dc286f5	0.09498397
253	0x3e76d22c	0.24103612
254	0x3c24ac27	0.01005081
255	0x3dbac34b	0.091192804

lstm_layers.0.bias_hh_l0 f4 [300]
0	0x3dea365a	0.11436148
1	0x3cd37bee	0.02581593
2	0x3dafb039	0.08578534
3	0x3df87865	0.121323384
4	0x3d3e3069	0.046432886
5	0xbcdc5f4d	-0.026900912
6	0xbbf7d1d3	-0.007562855
7	0x3d9a8133	0.07544174
8	0xbdc37bd0	-0.095451
9	0x3d79d7ff	0.060997006
10	0xbe17cb53	-0.14823656
11	0x3cc9d38e	0.02463701
12	0x3dec25e2	0.11530663
13	0x3e33d71d	0.17562528
14	0x3d0d5798	0.034507364
15	0x3e7367c5	0.23770054
16	0x3e4495b5	0.19197734
17	0xbdb34a62	-0.08754422
18	0x3e10849f	0.14113091
19	0x3c4f26ce	0.012643529
20	0x3e8975fa	0.2684782
21	0xbaa5a2d4	-0.0012637028
22	0x3d600cfa	0.054699875
23	0xbda965e9	-0.08271391
24	0xbdc29bfb	-0.09502407
25	0x3e10332b	0.14082019
26	0x3cb24618	0.021761939
27	0x3d2bb7b3	0.041923236
28	0x3ea3e0da	0.32007486
29	0xbdbe1877	-0.0928201
30	0x3ca65b04	0.020307072
31	0x3d491db1	0.04910058
32	0xbc875f75	-0.01652501
33	0x3e0d774d	0.13815041
34	0xbe0b9fed	-0.13635226
35	0xbdb688e7	-0.08912831
36	0x3dddad62	0.10824086
37	0x3e42fa02	0.19040683
38	0xbdd2b050	-0.10287535
39	0x3cc8ffba	0.024536002
40	0x3c836049	0.016037123
41	0x3e06f42b	0.1317908
42	0x3e5b58d4	0.21420604
43	0x3df0b67b	0.117535554
44	0xbde1ea4c	-0.11031017
45	0x3c5c09e7	0.013430095
46	0x3d91e0d0	0.07122958
47	0xbc911d2e	-0.01771411
48	0x3d6dfca6	0.058102272
49	0x3c9b7b27	0.018979622
50	0xbcd19c50	-0.02558723
51	0xbdfdecac	-0.12398657
52	0xbdc3ff5c	-0.0957019
53	0x3d52ed2c	0.051495716
54	0x3cc9fe24	0.024657317
55	0x3bfaa63e	0.007649212
56	0xbab451e0	-0.0013757311
57	0x3d31619f	0.04330599
58	0x3e0dd177	0.13849436
59	0xbdd09c7b	-0.10186096
60	0x3ec60214	0.3867346
61	0x3d2be8b6	0.041969977
62	0xbcb9026e	-0.022584166
63	0x3d0ed1ac	0.034867927
64	0x3a698fbc	0.0008909663
65	0x3e305bc8	0.17222512
66	0x3d3db7f3	0.046318006
67	0xbbc9e8f9	-0.0061618057
68	0xbd39ce97	-0.045363035
69	0x3de5c711	0.112196095
70	0x3d8f5c7c	0.07000062
71	0x3d565bf2	0.05233378
72	0x3f1aeec9	0.6052061
73	0xbd89f071	-0.06735314
74	0xbc97d009	-0.018531816
75	0xbd74aea9	-0.05973688
76	0xbde723b1	-0.112861045
77	0xbc9ea7ea	-0.019367177
78	0x3c670144	0.014099423
79	0xbd6a9858	-0.057274193
80	0x3d1efa01	0.03881264
81	0x3dc905e0	0.09815574
82	0x3d700248	0.058595926
83	0xbe1d5de8	-0.15367854
84	0xbd1a96fc	-0.037741646
85	0x3ce825e3	0.028338378
86	0xbd7b7475	-0.06139036
87	0x3d563a23	0.052301537
88	0x3cd866c0	0.026416183
89	0xbdfd9646	-0.12382178
90	0xbd917e23	-0.07104137
91	0x3babf3c3	0.0052475645
92	0xbb5a36fa	-0.0033296929
93	0x3db85111	0.08999837
94	0xbd2edb17	-0.04268941
95	0xbe3a76f5	-0.18209441
96	0xbdfcb972	-0.123400584
97	0x3d86b56b	0.065775715
98	0x3db92511	0.09040273
99	0xbdf2fd03	-0.118646644
100	0xbbc1c49c	-0.0059133302
101	0x3c830801	0.015995027
102	0xbd4216ed	-0.047385145
103	0xbda3c20e	-0.07995997
104	0xbe122789	-0.14272894
105	0xbdd0a2a9	-0.10187275
106	0xbd40af01	-0.047041897
107	0x3da3c69a	0.079968646
108	0xbd368373	-0.044558953
109	0xbb303614	-0.0026887702
110	0x3c196543	0.009362522
111	0xbdc950ee	-0.09829889
112	0x3d946042	0.07244922
113	0xbd2ef6d3	-0.04271586
114	0x3d3bbf42	0.045836695
115	0x3d844d02	0.064600006
116	0xbd6f0c96	-0.058361612
117	0x3dcf9058	0.10134953
118	0xbd10c9fc	-0.035348877
119	0xbd0ad7d0	-0.03389722
120	0xbd9ca5a5	-0.07648782
121	0x3dd6c57e	0.104868874
122	0x3d66dde0	0.05636394
123	0x3d4c7181	0.049912933
124	0xbd1a1752	-0.037619896
125	0xbdd5a4cc	-0.10431823
126	0xbd4c744b	-0.049915593
127	0xbd374890	-0.044746935
128	0xbd8ed1be	-0.06973599
129	0x3d26cb5e	0.04072129
130	0xbdf837a0	-0.121199846
131	0x3d919d32	0.07110061
132	0x3d796c4b	0.06089429
133	0x3d5fc084	0.054626957
134	0x3d7987e5	0.060920615
135	0xbe1f08b5	-0.15530665
136	0x3d6f8c62	0.05848349
137	0xbd1ed133	-0.038773727
138	0xbdbe5c7e	-0.09294985
139	0xbe08da12	-0.13364437
140	0x3c1c3df3	0.009536254
141	0x3d6ac481	0.057316307
142	0xbdbd4853	-0.092423104
143	0xbe00feed	-0.12597246
144	0xbdc47559	-0.09592695
145	0x3caef7a9	0.021358328
146	0xbe144019	-0.14477576
147	0xbe16ef8e	-0.1473982
148	0xbd3db09a	-0.046311
149	0x3c371faf	0.011176988
150	0xbcfd2c73	-0.030904984
151	0xbdc96fbb	-0.09835764
152	0x3dd0a949	0.101885386
153	0x3c9b1b60	0.018933952
154	0xbdb260cd	-0.087098695
155	0x3dbc330c	0.09189424
156	0xbd6331d3	-0.055467438
157	0xbdf8f059	-0.12155218
158	0xbd92d1a4	-0.07168892
159	0x3c9a80a1	0.018860163
160	0xbd0dcab0	-0.034617126
161	0x3d56e5fe	0.05246543
162	0xbcc7bc95	-0.024381915
163	0xbdb04c33	-0.08608284
164	0x3d7a2a06	0.061075233
165	0xbd807abe	-0.06273411
166	0x3cb010ef	0.02149245
167	0x3db8e270	0.090275645
168	0x3db4a650	0.08820784
169	0x3cbf1274	0.023324229
170	0x3c639888	0.013891347
171	0x3c27769a	0.010221148
172	0x3c4cd357	0.012501559
173	0x3dd70f89	0.1050101
174	0x3cd24388	0.025666967
175	0xbe046125	-0.12927683
176	0x3bc06660	0.005871579
177	0x3ce906c4	0.028445609
178	0xbb0abdc1	-0.002117023
179	0xbd92b500	-0.07163429
180	0x3db70d26	0.08938055
181	0x3c170416	0.009217283
182	0x3c34d1ec	0.011036377
183	0x3dd54735	0.10413972
184	0x3e00601b	0.12536661
185	0xbd79be22	-0.06097234
186	0xbd72d163	-0.059281718
187	0xbdde02fb	-0.10840412
188	0xbc9302aa	-0.017945606
189	0xbd8ec80d	-0.069717504
190	0xbdbaaa9a	-0.09114571
191	0x3d04d9f0	0.032434404
192	0x3df81813	0.12113967
193	0xbd984137	-0.07434314
194	0x3db3bd13	0.087762974
195	0xbdb38271	-0.08765114
196	0xbcea15bd	-0.028574819
197	0xbc0447be	-0.008073745
198	0xbd7af804	-0.061271682
199	0xbdb7899c	-0.08961794
200	0x3d1df752	0.03856594
201	0x3ceb8cd2	0.028753672
202	0x3a53df63	0.00080822984
203	0xbdb0199f	-0.08598637
204	0xbdd93abd	-0.106069066
205	0xbca379ee	-0.019955602
206	0xbc42cb59	-0.011889302
207	0xbd82ad96	-0.06380765
208	0xbde9b288	-0.11411005
209	0x3d2f7c70	0.042843282
210	0xbddb7a99	-0.10716743
211	0xbcac61a6	-0.021042656
212	0x3d55d020	0.052200437
213	0x3d89ae7f	0.067227356
214	0xbbbc1ea2	-0.0057409564
215	0xbdc8ac11	-0.09798444
216	0x3c6c7857	0.014432988
217	0x3d48f5c6	0.049062513
218	0xbcb22c59	-0.021749662
219	0xbc94b5c3	-0.018153077
220	0x3d685356	0.0567201
221	0x3e00062a	0.12502351
222	0xbd453fcc	-0.048156545
223	0x3d414b17	0.047190752
224	0x3b2da715	0.0026497294
225	0x3e158431	0.14601208
226	0x3dfd12be	0.123570904
227	0xbd838114	-0.06421104
228	0x3de75e73	0.11297312
229	0x3e2e3ffa	0.17016593
230	0xbe0fbc14	-0.1403659
231	0x3dd50c74	0.10402766
232	0x3e3f02de	0.18653437
233	0x3d260d4a	0.040540017
234	0xbbb982d4	-0.005661348
235	0x3d6aa822	0.05728925
236	0xbca8db30	-0.02061233
237	0x3e83b49c	0.25723732
238	0x3e546ad1	0.20743872
239	0x3d453bc9	0.04815272
240	0x3e3ff8c2	0.18747237
241	0x3bd96ed6	0.006635527
242	0xb918426f	-0.00014520598
243	0x3e7b7081	0.24554636
244	0x3d8c0197	0.06836241
245	0x3e017f44	0.12646204
246	0xbe1110bc	-0.1416654
247	0x3db40c3d	0.08791397
248	0xbdaa4f88	-0.08315951
249	0x3c4a9dfb	0.012366767
250	0x3d9ff88d	0.07811079
251	0xbe32c312	-0.17457226
252	0x3d052627	0.032507088
253	0x3ee46151	0.44605497
254	0xbd042e5a	-0.032270767
255	0xbd515e53	-0.051115345

lstm_layers.1.weight_ih_l0 f4 [200, 75]
0	0x3e32540f	0.17414878
1	0xbcd343c9	-0.025789158
2	0x3bac226b	0.0052531264
3	0xbda27d2e	-0.079340324
4	0xbe2653a4	-0.16242844
5	0x3d8e9cff	0.069635384
6	0xbe21c4fe	-0.15797803
7	0x3d23b337	0.039965834
8	0xbdc00c06	-0.09377293
9	0xbe07d6cb	-0.13265531
10	0x3e1f55ce	0.15560076
11	0x3d236057	0.0398868
12	0x3e5545e8	0.20827448
13	0xbca70f80	-0.020393133
14	0xbe527bc5	-0.20555027
15	0xbde04370	-0.10950363
16	0xbe382ea9	-0.1798655
17	0xbc50da32	-0.012747334
18	0xbc00f724	-0.007871423
19	0xbdb87afa	-0.09007831
20	0x3ca28591	0.01983908
21	0xbc91c9d5	-0.017796436
22	0x3d8f8ced	0.07009301
23	0x3d28b5a8	0.041188866
24	0x3dae765f	0.08518671
25	0xbd6de67d	-0.05808114
26	0xbd01f33d	-0.03172611
27	0x3b52c960	0.0032163486
28	0xbdaca296	-0.08429448
29	0xbe13c660	-0.14431143
30	0x3e297362	0.16547921
31	0xbd1f85cb	-0.038945954
32	0xbde4d311	-0.1117307
33	0x3dd0afa9	0.101897545
34	0xba2e8155	-0.0006656845
35	0x3d4a7bf7	0.04943463
36	0x3de64e82	0.11245443
37	0x3e1ef677	0.15523706
38	0xbdb06c30	-0.08614385
39	0xbd9ffe83	-0.07812216
40	0x3d922628	0.07136184
41	0xbd6d036e	-0.0578646
42	0x3c78ff6e	0.015197618
43	0x3e011307	0.12604915
44	0x3de8ba99	0.11363716
45	0x3d881238	0.066441
46	0xbd294b96	-0.04133185
47	0x3dfc02a0	0.12305188
48	0xbe9b9600	-0.30387878
49	0xbe7f39b3	-0.24924354
50	0xbe27030b	-0.16309755
51	0x3ca0dc79	0.01963638
52	0xbc970a8c	-0.018437646
53	0xbdfd1c12	-0.123588696
54	0xbda3ed00	-0.080041885
55	0xbe314a79	-0.17313565
56	0xbe4d6b2d	-0.20060416
57	0x3e2f1003	0.17095952
58	0xbe19faff	-0.15037154
59	0x3e21a5cc	0.15785903
60	0xbeee1c2d	-0.4650587
61	0xbe34aed3	-0.17644815
62	0x3d29d71e	0.041464917
63	0x3e6ff773	0.23434238
64	0xbd66b9dc	-0.056329593
65	0x3e6cb786	0.23116884
66	0x3bcef0a9	0.00631531
67	0x3e176540	0.14784718
68	0xbdb8b435	-0.09018747
69	0x3d867269	0.06564791
70	0x3db5f3d5	0.08884398
71	0x3d9fef1b	0.078092776
72	0x3cb98718	0.022647426
73	0x3dcff1de	0.101535544
74	0xbdba3a78	-0.09093183
75	0xbe925c8b	-0.2858623
76	0xbd0b9675	-0.034079034
77	0xbd16c6b1	-0.03681058
78	0x3eaca4ea	0.3371957
79	0xbe8170a1	-0.25281242
80	0x3c129a56	0.008947929
81	0x3e871fc9	0.26391438
82	0xbe76be13	-0.24095945
83	0x3d9831ea	0.07431395
84	0xbe8eedd2	-0.27915817
85	0x3d7a542b	0.061115425
86	0x3cefee18	0.029288337
87	0xbe9db985	-0.30805603
88	0x3e713258	0.23554361
89	0x3e0afb6b	0.13572471
90	0xbe3e0a69	-0.18558659
91	0x3e1ca692	0.15297917
92	0xbd89fd2a	-0.0673774
93	0x3de17589	0.11008746
94	0x3c329826	0.010900533
95	0xbd43734c	-0.047717378
96	0x3d73b5d7	0.059499588
97	0xbe872239	-0.26393297
98	0x3e74a0e6	0.23889503
99	0x3e216c8a	0.1576406
100	0xbe32b911	-0.1745341
101	0xbd1b92fc	-0.037981972
102	0xbe49e0ac	-0.19714612
103	0x3e297d9e	0.16551825
104	0xbb02dd77	-0.001996843
105	0xbe010fe2	-0.12603715
106	0x3d1fc437	0.039005484
107	0x3e6f8022	0.23388723
108	0x3e1e313d	0.1544847
109	0x3dd4966b	0.103802525
110	0x3dd38eee	0.10329996
111	0xbde743f2	-0.112922564
112	0xbe281ea1	-0.16417934
113	0xbe0a1dc4	-0.13487917
114	0x3e7da79f	0.24770974
115	0xbe432597	-0.19057308
116	0xbe8a0446	-0.26956385
117	0x3e73a9eb	0.23795287
118	0xbe0f7210	-0.14008355
119	0xbd3ea998	-0.046548456
120	0x3e7c5d36	0.24644932
121	0x3deb9949	0.11503846
122	0xbe8c0819	-0.27349928
123	0x3d586ad1	0.052836243
124	0xbe39f673	-0.18160419
125	0x3d5144b7	0.051090922
126	0xbe807bef	-0.25094554
127	0x3df5b774	0.119978815
128	0x3cc44b17	0.023961587
129	0x3dfa67b8	0.12226814
130	0x3dbaa7ff	0.09114074
131	0xbd8a9712	-0.067670956
132	0xbe764841	-0.24051
133	0x3e0cda0e	0.13755056
134	0xbdc44392	-0.095832005
135	0x3dc374a4	0.09543732
136	0x3e32d01e	0.17462203
137	0x3d98acae	0.07454811
138	0xbd8462de	-0.0646417
139	0xbdd7c3df	-0.10535406
140	0xbe826911	-0.25470784
141	0x3de4776f	0.11155593
142	0xbdd44385	-0.10364441
143	0xbcc1c3a0	-0.023652852
144	0xbdb6c62e	-0.089245185
145	0xbd2cd7f9	-0.042198155
146	0x3d10e7c5	0.035377283
147	0xbe56bbd9	-0.20970096
148	0xbe3e33b0	-0.18574405
149	0x3c721752	0.014776068
150	0x3e3753f6	0.17903122
151	0xbde4dfb2	-0.11175479
152	0x3e1fd36d	0.15607996
153	0xbddeab2a	-0.10872491
154	0x3ddca010	0.10772717
155	0x3eb5e34e	0.35524982
156	0xbeb0eafd	-0.34554282
157	0x3dba24f7	0.09089082
158	0xbeab52bc	-0.3346156
159	0xbe23d8b0	-0.16000628
160	0x3c9a8b66	0.018865298
161	0x3ea35a88	0.31905007
162	0x3da6cdd8	0.0814473
163	0x3e14bf6e	0.1452615
164	0xbe61ca78	-0.22049892
165	0x3e415656	0.18880591
166	0xbe4d7b1e	-0.20066497
167	0x3dbcb355	0.09213892
168	0xbea459b8	-0.320997
169	0x3ce04aed	0.027379477
170	0x3ea793e4	0.3273002
171	0x3dc07460	0.09397197
172	0x3dad4e96	0.08462255
173	0x3dbecf2b	0.09316858
174	0xbd5253b9	-0.051349375
175	0x3dcadba2	0.09905173
176	0xbd9f8472	-0.07788934
177	0x3ead1b2a	0.33809787
178	0xbcfeaa2f	-0.03108701
179	0xbea6dccc	-0.3259033
180	0x3e692037	0.22766195
181	0xbe4824fd	-0.1954536
182	0xbe7d7fb9	-0.24755754
183	0x3d40aa4a	0.0470374
184	0x3ebe76ef	0.37200114
185	0xbe7ada9f	-0.2449746
186	0x3e7009b6	0.23441204
187	0xbd2a0b50	-0.041514695
188	0xbe1620c0	-0.1466093
189	0x3d139b04	0.036036506
190	0x3e319c18	0.17344701
191	0x3e929743	0.2863103
192	0xbe75d248	-0.24005997
193	0xbe6e2d47	-0.2325946
194	0x3e331017	0.17486607
195	0xbe82c8fd	-0.25543967
196	0xbe156931	-0.14590909
197	0xbd84daf7	-0.06487077
198	0xbe6c0e61	-0.2305236
199	0xbe038dda	-0.12847081
200	0xbe193192	-0.14960316
201	0x3d3dd5b7	0.046346392
202	0x3db137a9	0.086531945
203	0x3dbf5a5b	0.09343406
204	0x3c61cdf2	0.013782011
205	0xbe8c0e3c	-0.2735461
206	0xbe8f232a	-0.27956516
207	0x3deb406d	0.114868976
208	0xbeb2203c	-0.34790218
209	0x3ea5b635	0.32365575
210	0xbea043c2	-0.31301695
211	0xbdd2251c	-0.10260984
212	0xbd5c24d8	-0.053746074
213	0x3e0b2484	0.13588148
214	0xbdf28089	-0.118409224
215	0x3dc67b7a	0.0969152
216	0xbe228717	-0.15871845
217	0x3e93e52a	0.28885776
218	0xbd8a4c7c	-0.067528695
219	0x3e966742	0.29375654
220	0xbeb64b8d	-0.35604516
221	0x3e3c4750	0.18386579
222	0x3eaa1816	0.332215
223	0x3e963dcb	0.2934402
224	0xbe18e1c2	-0.1492987
225	0xbdae2f6b	-0.08505138
226	0xbd18d4a7	-0.037312176
227	0xbc4d6435	-0.012536098
228	0xbe34ecab	-0.17668407
229	0x3dafe144	0.08587888
230	0xbc9bbcbf	-0.0190109
231	0xbaa4e934	-0.0012581707
232	0x3df11e7b	0.11773392
233	0x3d8f116d	0.069857456
234	0xbcfc67c6	-0.030811202
235	0x3d92a2f9	0.07159991
236	0x3dff1e9f	0.124570124
237	0xbcf3ab4f	-0.029744772
238	0x3d8d70c5	0.06906275
239	0x3c878e77	0.016547425
240	0xbc2d8007	-0.010589606
241	0x3daf568b	0.08561429
242	0x3e1d8fb9	0.15386857
243	0xbe1b5d0e	-0.15172216
244	0xbc8bb6d2	-0.017054949
245	0x3c27bdfa	0.010238165
246	0xbce209ae	-0.027592506
247	0x3d46ecb5	0.048565585
248	0x3ce4881e	0.027896937
249	0x3e016c90	0.1263907
250	0xbe1d9f15	-0.15392716
251	0x3da14be5	0.07875804
252	0x3dc356fb	0.095380746
253	0xbe2e891e	-0.17044494
254	0x3ba59ef2	0.005054348
255	0xbdb0d7a5	-0.08634881

lstm_layers.1.weight_hh_l0 f4 [200, 50]
0	0xbd663b3f	-0.056208845
1	0x3cf76b9f	0.030202685
2	0xbe3d9ff4	-0.18518049
3	0x3d350f84	0.04420425
4	0xbd190226	-0.037355565
5	0x3e36914c	0.17828864
6	0x3df23c71	0.118279345
7	0x3c577dba	0.013152534
8	0x3e24476f	0.16042875
9	0xbe7ce957	-0.24698387
10	0x3e2ee608	0.17079937
11	0xbea300b7	-0.31836483
12	0xbedf156c	-0.4357103
13	0xbde3a959	-0.11116285
14	0x3cdfc41d	0.027315194
15	0x3d8a5b28	0.06755668
16	0xbe1632f7	-0.14667879
17	0x3dc9789a	0.09837456
18	0xbe6c4ca4	-0.23076111
19	0xbe769c0d	-0.24082966
20	0x3d8a8b22	0.06764819
21	0x3e1b7543	0.1518145
22	0xbddd5ad4	-0.1080834
23	0x3e2735d8	0.16329134
24	0xbdf3e139	-0.11908192
25	0xbdb093f3	-0.08621969
26	0x3e3fb692	0.18721989
27	0xbe2eece7	-0.17082559
28	0xbd4c9b74	-0.04995294
29	0x3f3cfdac	0.7382457
30	0x3e908d76	0.28232926
31	0x3e0af7cd	0.13571091
32	0xbeaa2805	-0.33233657
33	0xbd8d22b4	-0.06891385
34	0x3c6fa188	0.014625914
35	0xbe056ac6	-0.13029012
36	0xbebc7c27	-0.3681347
37	0xbd342f33	-0.043990325
38	0xbc1dbc3b	-0.009627397
39	0xbe4730c0	-0.1945219
40	0x3e4db402	0.20088199
41	0xbe2e9788	-0.17049992
42	0xbee9f16c	-0.45692003
43	0xbe35c173	-0.17749576
44	0xbd142d81	-0.03617621
45	0x3e800aa5	0.2500812
46	0xbe1b43c2	-0.15162566
47	0xbc73a281	-0.014870287
48	0xbe0feacd	-0.14054413
49	0x3c8f95f4	0.017527558
50	0x3e5b386c	0.21408242
51	0xbdd9eae3	-0.10640504
52	0xbdeda5e1	-0.116039045
53	0x3e84ce31	0.25938562
54	0x3dabbc09	0.08385474
55	0xbe6e2d01	-0.23259355
56	0xbde65a61	-0.11247707
57	0xbe03c586	-0.12868318
58	0xbdc1ad99	-0.09456939
59	0xbeda4eff	-0.42638394
60	0xbe8cc057	-0.27490494
61	0x3e17169c	0.14754719
62	0xbced2618	-0.028948829
63	0x3dd8e2e5	0.10590152
64	0x3e9276ae	0.2860617
65	0xbd58be70	-0.05291599
66	0xbcee4ae3	-0.029088443
67	0xbcfdcf40	-0.030982614
68	0x3e5ba811	0.21450831
69	0xbe4d0b36	-0.20023808
70	0x3d9cbc00	0.07653046
71	0x3da345f7	0.07972329
72	0xbd9758ed	-0.07390008
73	0x3d0a181b	0.033714395
74	0xbc95c26d	-0.018281186
75	0x3d24bbb6	0.040218078
76	0x3da01b1a	0.07817669
77	0xbddaa3f1	-0.106758006
78	0xbe8bbfd3	-0.27294788
79	0x3d85ba4c	0.06529674
80	0xbdadf8b2	-0.084947005
81	0x3dd2362f	0.10264241
82	0x3eb4005b	0.3515652
83	0xbea86820	-0.3289194
84	0x3e25c1a9	0.16187157
85	0x3cf9d864	0.03049869
86	0xbca60b21	-0.020268979
87	0xbe293c0d	-0.16526814
88	0xbe98532b	-0.29750952
89	0xbe3d6798	-0.18496549
90	0xbe06a585	-0.13149078
91	0x3db75da6	0.08953409
92	0xbd0589ef	-0.032602247
93	0x3d10bca4	0.03533615
94	0x3b56058a	0.003265711
95	0xbdca2f0b	-0.09872254
96	0x3e16fcca	0.14744869
97	0x3e10cc82	0.14140514
98	0xbe165ecc	-0.146846
99	0xbe160075	-0.14648612
100	0xbd9fdcb4	-0.07805768
101	0xbe12aa13	-0.1432269
102	0x3e6ef5e7	0.23335992
103	0xbda684fd	-0.08130834
104	0xbdce346f	-0.10068595
105	0xbe6c4300	-0.23072433
106	0x3d9a373f	0.075300686
107	0x3ded233e	0.115789875
108	0x3e91fdac	0.2851385
109	0x3db99e72	0.09063424
110	0x3cd7dc86	0.026350271
111	0x3dfab7f8	0.122421205
112	0xbe7c085a	-0.24612561
113	0xba0650fe	-0.0005123763
114	0xbe15375b	-0.14571898
115	0xbe487ae1	-0.19578125
116	0xbe905082	-0.28186423
117	0xbd170ccb	-0.036877435
118	0xbd852e46	-0.065029666
119	0xbe103e5e	-0.14086291
120	0xbef801fa	-0.48439008
121	0xbe9c2850	-0.30499506
122	0xbe1f88e0	-0.15579557
123	0xbe317c6e	-0.17332622
124	0xbe5fe5df	-0.21865033
125	0xbeabc26c	-0.3354677
126	0x3ec6153f	0.38688084
127	0xbdf80568	-0.12110406
128	0x3d145c89	0.03622106
129	0xb9a1e198	-0.00030876393
130	0x3ed8dc10	0.42355394
131	0xbe99118b	-0.29896197
132	0xbe9ab3e7	-0.3021538
133	0x3e73a53c	0.237935
134	0xbe12aa99	-0.1432289
135	0xbc949858	-0.01813905
136	0xbed35ae3	-0.4128028
137	0xbe07083d	-0.13186736
138	0x3e3d2928	0.18472731
139	0x3e816495	0.2527205
140	0x3e8a4e95	0.27013078
141	0xbdb6a97b	-0.089190446
142	0x3db91811	0.090377934
143	0xbe603021	-0.2189336
144	0x3e819ef1	0.25316575
145	0x3e15c25d	0.14624925
146	0x3cbbe610	0.02293685
147	0xbea79844	-0.32733357
148	0x3b28de89	0.0025767407
149	0x3d9e7ddd	0.0773885
150	0xbdcf46e3	-0.101209424
151	0xbd82a78a	-0.06379612
152	0xbdc520d9	-0.09625406
153	0xbb1df4c9	-0.0024102202
154	0xbe54861d	-0.20754285
155	0x3d9d723b	0.07687803
156	0x3e841284	0.25795376
157	0xbdfbdf3a	-0.122984365
158	0x3e120659	0.14260234
159	0xbdf82946	-0.12117247
160	0x3d3b738f	0.045764502
161	0xbe217f25	-0.15771158
162	0xbe744832	-0.23855665
163	0xbe0f959b	-0.14021914
164	0x3c768377	0.015045992
165	0x3e2e8645	0.17043407
166	0x3d228c78	0.039684743
167	0x3dae6833	0.08515968
168	0xbd166cfd	-0.036725033
169	0x3d44fc45	0.048092145
170	0xbdd14132	-0.10217513
171	0x3d8fcd9f	0.07021641
172	0xbd8358e6	-0.064134404
173	0xbb44cc1e	-0.003002889
174	0xbdb8e92a	-0.090288475
175	0x3b81c387	0.0039600763
176	0x3c1ad169	0.009449341
177	0x3dc3eeea	0.095670536
178	0xbd2bc27f	-0.041933533
179	0x3e12cee3	0.14336734
180	0xbe1aaf95	-0.15106042
181	0xbca2f704	-0.019893177
182	0xbd0b4330	-0.033999622
183	0xbe1033e2	-0.14082292
184	0xbe4ca002	-0.19982913
185	0xbc9be0cf	-0.019028096
186	0xbeced3bc	-0.40395916
187	0xbe506d04	-0.20354086
188	0xbd121423	-0.035663735
189	0x3adc36ee	0.0016801038
190	0x3eac7569	0.33683327
191	0x3cc46c24	0.023977347
192	0xbe864b83	-0.26229486
193	0x3e1d33d6	0.15351805
194	0x3d2f77fb	0.04283903
195	0x3ea6c13b	0.32569298
196	0x3de760a1	0.112977274
197	0xbe3a7b91	-0.182112
198	0x3db684f9	0.08912081
199	0x3d2a3c6c	0.04156153
200	0xbdbac787	-0.09120088
201	0x3e605647	0.21907912
202	0x3d80da8f	0.06291687
203	0xbd99abcc	-0.07503471
204	0x3e083dbd	0.13304801
205	0xbd6e3b3c	-0.05816196
206	0x3e17a47d	0.14808841
207	0xbddcd5e7	-0.10782986
208	0x3ceb65c1	0.028735043
209	0x3e12138f	0.14265274
210	0x3e6fd366	0.23420486
211	0xbc97ed48	-0.018545762
212	0xbe77701b	-0.24163859
213	0xbcb91c6e	-0.022596564
214	0xbd620a95	-0.055185873
215	0xbcacdc11	-0.02110103
216	0xbd87f02c	-0.06637606
217	0x38e22376	0.00010783125
218	0x3e7f18b8	0.24911773
219	0x3d777569	0.060414705
220	0xbe85766f	-0.2606692
221	0xbe892363	-0.2678481
222	0x3d98a7fb	0.07453915
223	0x3bb3fc5c	0.00549273
224	0xbdf9587b	-0.121750794
225	0xbe185b5b	-0.148786
226	0xbdbced61	-0.09224964
227	0xbd6b6a8e	-0.057474665
228	0x3e02e0e1	0.12781097
229	0xbed436ba	-0.41448003
230	0xbeaa9d16	-0.33322972
231	0x3d0455a7	0.032308247
232	0x3d9c9393	0.07645335
233	0x3e1b431c	0.15162319
234	0xbe17c68e	-0.14821836
235	0xbe19c085	-0.15014847
236	0x3e07cc53	0.13261537
237	0xbe6d555d	-0.23177095
238	0x3e80f56a	0.25187236
239	0x3d369c3a	0.044582583
240	0x3e8284f5	0.25492063
241	0xbdf3eb48	-0.11910111
242	0x3e1e1c43	0.15440468
243	0x3d878a99	0.06618232
244	0x3e98e923	0.2986537
245	0xbe8f2275	-0.27955976
246	0xbdd42ef0	-0.10360515
247	0xbe25120a	-0.16120163
248	0x3e8e3dab	0.27781424
249	0x3d0b50ba	0.034012534
250	0xbe813c31	-0.25241235
251	0x3e41291e	0.18863341
252	0x3ec16188	0.37769723
253	0xbed5bf3b	-0.4174746
254	0x3edcb52b	0.4310697
255	0xbeecaded	-0.46226445

lstm_layers.1.bias_ih_l0 f4 [200]
0	0x3dd2f198	0.102999866
1	0x3e0862ee	0.13318989
2	0x3dc89f77	0.097960405
3	0xbda9cc48	-0.08290917
4	0x3da0d389	0.07852847
5	0x3e2fe82c	0.1717841
6	0x3cc057c5	0.023479352
7	0xbc49041a	-0.012269044
8	0x3dd0e71d	0.10200331
9	0x3eb8b40b	0.36074862
10	0x3ed85bd0	0.42257547
11	0x3dae32ac	0.08505759
12	0x3d7b4bee	0.06135171
13	0xbbd36a4a	-0.0064518796
14	0x3dcd08bd	0.10011432
15	0xbccf5209	-0.025307672
16	0x3d3802d2	0.044924565
17	0x3dc26e5d	0.094937064
18	0x3cbf3590	0.02334097
19	0x3e9a207d	0.30102912
20	0x3d193871	0.037407342
21	0x3e16a005	0.1470948
22	0xbdb6183e	-0.088913426
23	0xbc0c2a08	-0.008554943
24	0x3e833338	0.25625014
25	0x3e13beb4	0.14428216
26	0x3eea87e4	0.458068
27	0x3dd3cc6d	0.103417255
28	0x3cea6b52	0.028615627
29	0x3e0d5aba	0.1380414
30	0x3e546f2e	0.20745537
31	0xba32af11	-0.0006816248
32	0x3deadb60	0.11467624
33	0x3e91eeb6	0.28502434
34	0xbcbdeecd	-0.023185158
35	0x3dae2f17	0.085050754
36	0x3ea4e2e8	0.32204366
37	0x3e201089	0.15631308
38	0x3e782197	0.24231564
39	0x3a6c7aa2	0.0009020959
40	0xbde423ad	-0.11139617
41	0xbdbc9497	-0.09208029
42	0x3dbcdb70	0.09221542
43	0xbde9481a	-0.113907054
44	0xbc1b87f7	-0.009492866
45	0x3d6f7287	0.05845883
46	0xbdb3f1e1	-0.08786369
47	0x3dc254b0	0.09488809
48	0x3d39f31b	0.04539786
49	0x3c6ea7fe	0.01456642
50	0x3d6b2f47	0.057418134
51	0x3de67f08	0.11254698
52	0xbd6cfeb8	-0.057860106
53	0xbdec35e4	-0.11533716
54	0xbdbb4a8c	-0.09145078
55	0x3d660609	0.0561581
56	0xbd309024	-0.043106213
57	0xbdec55b5	-0.11539785
58	0xbc2c76f6	-0.010526409
59	0xbddfada5	-0.10921792
60	0x3bce58cb	0.006297206
61	0x3db4dd0c	0.08831224
62	0xbddf99d2	-0.10918011
63	0xbe030bb1	-0.12797429
64	0x3c30bbc4	0.010786954
65	0xbe1e8d96	-0.15483698
66	0x3d869802	0.06571962
67	0x3b3cec62	0.0028827419
68	0x3d8c4497	0.0684902
69	0xbbecdf3f	-0.0072287614
70	0x3dfa31de	0.12216543
71	0xbd09350e	-0.033497863
72	0xbd9619a2	-0.07329108
73	0x3d69e73e	0.057105295
74	0xbde67438	-0.11252636
75	0x3da0b019	0.07846088
76	0xbe1abdd7	-0.1511148
77	0xbe03797f	-0.12839316
78	0xbdc59520	-0.09647584
79	0xbdbcf94b	-0.09227236
80	0x3d7af165	0.061265368
81	0x3defd496	0.117104694
82	0x3d6d88fb	0.057991963
83	0xbd530c0d	-0.051525164
84	0xbd8f8c3a	-0.07009168
85	0xbb0a4060	-0.00210955
86	0x3beec1c9	0.0072862846
87	0xbd6b9c84	-0.05752231
88	0xbd9e5ba6	-0.07732324
89	0x3da4c3e6	0.08045177
90	0xbd41edc3	-0.047345888
91	0xbdaa55b8	-0.08317131
92	0xbd6933ff	-0.056934353
93	0x3d17996e	0.037011556
94	0xbd52a89b	-0.051430326
95	0x3dd1fad2	0.10252918
96	0xbc928849	-0.017887251
97	0xbc268498	-0.010163449
98	0xbd9d790c	-0.076891035
99	0x3dd7291e	0.10505889
100	0x3d8a0ded	0.067409374
101	0xbdc7d7b7	-0.09757941
102	0x3c9770ee	0.018486466
103	0xbd183c8b	-0.037167113
104	0xbe1fe267	-0.1561371
105	0xbe1c86b1	-0.15285756
106	0xbd3b9d59	-0.045804355
107	0x3dc34527	0.09534674
108	0x3df89744	0.12138227
109	0x3a8be371	0.0010672641
110	0x3dc859a6	0.09782724
111	0xbc13ab2b	-0.009012978
112	0x3cf633d5	0.030054012
113	0x3d40a32b	0.04703061
114	0xbe869111	-0.26282552
115	0xbd864ae1	-0.06557251
116	0xbdfa85d6	-0.122325584
117	0xbda3b806	-0.07994084
118	0x3e07b7c1	0.1325369
119	0xbe77c890	-0.24197602
120	0x3bec7340	0.0072158873
121	0xbe14a7e2	-0.14517167
122	0xbdd3f982	-0.10350324
123	0xbdc506d8	-0.09620446
124	0xbdfb3586	-0.12266068
125	0xbdafc536	-0.08582537
126	0x3d8e9d07	0.06963544
127	0xbdb15a5e	-0.08659814
128	0xbdc1a935	-0.09456102
129	0x3e330a88	0.17484486
130	0x3e06f89a	0.13180771
131	0xbe0871a5	-0.13324602
132	0xbd5b7291	-0.053576056
133	0x3dd39de2	0.10332848
134	0xbda2df1e	-0.079527125
135	0x3e0f3224	0.13983971
136	0xbdc9e444	-0.09857991
137	0xbd3d7808	-0.04625705
138	0x3d8317ee	0.064010486
139	0xbd4f7222	-0.050645955
140	0x3db0d716	0.086347744
141	0xbdddc45a	-0.10828467
142	0x3e53018d	0.2060606
143	0xbd97d357	-0.07413357
144	0xbc8f0692	-0.017459188
145	0x3c85d060	0.016334713
146	0xbd9bbd97	-0.07604521
147	0xbd816d6c	-0.06319699
148	0xbd748a09	-0.059701953
149	0x3cae20e3	0.021255916
150	0x3cc328f2	0.023823235
151	0xbd03e820	-0.032203794
152	0xbc94c98a	-0.018162508
153	0x3b218f99	0.0024652241
154	0x3d447f3f	0.047972914
155	0x3ddd2f79	0.1080007
156	0x3e9245f9	0.2856901
157	0xbcb31819	-0.021862077
158	0xbd989f31	-0.07452238
159	0x3eba8224	0.36427414
160	0x3e93e97f	0.2888908
161	0xbe3570f0	-0.17718863
162	0x3e06a250	0.13147855
163	0x3dcf7b4c	0.10130939
164	0xbc89975c	-0.016795807
165	0xbe08170e	-0.13290045
166	0xbd6f3e63	-0.058409106
167	0xbdbb8277	-0.091557436
168	0x3c0b5099	0.008503103
169	0x3e84b48f	0.25919005
170	0x3e9411bd	0.28919783
171	0x3de98669	0.1140259
172	0x3d98052b	0.07422861
173	0xbc2d7408	-0.010586746
174	0x3e6a51c5	0.22882755
175	0x3d9e52bc	0.07730624
176	0x3f01c2a2	0.5068761
177	0x3d8c4925	0.06849889
178	0x3e8ce0f7	0.27515385
179	0xbd5c05ab	-0.053716343
180	0x3eb5e0a0	0.35522938
181	0xbe20ac55	-0.1569074
182	0xbd72fc7c	-0.05932282
183	0x3eb636ce	0.35588688
184	0x3d76bafe	0.060236923
185	0x3e20dc7d	0.1570911
186	0x3dfcb935	0.12340013
187	0x3e74069e	0.2383065
188	0x3e149e49	0.14513506
189	0xbd8615a6	-0.06547098
190	0x3d08eb99	0.03342781
191	0xbe09bb22	-0.13450292
192	0x3e9f26da	0.3108433
193	0xbd91d9a1	-0.071215875
194	0x399c524f	0.00029815963
195	0x3d1bd44f	0.03804427
196	0xbdecb400	-0.1155777
197	0x3de52e03	0.11190417
198	0x3d44a96b	0.048013132
199	0xbc423300	-0.01185298
