lstm_model_weights/model_2.pth (torch, 77189 bytes, 9 tensors)

lstm_layers.0.weight_ih_l0 f4 [200, 1]
-0.36161754 -0.33968157 0.2424436 -0.09447012 -0.30128545 -0.25262555 0.14491273 -0.30219674
-0.009754874 -0.27063322 -0.014515701 0.009597038 -0.22099349 -0.24128245 -0.25665516 -0.060867812
0.12500472 0.24549562 0.25641295 -0.2523335 0.1314764 -0.10703098 -0.27299675 -0.24472138
0.085474715 0.024880508 -0.06962241 -0.12974481 0.11287485 -0.11700607 0.12969273 0.15608522
0.02462942 -0.0797301 0.18243076 -0.2523116 -0.1538386 -0.021192312 0.019142792 -0.107037164
-0.06801118 0.008130896 0.14706087 -0.12766653 0.4270547 0.06470058 -0.008471812 -0.043092705
-0.1113132 -0.21261434 0.1579861 0.042018894 0.29707584 -0.074199624 -0.08672566 -0.15366937
-0.055390578 -0.1810164 -0.11464278 -0.18882637 0.13027032 -0.13969621 -0.017440181 -0.19069237
-0.04474572 -0.08444077 0.13938707 0.10756684 0.2916318 -0.43475017 0.2709891 -0.026103314
-0.47845218 -0.30433917 -0.02938229 -0.05588636 0.01514723 -0.096874245 -0.08977337 -0.09278086
-0.060446206 0.16488777 0.04178664 0.48762098 0.34388888 -0.15997912 -0.06574649 0.12579307
-0.12952417 -0.0659646 -0.06727525 -0.13149783 -0.004784628 0.18410255 0.07474098 -0.23460053
0.14872919 0.2557813 -0.22226079 -0.50854397 -0.39017612 0.28589907 0.39719644 0.53151387
0.44966674 -0.39744306 -0.019785238 0.031297095 0.2576788 -0.4986839 0.47042948 -0.035833884
0.37465787 -0.019510971 0.10256007 -0.11140503 0.26293644 -0.29042774 0.43020126 0.37235728
0.3770907 0.43979278 0.51920724 0.031837627 0.3802214 -0.37863994 -0.014335683 0.30151495
0.460208 0.33435494 -0.37227046 -0.2781622 -0.31594446 -0.7242694 -0.08218049 0.17504263
0.32060274 -0.6598116 0.515584 0.088573836 0.2509695 -0.084114015 0.29124916 0.03592202
0.35647985 -0.19227277 0.43704897 -0.5198924 0.4662221 -0.25897056 0.198369 -0.05909925
0.38544577 -0.099989615 -0.40893874 -0.45034048 -0.008857798 -0.5256876 -0.03234036 -0.2560906
-0.113907725 -0.32589775 -0.07581959 -0.0012791478 -0.16644813 -0.29751745 -0.04119061 0.44282618
0.42779276 -0.2286688 0.10940069 -0.22208999 -0.4042867 -0.06605633 -0.29278803 -0.10603285
-0.24752738 -0.07666226 0.10330649 -0.073487505 -0.13724685 0.10346698 -0.0071405475 -0.18093467
0.23086761 -0.2529493 -0.33439383 0.012667366 -0.26186755 -0.06878604 -0.08534079 -0.13867988
0.0888483 -0.039278664 0.50844306 -0.08028167 -0.16533571 0.016350105 -0.043075893 -0.31062904
00000000: ef25 b9be beea adbe 2343 783e 8d79 c1bd
00000010: 1642 9abe 2358 81be 0164 143e 88b9 9abe
00000020: e8d2 1fbc 7090 8abe 43d3 6dbc e53c 1d3c
00000030: 1e4c 62be bf12 77be 4e68 83be 8750 79bd
00000040: 3d01 003e 3463 7b3e 8f48 833e db31 81be
00000050: c0a1 063e 0f33 dbbd 3bc6 8bbe 3e98 7abe
00000060: 5e0d af3d 35d2 cb3c 3296 8ebd d3db 04be
00000070: ee2a e73d e1a0 efbd 2cce 043e ced4 1f3e
00000080: a3c3 c93c 8949 a3bd 21cf 3a3e fc2e 81be
00000090: de87 1dbe 809b adbc 58d1 9c3c 4d36 dbbd
000000a0: 7249 8bbd 7337 053c 2097 163e 04bb 02be
000000b0: eaa6 da3e bd81 843d 5bcd 0abc fa81 30bd
000000c0: 2df8 e3bd 93b7 59be 1cc7 213e 011c 2c3d
000000d0: 531a 983e f9f5 97bd 399d b1bd 815b 1dbe
000000e0: 3be1 62bd 5d5c 39be d5c9 eabd b35b 41be
000000f0: 9565 053e 860c 0fbe b6de 8ebc dc44 43be
00000100: 4a47 37bd 48ef acbd 7cbb 0e3e 014c dc3d
00000110: c350 953e 9397 debe 15bf 8a3e 9ed6 d5bc
00000120: aff7 f4be 58d2 9bbe 21b3 f0bc 19e9 64bd
00000130: 162c 783c 0166 c6bd 1adb b7bd e403 bebd
00000140: 7196 77bd 57d8 283e 7828 2b3d 75a9 f93e
00000150: 3412 b03e 91d1 23be 19a6 86bd e6cf 003e
00000160: fca1 04be 7318 87bd 9bc7 89bd 5ea7 06be
00000170: 5ec8 9cbb 6185 3c3e cd11 993d 1f3b 70be
00000180: 774c 183e c4f5 823e 5598 63be f02f 02bf
00000190: 2ac5 c7be 5d61 923e 555d cb3e 4b11 083f
000001a0: b83a e63e a87d cbbe a714 a2bc 6231 003d
000001b0: 7aee 833e 7f53 ffbe 22dc f03e 8dc6 12bd
000001c0: 28d3 bf3e 79d5 9fbc 040b d23d 5228 e4bd
000001d0: 9b9f 863e f2b2 94be 5743 dc3e 9da5 be3e
000001e0: 0812 c13e 852c e13e c4ea 043f 2c68 023d
000001f0: 61ac c23e 18dd c1be 36e0 6abc 2b60 9a3e
00000200: 62a0 eb3e 9230 ab3e 3c9a bebe 476b 8ebe
00000210: 79c3 a1be b869 39bf 3f4e a8bd 603e 333e
00000220: 0b26 a43e 6ae9 28bf 50fd 033f 3366 b53d
00000230: 137f 803e f843 acbd 9c1e 953e f822 133d
00000240: 8784 b63e 27e3 44be e2c4 df3e ab17 05bf
00000250: aab4 ee3e ca97 84be 3e21 4b3e 0e12 72bd
00000260: 2659 c53e 5bc7 ccbd 6b60 d1be 0793 e6be
00000270: 4c20 11bc 7693 06bf 5377 04bd 4f1e 83be
00000280: 7448 e9bd 12dc a6be 4d47 9bbd 14a9 a7ba
00000290: 6171 2abe 3554 98be 7cb7 28bd 1dba e23e
000002a0: a707 db3e 2728 6abe 780d e03d 8f6b 63be
000002b0: abfe cebe 8b48 87bd 50e8 95be c027 d9bd
000002c0: d177 7dbe 1a01 9dbd 5a92 d33d 9e80 96bd
000002d0: 708a 0cbe 7fe6 d33d 41fb e9bb f046 39be
000002e0: 8f68 6c3e 9282 81be ab35 abbe c98a 4f3c
000002f0: 8113 86be b2df 8cbd 27c7 aebd 1902 0ebe
00000300: 19f6 b53d aae2 20bd 5329 023f b76a a4bd
00000310: c44d 29be a8f0 853c 5970 30bd c50a 9fbe

lstm_layers.0.weight_hh_l0 f4 [200, 50]
-0.62415 0.4161862 -0.2715495 -0.62986916 -0.80388856 0.64903176 -0.12227083 0.20003134
-0.5613797 0.5393361 -0.14631043 0.11003089 -0.5803429 -0.37348357 -0.25119558 0.26160848
0.3593366 0.021918569 -0.075182304 -0.5832887 0.040168256 -0.1697182 -0.92339 -0.2912069
-0.58499324 -0.04112342 0.18816273 -0.66190153 -0.15265827 -0.41121128 0.32002574 0.018584555
0.61753833 0.2168072 -0.64616466 -0.5885686 -0.7635242 0.30993637 -0.8274237 -0.5566026
-0.14626503 0.1391454 -0.05174729 -0.30925155 -0.06317921 0.21016163 -0.20536447 0.08333929
-0.57372653 0.17179312 0.32756147 0.016138496 -0.48706537 -0.10852292 -0.15793903 0.20708363
-0.2505177 -0.18525095 -0.24024123 0.09859608 -0.27999446 0.079156026 -0.19273731 -0.19419307
-0.32925647 0.27047974 0.32395464 -0.47248414 -0.021463133 -0.38832638 0.06850758 0.31017593
-0.34059706 0.7305691 -0.6094049 0.11110177 0.38263932 -0.4458337 -0.17596585 -0.46732104
0.55207866 0.3236057 0.15093897 0.10833186 -0.20095904 -0.27011853 0.20963606 0.1212855
-0.24285744 -0.30115467 0.34279105 0.5102883 0.17806034 -0.39342475 -0.05510031 0.055151034
-0.24427886 0.1264853 -0.03810889 0.4805825 -0.11090021 0.22763836 0.3296633 0.2313365
-0.5340507 0.48297703 -0.2791016 -0.0052930717 -0.24316257 0.20613572 0.06263209 -0.046328478
-0.25031513 -0.09042074 -0.41427994 0.22958493 0.49785227 -0.69725657 0.411645 -0.51352733
0.13556764 0.20318425 -0.55822814 0.5883502 -0.012869273 -0.0405444 0.21273154 -0.3161936
0.09675863 -0.48438326 0.17360686 0.0051990044 0.52648246 -0.4251157 -0.3114942 -0.639553
-0.28504038 -0.26124302 -0.57123345 -0.46402273 0.04575833 0.22094752 0.2090774 -0.27278838
0.1168124 0.16422524 0.025372757 -0.25624326 0.05214891 0.6481021 -0.09133738 0.3311495
-0.22315402 -0.043101054 -0.4443392 0.4293898 -0.2338211 0.371507 -0.22773683 0.061742626
-0.029962158 0.373531 -0.2179663 -0.23439875 -0.35655293 0.27742133 0.43728152 -0.43220308
-0.057348363 -0.40118954 -0.005047073 0.23375286 -0.43604437 0.14017704 -0.27129623 -0.009653843
-0.024902271 -0.28847328 0.02988616 -0.17335925 0.2309433 0.08594376 0.26493675 -0.3981231
-0.28035554 -0.2235791 -0.24368611 -0.03437079 -0.40733021 -0.24642287 0.25461423 0.2724823
0.0029091912 -0.23295008 0.14950122 0.4269779 0.031795472 0.04593887 -0.18441361 0.3979118
-0.18695581 -0.0075211073 0.2999234 -0.036780316 -0.04168381 0.012713145 -0.20176797 -0.016399108
-0.06879716 0.077946365 0.071393274 0.16139114 0.07874835 0.10987238 -0.080568336 -0.09887662
0.16354057 -0.08772808 0.06623287 -0.27821052 -0.09927684 0.021385074 -0.16672587 0.1411337
-0.0012763208 -0.03478285 -0.3422443 -0.0036249796 0.114942715 0.20618229 -0.09642619 0.003502692
0.14956078 -0.15221013 -0.11766999 -0.20741305 -0.21679635 -0.21148014 -0.24394032 -0.02064296
-0.05414199 0.18232103 0.060422424 -0.107026644 0.1490278 0.038287688 0.25345144 -0.21326171
0.020821383 0.16263627 0.036196098 0.060655676 0.22880727 0.16340716 0.0124262255 -0.030095635
00000000: 4bc8 1fbf 5c16 d53e 8908 8bbe 1b3f 21bf
00000010: a4cb 4dbf f226 263f 2169 fabd 04d5 4c3e
00000020: 94b6 0fbf ee11 0a3f 67d2 15be e057 e13d
00000030: 5a91 14bf 3d39 bfbe b59c 80be 8cf1 853e
00000040: f8fa b73e 928e b33c 2ef9 99bd 6952 15bf
00000050: 7887 243d 9cca 2dbe 4963 6cbf 1219 95be
00000060: 1ec2 15bf 0871 28bd bbad 403e 6172 29bf
00000070: 7352 1cbe 498a d2be 6ada a33e a33e 983c
00000080: fe16 1e3f b502 5e3e 0c6b 25bf 6fac 16bf
00000090: 5276 43bf fbaf 9e3e 0ad2 53bf 827d 0ebf
000000a0: 80c6 15be 227c 0e3e f7f4 53bd 3856 9ebe
000000b0: 1a64 81bd 9c34 573e 104b 52be caad aa3d
000000c0: bedf 12bf 89ea 2f3e 23b6 a73e e134 843c
000000d0: a260 f9be 4441 debd c5ba 21be bb0d 543e
000000e0: db43 80be 6db2 3dbe cc01 76be beec c93d
000000f0: 6f5b 8fbe 8e1c a23d ee5c 45be 8cda 46be
00000100: 4e94 a8be 527c 8a3e 62dd a53e 71e9 f1be
00000110: 74d3 afbc b7d2 c6be b44d 8c3d 61cf 9e3e
00000120: bd62 aebe 9406 3b3f f601 1cbf 5389 e33d
00000130: 4de9 c33e 5144 e4be 6430 34be b444 efbe
00000140: 0755 0d3f a5af a53e bf8f 1a3e 18dd dd3d
00000150: 35c8 4dbe fa4c 8abe d6aa 563e 8864 f83d
00000160: 9faf 78be f230 9abe 4f82 af3e 41a2 023f
00000170: 7355 363e f86e c9be ddb0 61bd 0de6 613d
00000180: 3d24 7abe 5d85 013e 1118 1cbd e90e f63e
00000190: a61f e3bd 081a 693e a1c9 a83e 7ae3 6c3e
000001a0: 8cb7 08bf c448 f73e 68e6 8ebe 8171 adbb
000001b0: 9cff 78be 3e15 533e 4145 803d eec2 3dbd
000001c0: 4e29 80be 822e b9bd 801c d4be 5018 6b3e
000001d0: 7ee6 fe3e 687f 32bf 22c3 d23e 8776 03bf
000001e0: 3ed2 0a3e 880f 503e 0ae8 0ebf 1e9e 163f
000001f0: a5d9 52bc e311 26bd 4cd6 593e 21e4 a1be
00000200: 6329 c63d 1501 f8be ffc5 313e 695c aa3b
00000210: 8ec7 063f c4a8 d9be 2b7c 9fbe bfb9 23bf
00000220: d0f0 91be a5c1 85be 5b3c 12bf 6394 edbe
00000230: 166d 3b3d 1140 623e 6318 563e ebaa 8bbe
00000240: 573b ef3d a92a 283e 87da cf3c 5132 83be
00000250: 189a 553d 05ea 253f 180f bbbd 6d8c a93e
00000260: 7d82 64be bb8a 30bd 6d80 e3be fbd8 db3e
00000270: cc6e 6fbe 2a36 be3e d833 69be d6e5 7c3d
00000280: 3373 f5bc 753f bf3e 8f32 5fbe 3a06 70be
00000290: 1b8e b6be 2b0a 8e3e 5de3 df3e b949 ddbe
000002a0: 1ee6 6abd b768 cdbe eb61 a5bb e95c 6f3e
000002b0: 3541 dfbe 928a 0f3e 57e7 8abe 272b 1ebc
000002c0: d9ff cbbc c5b2 93be d2d3 f43c 1685 31be
000002d0: 677c 6c3e 4803 b03d caa5 873e cad6 cbbe
000002e0: c38a 8fbe ebf1 64be da88 79be 63c8 0cbd
000002f0: 968d d0be 4756 7cbe cc5c 823e cd82 8b3e
00000300: 21a8 3e3b 778a 6ebe d916 193e d99c da3e
00000310: f83b 023d 662a 3c3d ecd6 3cbe 18bb cb3e
00000320: 5871 3fbe 9f73 f6bb 8f8f 993e f5a6 16bd
00000330: a5bc 2abd cc4a 503c 439c 4ebe 6c57 86bc
00000340: 87e5 8cbd 58a2 9f3d a336 923d b843 253e
00000350: d146 a13d c504 e13d 0301 a5bd d37f cabd
00000360: 2e77 273e c8aa b3bd 19a5 873d 9c71 8ebe
00000370: a851 cbbd c02f af3c 30ba 2abe 5a85 103e
00000380: 384a a7ba 7678 0ebd a53a afbe 1191 6dbb
00000390: 1667 eb3d 7321 533e 187b c5bd 6c8d 653b
000003a0: 7626 193e f9dc 1bbe f7fc f0bd 1664 54be
000003b0: ddff 5dbe 408e 58be 7ecb 79be 6d1b a9bc
000003c0: fec3 5dbd 5db2 3a3e 817d 773d c930 dbbd
000003d0: be9a 183e 8dd3 1c3d 63c4 813e 4761 5abe
000003e0: 9b91 aa3c 1f8a 263e 5c42 143d 1672 783d
000003f0: 744c 6a3e 3554 273e 5e97 4b3c 1f8b f6bc

lstm_layers.0.bias_ih_l0 f4 [200]
0.317496 0.16335766 0.30975872 0.14394338 0.07993199 0.05346367 0.103920445 0.13539848
0.05782038 0.18242843 0.19264412 0.01276224 0.10729883 0.042072084 -0.030965595 -0.0659611
0.17629226 0.009639542 0.3536477 0.19066529 0.11295307 0.23205659 0.06881378 -0.04493419
0.023066396 0.022968924 0.04272331 0.16502476 0.17923096 0.07319828 0.08375179 -0.0004672121
0.110784926 0.3268585 0.025048036 -0.015497002 0.15750475 0.30656332 0.11677337 0.1648303
0.15014122 -0.012491818 -0.0085733 0.08103804 -0.0059483605 -0.15975924 0.23802271 -0.020078328
0.27338862 0.10841647 0.32327265 0.2978364 0.104536965 0.021201184 0.06916602 -0.050999373
-0.07107666 0.049391728 0.07011946 -0.07397967 -0.07996807 0.08303132 -0.053433355 0.07229785
-0.083393455 -0.13431604 0.088533185 0.076936215 -0.08752746 -0.08386418 0.060185783 0.122761056
-0.09384693 0.02049978 -0.09882503 -0.089718305 0.10464891 -0.011656021 -0.08769958 0.070719376
0.015519005 -0.031768516 0.12183481 0.04177726 -0.11946715 -0.029489134 0.096628994 0.0841175
0.08115314 -0.13267347 -0.065636545 0.08776446 0.028355481 -0.05931908 -0.10926639 -0.13196921
0.06978609 0.053931896 -0.0480105 0.019796759 -0.22267084 0.1671678 -0.23736033 0.058916
0.006866123 0.024977457 -0.06357549 0.058293343 0.013445803 0.12881994 0.0707373 0.1272182
-0.086942434 -0.057689067 0.020848608 -0.029482206 0.1081485 -0.02620484 0.06518284 -0.11941091
0.04411145 0.026499907 0.0530049 0.07044226 -0.022135694 -0.1324324 0.1517177 -0.009409749
0.014182109 -0.15727538 0.1535023 0.1341813 0.22277826 -0.123557895 -0.1331745 -0.07642393
0.10803567 -0.0746079 0.019451557 -0.03181407 0.13375716 0.06299959 0.034016497 -0.055909544
0.14450336 0.0056154705 -0.032005455 -0.13697694 0.052004706 0.0614098 0.006370751 0.14567538
0.12653022 0.35497805 0.011279597 0.17603774 -0.032455195 0.013226958 0.10771969 0.048119776
0.09844323 0.08322637 -0.0024785122 0.004127972 -0.099881604 -0.023377858 0.03521019 0.015646158
0.36580968 0.072963476 0.041211575 -0.019912243 0.080945574 0.068141 0.1489116 -0.026814902
0.010385945 -0.027251974 0.1996335 -0.01974864 0.23461835 0.123548396 0.14429146 0.47228405
0.22076882 -0.02811087 -0.07270421 0.38437042 0.14064386 0.061638337 -0.06118945 0.08065484
-0.08612421 0.08795104 0.03976262 -0.05967079 0.07572825 0.20848554 0.13190715 0.007558946
00000000: d68e a23e 3b47 273e b298 9e3e e565 133e
00000010: 62b3 a33d b9fc 5a3d 3ed4 d43d e6a5 0a3e
00000020: 10d5 6c3d 85ce 3a3e 8044 453e b718 513c
00000030: 7dbf db3d c753 2c3d 8fab fdbc 9d16 87bd
00000040: f585 343e 2bef 1d3c 5011 b53e c33d 433e
00000050: f053 e73d 3ea0 6d3e 3dee 8c3d ea0c 38bd
00000060: bdf5 bc3c 5329 bc3c a3fe 2e3d 40fc 283e
00000070: 5288 373e fbe8 953d 0f86 ab3d 26f4 f4b9
00000080: 35e3 e23d ff59 a73e 8a31 cd3c 23e7 7dbc
00000090: ed48 213e def5 9c3e e026 ef3d 46c9 283e
000000a0: 9fbe 193e 7baa 4cbc 0777 0cbc 46f7 a53d
000000b0: 77ea c2bb ed97 23be 3abc 733e 4e7b a4bc
000000c0: 98f9 8b3e 7409 de3d fe83 a53e 037e 983e
000000d0: 7a17 d63d 1bae ad3c eaa6 8d3d b8e4 50bd
000000e0: a490 91bd fb4e 4a3d cb9a 8f3d a782 97bd
000000f0: 4dc6 a3bd 530c aa3d efdc 5abd e510 943d
00000100: 30ca aabd 258a 09be e350 b53d bc90 9d3d
00000110: 9941 b3bd fcc0 abbd 5e85 763d 266a fb3d
00000120: d232 c0bd 28ef a73c c764 cabd 3bbe b7bd
00000130: 2b52 d63d e5f8 3ebc d69b b3bd 52d5 903d
00000140: 6d43 7e3c b41f 02bd 8784 f93d a21e 2b3d
00000150: 31ab f4bd 3293 f1bc 6ce5 c53d cc45 ac3d
00000160: 9e33 a63d 8edb 07be 746c 86bd dabd b33d
00000170: c149 e83c 90f8 72bd 0fc7 dfbd f022 07be
00000180: 02ec 8e3d b1e7 5c3d a8a6 44bd d02c a23c
00000190: d303 64be 092e 2b3e 960e 73be e751 713d
000001a0: 37fd e03b 869d cc3c de33 82bd 00c5 6e3d
000001b0: c94b 5c3c 60e9 033e b8de 903d 7d45 023e
000001c0: e00e b2bd 5f4b 6cbd b3ca aa3c ab84 f1bc
000001d0: f67c dd3d 88ab d6bc 957e 853d b58d f4bd
000001e0: 35ae 343d 5516 d93c ab1b 593d 0844 903d
000001f0: ea55 b5bc 5c9c 07be e25b 1b3e 592b 1abc
00000200: 145c 683c cc0c 21be b52f 1d3e d366 093e
00000210: fc1f 643e ec0b fdbd e55e 08be 2684 9cbd
00000220: ce41 dd3d 07cc 98bd df58 9f3c 784f 02bd
00000230: a3f7 083e ee05 813d e254 0b3d 6801 65bd
00000240: b0f8 133e fb01 b83b 2718 03bd af43 0cbe
00000250: e302 553d d888 7b3d bcc1 d03b ed2b 153e
00000260: 2391 013e afbf b53e 0fce 383c 3d43 343e
00000270: bdef 04bd e2b5 583c 249c dc3d 3e19 453d
00000280: 9b9c c93d 9672 aa3d 896e 22bb f043 873b
00000290: ba8e ccbd ec82 bfbc 8f38 103d 5f2c 803c
000002a0: 684b bb3e e06d 953d 78cd 283d 001f a3bc
000002b0: cbc6 a53d 828d 8b3d 487c 183e edaa dbbc
000002c0: d029 2a3c 883f dfbc b96c 4c3e e6c7 a1bc
000002d0: cb3f 703e f106 fd3d 24c1 133e 37cf f13e
000002e0: 3911 623e c448 e6bc f2e5 94bd 33cc c43e
000002f0: f204 103e 7b78 7c3d caa1 7abd 5d2e a53d
00000300: e461 b0bd ad1f b43d 21de 223d 5c69 74bd
00000310: 6a17 9b3d 3c7d 553e ab12 073e 09b1 f73b

lstm_layers.0.bias_hh_l0 f4 [200]
0.24886234 0.019355534 0.37822038 0.23667501 0.1737072 -0.007548522 -0.0496828 0.09318259
0.12503417 0.005483057 0.13298392 0.061756257 0.020531425 -0.17588964 0.0069055613 -0.02545107
0.14908355 -0.0036576649 0.2625085 0.22375749 -0.006495074 0.247271 0.2160663 -0.15413947
0.011031989 0.14778158 0.09610823 -0.015810115 0.10247513 0.20950499 0.10529102 0.08233831
0.1297767 0.49373057 0.2576097 0.00753862 0.05589027 0.32705426 0.12687555 0.13387859
-0.1224923 0.07419943 0.045941073 0.12238684 0.14377397 0.014985976 0.27228174 0.19512013
0.2511246 0.04081022 0.21390873 0.04422604 0.03984253 -0.10321109 0.08595977 -0.047682427
0.05760967 -0.09081181 -0.1864104 -0.09780946 0.009973664 0.15766706 0.029499907 -0.12775916
-0.13279791 -0.10613538 0.15167795 0.14796384 0.10101936 -0.0037343747 0.16492172 0.09846307
0.06931177 -0.0035657492 -0.15651967 0.052535743 0.01393315 0.095880315 0.026030716 -0.06625395
0.09631382 -0.08527569 0.24014492 0.17400518 -0.09726283 -0.10409061 0.07411826 -0.064057544
0.059413034 -0.03989976 0.10084978 0.062436108 -0.10413539 0.015355064 0.023602087 -0.024761293
0.06697177 -0.13007629 -0.051937163 0.049000364 -0.10760907 0.2021813 -0.066161565 0.045927335
-0.08553828 0.050364774 -0.07951981 0.17532226 -0.07679791 -0.121538274 -0.07153134 0.04751951
-0.007301804 -0.09811777 -0.09348326 0.10815918 0.018442217 -0.076076135 -0.059275124 -0.018706584
0.13162895 0.13041066 -0.12843272 -0.12546961 -0.031814486 0.0767852 -0.013188294 -0.072213516
-0.0184649 -0.0999178 -0.029908607 -0.08816824 0.18333471 0.09624644 -0.11174233 -0.11295228
-0.011848259 -0.095807634 -0.15763135 0.030808691 0.09413831 0.13073006 0.14546537 -0.09990163
-0.11842267 0.1041299 0.04682559 -0.12347743 -0.020588847 -0.014118999 0.12530243 0.07495839
0.106247835 0.21732329 0.012389226 0.0046000937 0.06622132 -0.09660232 0.10011703 0.18460642
0.26865193 0.14351988 0.16068894 0.022607302 -0.003732874 -0.10127189 0.14033647 0.011026049
0.109860204 -0.0135907745 0.09135149 0.06640894 0.1313844 0.04716788 0.17278042 -0.032144587
0.20977274 0.17604177 0.07754494 0.12877874 0.2580751 0.00556409 0.30249113 0.49440822
0.21031712 -0.02607413 0.008559058 0.30332145 0.24301744 -0.062306486 -0.0041058045 0.11484454
-0.11343828 -0.015228189 0.095970236 -0.15484524 0.32101804 0.214492 0.1435077 0.018924147
00000000: c5d5 7e3e 7f8f 9e3c 1aa6 c13e ef5a 723e
00000010: 4de0 313e 9859 f7bb 3180 4bbd 84d6 be3d
00000020: f508 003e 37ab b33b f02c 083e 21f4 7c3d
00000030: 8531 a83c 6a1c 34be 0c48 e23b c37e d0bc
00000040: 5ca9 183e 6fb5 6fbb 8467 863e af20 653e
00000050: a1d4 d4bb 9c34 7d3e 7c40 5d3e bdd6 1dbe
00000060: 84bf 343c 0e54 173e 64d4 c43d 3784 81bc
00000070: 7bde d13d 7a88 563e d1a2 d73d fda0 a83d
00000080: 2fe4 043e 41ca fc3e 6be5 833e 8706 f73b
00000090: 32ed 643d a873 a73e aaeb 013e 7817 093e
000000a0: 3edd fabd dff5 973d b52c 3c3d f4a5 fa3d
000000b0: 7c39 133e bd87 753c 8368 8b3e 92cd 473e
000000c0: 6793 803e 9e28 273d e40a 5b3e 5d26 353d
000000d0: ec31 233d 5660 d3bd ad0b b03d a64e 43bd
000000e0: 1ef8 6b3d 8bfb b9bd 5ee2 3ebe 5350 c8bd
000000f0: 9468 233c 7973 213e caa9 f13c 4cd3 02be
00000100: 2dfc 07be 825d d9bd 7751 1b3e d583 173e
00000110: 3de3 ce3d 69bc 74bb 3de1 283e 02a7 c93d
00000120: 54f3 8d3d 58af 69bb b146 20be b82f 573d
00000130: de47 643c e65c c43d 5e3e d53c 27b0 87bd
00000140: 2e40 c53d 05a5 aebd 8de8 753e 6a2e 323e
00000150: bc31 c7bd 752d d5bd 50cb 973d 9a30 83bd
00000160: 155b 733d ee6d 23bd 548a ce3d 01bd 7f3d
00000170: ef44 d5bd ce93 7b3c 2a59 c13c 32d8 cabc
00000180: 7f28 893d b832 05be 10bc 54bd 9bb4 483d
00000190: 2562 dcbd 9d08 4f3e b77f 87bd 4d1e 3c3d
000001a0: b22e afbd 4b4b 4e3d 48db a2bd ae87 333e
000001b0: 3948 9dbd 0fe9 f8bd 067f 92bd d1a3 423d
000001c0: f943 efbb f8f1 c8bd 2774 bfbd 8f82 dd3d
000001d0: 2214 973c cecd 9bbd 79ca 72bd 8d3e 99bc
000001e0: bdc9 063e 5f8a 053e de83 03be 1b7b 00be
000001f0: e84f 02bd 8f41 9d3d b713 58bc aee4 93bd
00000200: b443 97bc b4a1 ccbd e502 f5bc 8d91 b4bd
00000210: 18bc 3b3e db1c c53d 2ad9 e4bd 8653 e7bd
00000220: 331f 42bc cb36 c4bd 1d6a 21be 8262 fc3c
00000230: 96cb c03d 1ade 053e e0f4 143e 3a99 ccbd
00000240: 9687 f2bd 0f42 d53d 31cc 3f3d bce1 fcbd
00000250: f1a9 a8bc 6053 67bc 484f 003e c983 993d
00000260: 7798 d93d ff89 5e3e 2efc 4a3c 62bc 963b
00000270: 0b9f 873d 70d7 c5bd 280a cd3d 7709 3d3e
00000280: bf8c 893e e0f6 123e a48b 243e f332 b93c
00000290: 3ca3 74bb a367 cfbd 5db4 0f3e 9aa6 343c
000002a0: 63fe e03d d7ab 5ebc 7d16 bb3d 6901 883d
000002b0: a289 063e 1b33 413d 5aed 303e 0baa 03bd
000002c0: aace 563e 4b44 343e e2cf 9e3d 93de 033e
000002d0: 6b22 843e f852 b63b 1ee0 9a3e 1323 fd3e
000002e0: 5f5d 573e 6a99 d5bc 4b3b 0c3c f34c 9b3e
000002f0: 90d9 783e 1635 7fbd fc89 86bb 9d33 eb3d
00000300: 5452 e8bd a77f 79bc 0b8c c43d c08f 1ebe
00000310: 7a5c a43e caa3 5b3e aff3 123e d006 9b3c

lstm_layers.1.weight_ih_l0 f4 [100, 50]
-0.27313456 0.44241303 0.5072283 0.21940205 -0.598778 0.47950754 -0.3588807 0.20464571
-0.55450326 0.19413465 0.23341808 0.2668313 -0.10281142 -0.37984174 -0.2437389 0.34015644
0.8320748 -0.7239686 0.5809647 -0.5510031 0.09716893 0.06913978 -0.30552042 0.5347552
-0.23120973 -0.06511121 0.34160152 -0.7362031 0.3383795 -0.29145467 0.28342852 0.052290957
0.4018837 -0.13369979 -0.24182573 -0.5767798 -0.4250765 -0.24577959 -0.48313302 -0.5848974
0.06957475 0.41836813 0.2570689 -0.47970435 -0.052626442 0.62650996 0.12501575 -0.3430444
-0.010604455 0.6226499 0.021967737 0.3667739 0.27072322 -0.10449009 -0.14495969 0.11540084
0.25703627 0.35401797 -0.2960086 0.007909149 -0.09763867 -0.3345882 -0.21540865 -0.17591621
-0.033481155 0.23585476 -0.019011792 -0.06486028 0.08786116 0.022556338 0.049559593 -0.22909378
-0.39119735 -0.23445097 -0.19000189 0.016407594 -0.0020973857 -0.031668406 -0.012871034 -0.10683587
-0.21860857 -0.02385751 0.40810147 -0.069644876 -0.14315268 -0.059842184 -0.40203163 0.29025534
-0.31329924 -0.09705679 -0.30505067 -0.20631234 0.09080668 -0.063461885 -0.028328741 0.09071095
-0.18927054 -0.16845126 -0.26085648 0.04021538 -0.11935593 -0.07788879 -0.110191844 0.0760708
0.06767865 -0.024792263 0.21810465 -0.20612714 0.17312537 0.07138302 0.24925435 -0.06688391
-0.24807666 0.11529244 -0.012027188 0.15611841 0.059791412 -0.05550034 0.07950051 -0.30198485
-0.12043977 0.21764952 -0.17064205 -0.034483317 0.08395897 -0.1339041 -0.02639685 -0.017663892
0.179532 -0.10175087 0.11886754 0.11826072 0.11361517 -0.15708289 -0.20135732 -0.27013522
0.15891424 0.079441875 -0.12995113 0.020440362 0.040854894 0.1955083 0.10981115 -0.17066096
0.20724006 0.12033149 0.08714366 0.2218282 0.13030976 -0.1020995 0.22333105 -0.09669173
-0.26620862 0.29589635 0.07468467 0.21182488 0.085135214 0.0811188 -0.09678432 0.1284801
-0.2470611 0.20800628 -0.00070999615 -0.06217972 0.12150568 -0.23290212 -0.13459034 -0.2196493
-0.2675737 -0.21948455 -0.34509274 0.0029801035 -0.18945646 0.27210024 -0.22762947 0.26611257
0.0075409594 -0.17895512 -0.19301698 -0.12917471 0.4521079 0.100763686 0.31748077 0.45789182
0.023833072 0.05734415 -0.1415249 0.030213663 -0.11466246 0.1486815 -0.024413167 0.1262787
-0.017224902 0.11119183 -0.12883896 -0.088569134 0.014397289 -0.05979502 -0.09880811 0.14107257
0.015434612 -0.100614324 0.0043035513 -0.43355402 -0.11962505 0.047523163 0.122283824 -0.14642285
-0.070912175 0.11041632 0.005327743 0.109191276 -0.12623969 0.025908139 -0.13301076 0.1272408
-0.06008575 0.018113157 -0.030003319 -0.003232894 -0.12447514 -0.09653676 -0.22910827 -0.11981177
-0.013965388 0.2542289 -0.1211461 -0.022976298 -0.2592806 0.088635154 -0.031959534 0.08337718
-0.18319295 -0.13489307 -0.094495416 0.093811415 -0.03752347 0.026904069 0.098517254 -0.18098561
0.060418446 0.18807043 0.035714705 0.115626074 -0.28322124 0.19732854 -0.0352068 -0.03773584
0.013935966 0.08032054 -0.2303603 0.0016608647 0.34099883 -0.2050685 -0.20526382 0.024607835
00000000: 4bd8 8bbe f683 e23e b7d9 013f eeaa 603e
00000010: 8449 19bf 0382 f53e 36bf b7be a58e 513e
00000020: edf3 0dbf 3ccb 463e 2605 6f3e 1d9e 883e
00000030: cb8e d2bd 9e7a c2be b196 79be fc28 ae3e
00000040: db02 553f 0256 39bf 1aba 143f 8a0e 0dbf
00000050: 8100 c73d 2899 8d3d 2c6d 9cbe b7e5 083f
00000060: 3ec2 6cbe 0759 85bd 65e6 ae3e ce77 3cbf
00000070: 1440 ad3e 8c39 95be 8b1d 913e 0b2f 563d
00000080: b3c3 cd3e 99e8 08be 2aa1 77be d7a7 13bf
00000090: a1a3 d9be a5ad 7bbe 365d f7be d6bb 15bf
000000a0: 357d 8e3d 5934 d63e 899e 833e cf9b f5be
000000b0: d38e 57bd f562 203f 2104 003e 84a3 afbe
000000c0: 4fbe 2dbc fc65 1f3f aff5 b33c cac9 bb3e
000000d0: 3c9c 8a3e e6fe d5bd 5070 14be 4757 ec3d
000000e0: 429a 833e d841 b53e 708e 97be 6095 013c
000000f0: c8f6 c7bd 254f abbe 1694 5cbe 6123 34be
00000100: 8923 09bd e983 713e 9ebe 9bbc 77d5 84bd
00000110: 8df0 b33d 12c8 b83c 00ff 4a3d 8f97 6abe
00000120: 054b c8be ea13 70be db8f 42be 3869 863c
00000130: 4b74 09bb bbb6 01bd 08e1 52bc c4cc dabd
00000140: edda 5fbe d370 c3bc adf2 d03e f9a1 8ebd
00000150: 9e96 12be 141d 75bd 17d7 cdbe 599c 943e
00000160: c268 a0be b6c5 c6bd 9a2f 9cbe 8b43 53be
00000170: daf8 b93d 4ef8 81bd ad11 e8bc aac6 b93d
00000180: 23d0 41be 7d7e 2cbe fb8e 85be e2b8 243d
00000190: e270 f4bd 2884 9fbd 43ac e1bd 02cb 9b3d
000001a0: 1b9b 8a3d 2519 cbbc d356 5f3e fe12 53be
000001b0: c747 313e 4331 923d 883c 7f3e 6efa 88bd
000001c0: cf07 7ebe 711e ec3d af0d 45bc 81dd 1f3e
000001d0: d7e7 743d 5354 63bd 2ad1 a23d c29d 9abe
000001e0: 20a9 f6bd 84df 5e3e cabc 2ebe 613e 0dbd
000001f0: aef2 ab3d 281e 09be 353e d8bc deb3 90bc
00000200: 3dd7 373e c362 d0bd d370 f33d ad32 f23d
00000210: 12af e83d 56da 20be 9d30 4ebe 2a4f 8abe
00000220: 6aba 223e 6cb2 a23d e911 05be 8c72 a73c
00000230: 7657 273d 5433 483e abe4 e03d bfc1 2ebe
00000240: bd36 543e 5b70 f63d 6078 b23d ef26 633e
00000250: ec6f 053e 8b19 d1bd e5b0 643e 5006 c6bd
00000260: 7f4c 88be ba7f 973e 47f4 983d 9fe8 583e
00000270: 5f5b ae3d 9d21 a63d dc36 c6bd 4a90 033e
00000280: 96fd 7cbe 99ff 543e 091f 3aba 29b0 7ebd
00000290: f8d7 f83d e57d 6ebe 0dd2 09be bfeb 60be
000002a0: 6cff 88be 8fc0 60be ffaf b0be d74d 433b
000002b0: e000 42be b950 8b3e b317 69be e83f 883e
000002c0: 271a f73b 0340 37be 3ea6 45be 6046 04be
000002d0: b07a e73e 315d ce3d d78c a23e cc70 ea3e
000002e0: 933d c33c b3e1 6a3d e7eb 10be a582 f73c
000002f0: 27d4 eabd f73f 183e 1ffe c7bc 344f 013e
00000300: 3d1b 8dbc 8bb8 e33d 5cee 03be bc63 b5bd
00000310: 9be2 6b3c 9feb 74bd e85b cabd 5475 103e
00000320: 74e1 7c3c e20e cebd ce04 8d3b cbfa ddbe
00000330: fafd f4bd a6a7 423d f16f fa3d dfef 15be
00000340: 673a 91bd f421 e23d 5994 ae3b ad9f df3d
00000350: fa44 01be 4e3d d43c f933 08be 6a4b 023e
00000360: 7a1c 76bd 0b62 943c 85c9 f5bc f6de 53bb
00000370: d2ec febd 11b5 c5bd 5c9b 6abe e05f f5bd
00000380: 15cf 64bc 4a2a 823e 721b f8bd ca38 bcbc
00000390: 6dc0 84be 5986 b53d 00e8 02bd a8c1 aa3d
000003a0: ef96 3bbe 6921 0abe d086 c1bd 3320 c03d
000003b0: 36b2 19bd ec65 dc3c 6ac3 c93d 4b54 39be
000003c0: 5579 773d 8995 403e 9549 123d 5dcd ec3d
000003d0: 6002 91be 7e10 4a3e 0135 10bd e590 1abd
000003e0: ae53 643c 187f a43d 92e3 6bbe 5fb1 d93a
000003f0: 6697 ae3e 7afd 51be ae30 52be 5f96 c93c

lstm_layers.1.weight_hh_l0 f4 [100, 25]
-0.023805598 0.32361302 0.5641128 0.5412743 -0.35721272 -0.77198035 0.58884084 0.8712807
0.539269 0.64999783 -0.45824206 0.48492458 -0.5333011 0.6304952 0.08450206 -0.22162743
-0.6427191 -0.5680387 0.25094402 -0.28550848 -0.2844526 -0.15859544 0.20168379 0.31895414
1.0218086 -0.2017955 -0.0044440385 0.15979804 0.23024231 -0.012994889 -0.021085415 -0.0071628713
-0.08299208 0.15015215 0.026290227 0.028783131 0.16591534 0.038112592 -0.32040668 -0.032236207
-0.055190638 -0.15804109 -0.1626099 0.10972646 -0.15323897 -0.10373555 0.20024674 0.4502085
0.10609076 0.042094477 0.02261868 0.19087763 -0.14033721 0.13919744 -0.118372805 -0.14793538
0.20215724 -0.06306975 0.19110788 0.1096283 0.039139755 0.046275876 0.07650773 -0.14448522
-0.08720513 0.27181655 -0.16688372 -0.286803 0.038368333 -0.029874848 -0.060499255 -0.098312676
-0.058679175 -0.024915285 -0.06212316 0.2977348 0.054979734 0.076785006 -0.15066066 0.17274018
-0.09260661 0.3561486 0.2886167 -0.08987811 0.109389976 -0.34047842 -0.2676484 -0.0057707606
0.45346504 -0.13016523 -0.018732138 0.19136551 -0.01934581 0.22696435 0.2221126 0.022827022
-0.34474638 0.21426728 -0.015408884 0.6584143 -0.121082716 0.05803151 0.19283167 -0.18377066
0.13946941 0.3606005 -0.19679318 -0.059679024 -0.17466004 -0.28761652 0.18713322 0.09528515
0.019480074 -0.036385223 0.13117279 -0.15618613 -0.12146399 0.16717209 -0.066967905 -0.15306064
0.102895625 0.106374085 0.15243426 -0.072588086 -0.18783368 -0.553502 0.41441628 0.22915584
0.48255727 -0.34445098 0.04921942 0.23850965 0.46129173 0.24373631 0.13334274 -0.22018103
0.38507566 0.055812024 0.45442897 -0.029897435 -0.23350666 -0.34896868 -0.10419195 0.17747107
-0.35868832 -0.14817707 -0.10228946 -0.19636731 0.48048878 0.18025959 0.13202451 -0.18211736
0.42108306 -0.03490603 0.026301607 -0.14867294 -0.117345504 -0.081114694 -0.16220197 0.14186448
0.2024945 0.19399717 -0.115123965 -0.004669185 0.58442503 -0.47815078 0.030317975 -0.14920953
-0.08301044 -0.11621549 0.02740358 0.08698957 0.4563399 0.07657819 0.112235665 0.42182878
0.15531117 0.265448 -0.17876665 -0.08122733 -0.080024 -0.09373944 -0.0082305595 0.07915127
0.049895458 -0.16300063 0.0032391148 0.21417196 0.17470376 0.056283083 -0.02526438 0.044262335
-0.03856957 -0.11853434 -0.19314747 -0.25461787 0.05163394 0.064304136 0.21278906 -0.12461077
-0.036185462 -0.09321353 -0.15702799 0.16844596 -0.2556225 -0.18607518 0.12364269 -0.06859906
-0.13482374 0.076813735 -0.11682382 0.19914095 -0.14310792 0.07244845 0.08593385 0.14629021
0.0378933 0.03291743 0.14936034 0.088805646 0.014996426 0.05174427 0.051559933 -0.12780781
0.059165582 0.5520205 0.17567827 -0.072989985 0.15353286 -0.11460219 -0.27927512 0.16826916
-0.05837566 -0.020327935 -0.106059246 0.17985238 0.04609403 0.21320692 -0.2240753 -0.07939404
0.06960395 -0.16337256 0.11491716 0.08582865 -0.13775145 -0.10780999 0.03986937 0.0071570007
0.019133195 -0.29127967 0.472907 -0.0049695573 0.3178744 0.086190075 0.026204104 -0.2928929
00000000: f503 c3bc 9bb0 a53e b269 103f f490 0a3f
00000010: 96e4 b6be 81a0 45bf 46be 163f 410c 5f3f
00000020: 880d 0a3f 4266 263f b49e eabe 0948 f83e
00000030: 6c86 08bf 2268 213f 6b0f ad3d 4df2 62be
00000040: 3d89 24bf fc6a 11bf bc7b 803e 2b2e 92be
00000050: c5a3 91be d866 22be 3286 4e3e f54d a33e
00000060: a0ca 823f 7ba3 4ebe 4c9f 91bb 19a2 233e
00000070: a4c4 6b3e 84e8 54bc 52bb acbc 85b6 eabb
00000080: c0f7 a9bd 7cc1 193e 9a5e d73c 9aca eb3c
00000090: b6e5 293e f31b 1c3d 580c a4be 1d0a 04bd
000000a0: 940f 62bd 86d5 21be 3683 26be 44b8 e03d
000000b0: adea 1cbe 4e73 d4bd 7b0d 4d3e ba81 e63e
000000c0: 1d46 d93d 426b 2c3d cf4a b93c 6d75 433e
000000d0: 8fb4 0fbe c689 0e3e 716d f2bd 5f7c 17be
000000e0: 4f02 4f3e b72a 81bd c9b1 433e cd84 e03d
000000f0: 0251 203d c68b 3d3d 16b0 9c3d eff3 13be
00000100: 9a98 b2bd 8a2b 8b3e 91e3 2abe d8d7 92be
00000110: 1d28 1d3d 19bc f4bc 11ce 77bd 2858 c9bd
00000120: 9359 70bd 241b ccbc db74 7ebd b270 983e
00000130: 6e32 613d 7541 9d3d ca46 1abe cde2 303e
00000140: 89a8 bdbd 1c59 b63e 91c5 933e 0412 b8bd
00000150: da07 e03d 3053 aebe 3609 89be a618 bdbb
00000160: 922c e83e 094a 05be 2474 99bc 52f5 433e
00000170: 1b7b 9ebc 5869 683e 7c71 633e bcff ba3c
00000180: 9982 b0be e268 5b3e 8b75 7cbc d78d 283f
00000190: 37fa f7bd 73b2 6d3d aa75 453e 602e 3cbe
000001a0: 12d1 0e3e a1a0 b83e 2784 49be fe71 74bd
000001b0: 15da 32be 7942 93be da9f 3f3e dc24 c33d
000001c0: ad94 9f3c ac08 15bd 2952 063e 42ef 1fbe
000001d0: 1dc2 f8bd 292f 2b3e 7826 89bd eebb 1cbe
000001e0: f1ba d23d a8da d93d ba17 1c3e 10a9 94bd
000001f0: 7957 40be 4fb2 0dbf 5f2e d43e d4a7 6a3e
00000200: bf11 f73e e15b b0be 4d9a 493d e03b 743e
00000210: 6e2e ec3e 0396 793e 008b 083e 2377 61be
00000220: a328 c53e 269b 643d eaaa e83e 77eb f4bc
00000230: 5f1c 6fbe 06ac b2be 9762 d5bd faba 353e
00000240: ffa5 b7be bbbb 17be 237d d1bd 8314 49be
00000250: a002 f63e f895 383e 6f31 073e f97c 3abe
00000260: 3398 d73e a0f9 0ebd 7876 d73c b83d 18be
00000270: d752 f0bd 761f a6bd 4618 26be ec44 113e
00000280: b85a 4f3e 32a7 463e 1dc6 ebbd f6ff 98bb
00000290: e19c 153f 2ed0 f4be 675d f83c 62ca 18be
000002a0: 6101 aabd 6302 eebd 797d e03c 9627 b23d
000002b0: 62a5 e93e 07d5 9c3d d0db e53d f1f9 d73e
000002c0: e409 1f3e cde8 873e 9b0e 37be 845a a6bd
000002d0: 9fe3 a3bd 77fa bfbd 78d9 06bc 101a a23d
000002e0: 2e5f 4c3d a3e9 26be 5447 543b e54f 5b3e
000002f0: 8be5 323e 1789 663d 3ff7 cebc 6c4c 353d
00000300: 20fb 1dbd 22c2 f2bd 73c8 45be 465d 82be
00000310: 1c7e 533d e3b1 833d 60e5 593e ee33 ffbd
00000320: 3537 14bd bce6 bebd f2cb 20be 197d 2c3e
00000330: f4e0 82be 7e8a 3ebe 6138 fd3d aa7d 8cbd
00000340: 3c0f 0abe 8550 9d3d 5441 efbd 9beb 4b3e
00000350: e28a 12be da5f 943d 16fe af3d 1acd 153e
00000360: 0136 1b3d 6dd4 063d ebf1 183e bcdf b53d
00000370: 92b3 753c cdf1 533d 8230 533d 0de0 02be
00000380: 9c57 723d 3751 0d3f 01e5 333e c67b 95bd
00000390: b837 1d3e 8eb4 eabd 26fd 8ebe c04e 2c3e
000003a0: 511b 6fbd c586 a6bc 9735 d9bd 392b 383e
000003b0: 18cd 3c3d ea52 5a3e ff73 65be 5899 a2bd
000003c0: 848c 8e3d 234b 27be b059 eb3d eec6 af3d
000003d0: b70e 0dbe 7ccb dcbd 114e 233d 4685 ea3b
000003e0: 38bd 9c3c 9c22 95be de20 f23e abd7 a2bb
000003f0: 6fc0 a23e 6c84 b03d fda9 d63c 0ff6 95be

lstm_layers.1.bias_ih_l0 f4 [100]
0.6356235 0.014846109 0.09805622 -0.101637125 -0.17273746 0.050396625 -0.009440784 -0.017475078
0.05025414 0.2388439 -0.102490194 0.1597941 0.29897696 -0.08729196 0.12336397 0.041149575
-0.15555586 0.08424522 -0.16449296 0.15216435 0.34265053 0.52339584 0.2000978 0.11038761
0.34199238 -0.19544858 -0.1939531 -0.01684527 0.19108401 0.15184747 -0.16683426 0.18408126
0.10299872 -0.013632954 0.14505492 -0.028857296 0.07565166 0.14024365 0.14537542 0.07425006
0.13555405 -0.11380908 -0.0986221 -0.10310376 0.16239019 -0.11876018 0.19936463 -0.12862206
-0.15449412 0.13970213 -0.103908 0.17054577 0.08865643 -0.0115674725 -0.16026463 0.07291878
-0.023102362 0.18552409 0.06169425 0.009975311 -0.1666697 0.25269163 -0.16886204 0.14025086
-0.047438342 -0.021965757 -0.193179 -0.047173105 0.19929673 -0.21925741 -0.1611442 0.13075523
-0.06368619 0.06633109 -0.15377663 0.5103541 -0.026537174 0.060889076 0.049352605 -0.18743081
0.08732477 0.09093271 -0.040713064 -0.037024047 0.20155181 0.20005856 -0.15576345 0.1921486
0.093073405 0.17977604 -0.005302486 -0.19887722 0.030289846 -0.07409798 0.017589474 0.296427
0.06599938 0.014261266 0.20188592 -0.059047796
00000000: 39b8 223f 183d 733c b3d1 c83d 2027 d0bd
00000010: 17e2 30be b16c 4e3d 85ad 1abc e527 8fbc
00000020: 49d7 4d3d 7f93 743e 61e6 d1bd 11a1 233e
00000030: 8213 993e 21c6 b2bd 40a6 fc3d 758c 283d
00000040: 094a 1fbe c288 ac3d d870 28be f9d0 1b3e
00000050: e46f af3e 45fd 053f 70e6 4c3e e612 e23d
00000060: a019 af3e ac23 48be a49b 46be 17ff 89bc
00000070: 87ab 433e e77d 1b3e 9ad6 2abe cc7f 3c3e
00000080: fef0 d23d c15c 5fbc 4789 143e 2366 ecbc
00000090: 42ef 9a3d 089c 0f3e 4bdd 143e 6a10 983d
000000a0: aece 0a3e bc14 e9bd 62fa c9bd 1028 d3bd
000000b0: 9d49 263e 8a38 f3bd 3e26 4c3e 80b5 03be
000000c0: b533 1ebe 130e 0f3e b8cd d4bd 8da3 2e3e
000000d0: 8191 b53d 7f85 3dbc 691c 24be 7156 953d
000000e0: 2a41 bdbc 07fa 3d3e 1cb3 7c3d 7d6f 233c
000000f0: 76ab 2abe cc60 813e 2cea 2cbe ec9d 0f3e
00000100: b54e 42bd 88f1 b3bc b7d0 45be 9638 41bd
00000110: 7114 4c3e 0485 60be fc02 25be b3e4 053e
00000120: e86d 82bd 98d8 873d 9f77 1dbe 91a6 023f
00000130: 7d64 d9bc d366 793d f525 4a3d dded 3fbe
00000140: 54d7 b23d ee3a ba3d bec2 26bd 87a6 17bd
00000150: 9963 4e3e 27dc 4c3e 7480 1fbe 9ac2 443e
00000160: 459d be3d 3617 383e 7ac0 adbb 78a6 4bbe
00000170: 6922 f83c afc0 97bd cd17 903c 48c5 973e
00000180: af2a 873d 16a8 693c 2fbb 4e3e 1adc 71bd

lstm_layers.1.bias_hh_l0 f4 [100]
0.3604674 0.20685028 -0.14161141 0.13575487 -0.15441312 0.39851037 0.040952884 -0.06518719
-0.13829531 0.08972107 0.28983596 0.1842068 0.30613202 -0.058896527 0.26073334 0.03854769
-0.0020583277 0.16125345 -0.20049316 0.020125927 0.42266357 0.36184117 0.1993013 0.04679434
0.028027577 -0.29403064 0.11823219 -0.16193151 0.13947736 0.010133497 -0.04591855 -0.024850648
0.12784478 -0.15283573 0.1708212 0.17048518 -0.07178123 0.020728277 -0.085804954 -0.13090882
-0.021482278 0.14920327 -0.103961796 -0.07125449 0.1643234 0.05764168 0.21574256 -0.075904936
0.09721643 0.07239132 -0.049145255 -0.1487725 0.13283423 0.16168131 0.075877964 -0.105932586
0.14544043 0.12786093 0.19590221 0.0663521 -0.0058299815 0.16485043 -0.15093786 -0.034051664
0.13087898 -0.14304332 -0.12472553 -0.17827828 0.08304706 -0.10444198 0.20025551 -0.16045235
0.087807626 0.2148652 0.11819687 0.70580095 -0.16284642 -0.001563846 0.08618214 -0.15972991
-0.03485764 0.034318775 0.16691665 0.01251502 0.14702572 -0.04144594 -0.0072982195 0.16193154
0.10852129 0.093881994 -0.00012380228 -0.18658009 -0.10149712 0.16116047 0.012291947 0.25847962
0.44551295 0.07768634 -0.18373363 0.032134894
00000000: 2f8f b83e 8fd0 533e 9502 11be 5303 0b3e
00000010: 791e 1ebe 8d09 cc3e 36be 273d dd80 85bd
00000020: 499d 0dbe aebf b73d 6165 943e b5a0 3c3e
00000030: 56bd 9c3e 7c3d 71bd d77e 853e 2fe4 1d3d
00000040: 02e5 06bb a01f 253e 144e 4dbe 21df a43c
00000050: 5c67 d83e 3f43 b93e a415 4c3e 6cab 3f3d
00000060: 179a e53c 2f8b 96be b823 f23d 60d1 25be
00000070: 27d3 0e3e f806 263c 1715 3cbd 9693 cbbc
00000080: bee9 023e f880 1cbe c1eb 2e3e ab93 2e3e
00000090: 0a02 93bd 59ce a93c 82ba afbd f60c 06be
000000a0: 9afb afbc bec8 183e ece9 d4bd e0ed 91bd
000000b0: 6544 283e af19 6c3d 9eeb 5c3e 0c74 9bbd
000000c0: 6819 c73d e641 943d 894c 49bd d157 18be
000000d0: b205 083e c98f 253e e865 9b3d 2ff3 d8bd
000000e0: 56ee 143e faed 023e 979a 483e 9ce3 873d
000000f0: 6e09 bfbb 8dce 283e 748f 1abe c279 0bbd
00000100: 2405 063e f379 12be 1970 ffbd 958e 36be
00000110: 9414 aa3d ade5 d5bd c80f 4d3e 9f4d 24be
00000120: 7cd4 b33d 9f05 5c3e 3311 f23d 5faf 343f
00000130: 36c1 26be f7f9 ccba 4380 b03d 3d90 23be
00000140: e2c6 0ebd d891 0c3d 33ec 2a3e cc0b 4d3c
00000150: e98d 163e 38c3 29bd e725 efbb 62d1 253e
00000160: 6940 de3d 3445 c03d ecd0 01b9 da0e 3fbe
00000170: b9dd cfbd 4007 253e 2a64 493c 7157 843e
00000180: 461a e43e 041a 9f3d ab24 3cbe e19f 033d

linear.weight f4 [1, 25]
0.4175936 -0.16273466 0.05556185 0.025061328 0.124993876 -0.20514497 -0.22881122 -0.19542114
-0.14098735 -0.19952862 0.20635131 -0.037904773 -0.14535578 -0.18765686 0.029878652 -0.15321986
0.13796712 0.1593925 -0.06430046 0.08859141 0.069367565 0.21517317 0.22944032 -0.15715358
-0.16513297
00000000: d4ce d53e eaa3 26be d394 633d 6a4d cd3c
00000010: cafc ff3d 8611 52be 7d4d 6abe 7b1c 48be
00000020: fd5e 10be 3b51 4cbe c24d 533e 0942 1bbd
00000030: 25d8 14be 1f29 40be 13c4 f43c abe5 1cbe
00000040: 4147 0d3e ca37 233e f6af 83bd 6a6f b53d
00000050: 9510 8e3d 5b56 5c3e 67f2 6a3e deec 20be
00000060: 9e18 29be
