lstm_model_weights/model_1.pth (torch, 45525 bytes, 5 tensors)

lstm_layers.0.weight_ih_l0 f4 [200, 1]
000000 f2 a2 40 be aa 1a 28 be d2 70 35 3d a7 b7 35 be
       -0.18812159 -0.16416422 0.044297047 -0.17745839
000010 0f 7e cc bd 99 86 86 3e 80 62 9c be a4 23 f4 3d
       -0.09984981 0.26274565 -0.305439 0.119208604
000020 66 06 82 3e 28 e1 12 be d7 30 14 bf db 55 aa 3d
       0.25395507 -0.14343703 -0.57887024 0.08317157
000030 62 59 08 3e ba 23 b2 be cb b9 a2 3d 4c 80 09 3d
       0.13315347 -0.34792882 0.079455934 0.03356962
000040 04 cf 59 3e f5 2d 94 be 1b f1 93 be 98 d8 8c be
       0.21270376 -0.28941312 -0.28894886 -0.27508998
000050 7e 10 94 3e ea 34 fd be d6 2c 2c be f4 e9 23 3e
       0.28918833 -0.49454433 -0.16813979 0.16007215
000060 e5 80 18 3e 14 ed 09 be 54 33 b8 bd b0 99 5b bd
       0.1489292 -0.13469344 -0.08994165 -0.053613365
000070 f4 06 8a 3d 33 e1 79 3e 23 ab c7 be e8 3d bf 3e
       0.067396075 0.24402313 -0.38997754 0.37351918
000080 47 3e 41 3c 89 ec d3 bb f9 fc 18 bf a4 1a 19 3d
       0.011794633 -0.006467406 -0.59761006 0.037378922
000090 6a f6 b8 be 3c 9e 34 bc aa 1d 78 bd 21 c0 1a bd
       -0.361255 -0.011024054 -0.060575165 -0.037780885
0000a0 8d 13 72 3e 68 11 6d be 7a cf e0 be 88 5b 86 bc
       0.2364027 -0.23151171 -0.43908292 -0.016401067
0000b0 2f 5d 50 3e 90 36 72 3d 96 fd 47 3e 7d 04 90 bd
       0.20348047 0.059134066 0.19530329 -0.07032106
0000c0 06 b5 55 bd 2d 48 a1 3e 6e e2 a7 bc 50 c7 fc bd
       -0.05217459 0.31500378 -0.020493712 -0.12342703
0000d0 19 45 02 be 3b 10 d5 3d dd fc 77 3d 62 91 b9 3d
       -0.12721671 0.10403486 0.060543884 0.09060933
0000e0 9b 96 13 bc 6d 07 df bd 99 ae 27 3d 35 54 39 3c
       -0.009008075 -0.10890088 0.040937994 0.01131158
0000f0 26 e3 1d bf 90 b8 19 3e ec a4 6d be c1 a9 13 bf
       -0.61674726 0.15011811 -0.23207444 -0.576809
000100 47 86 66 be 9c 7c 3a be fd d4 66 3d f0 ee 56 3e
       -0.2251216 -0.18211597 0.056355465 0.20989585
000110 07 81 cd bd f1 ca 04 3e be cf 82 bd 88 f6 3f bf
       -0.10034376 0.12968041 -0.0638728 -0.7498555
000120 c4 a2 cf bd 1b 78 07 be ae a5 7e be 42 52 00 be
       -0.10138467 -0.1322941 -0.2486789 -0.12531379
000130 fe f0 23 be de 32 80 be 7b be 7d be ca 8e 7f 3d
       -0.160099 -0.2503881 -0.24779694 0.062392034
000140 66 ca 37 be 8e 98 9e 3d 9c 6c 62 3c ab d0 48 bd
       -0.17948303 0.07743941 0.01381984 -0.049027126
000150 6b b3 5c bf c8 00 e9 3d 7b 00 5b be d5 58 51 3e
       -0.8621127 0.11377102 -0.21386902 0.20444043
000160 06 3e ec bc b5 4f b2 3d 9a 4d 17 be ee 46 85 bd
       -0.028838169 0.08706609 -0.14775696 -0.065076694
000170 51 6f 19 bf 82 ba e0 bd 30 ed 1f 3e 24 df 51 be
       -0.5993548 -0.109730735 0.15617824 -0.20495278
000180 f4 29 80 3e 32 36 11 bd 6a 92 86 be 82 ff 39 3f
       0.25032008 -0.035452075 -0.2628358 0.726555
000190 a5 73 3d 3e 70 dd 21 bf 66 9c 38 3e dc 8c 14 bf
       0.18501146 -0.6322851 0.18028411 -0.58027434
0001a0 2d 74 a9 bd c3 b8 29 3e 5c c4 13 bf 27 7a 79 3e
       -0.08274112 0.16574387 -0.57721496 0.24363004
0001b0 f7 61 97 3d 2b 50 52 3e d5 bd 6d be a5 e1 5b be
       0.07391732 0.20538394 -0.23216946 -0.21472795
0001c0 81 6d a7 be 60 f3 d1 be 08 78 ce be 83 0f ce 3e
       -0.32700732 -0.41005993 -0.40325952 0.4024621
0001d0 fe 70 09 3f 35 7f 0e 3f ca 78 34 bd ac 25 10 bf
       0.5368804 0.5566285 -0.044060506 -0.5630748
0001e0 0c 80 84 3e e8 9d 9f 3c e6 bc 1b 3e 8b fe 21 be
       0.25878942 0.019484475 0.15208778 -0.15819757
0001f0 c2 48 92 3e 78 f8 27 bd c9 81 91 3d e1 b9 e2 3d
       0.28571135 -0.041008443 0.07104833 0.1107061
000200 13 44 8d be d3 1d be 3e 03 e3 82 3d 08 dc 5a 3e
       -0.27591 0.3713213 0.06390955 0.21372998
000210 93 79 64 3e f4 31 a2 3d 33 9f e7 3e 71 98 d8 3e
       0.22312002 0.07919684 0.45238647 0.42303804
000220 3d cf 27 be 27 30 80 be 22 16 2d 3e a9 a3 55 bd
       -0.16387649 -0.25036737 0.16902974 -0.05215803
000230 56 df f2 3e 69 23 41 bd a3 00 11 3f 82 6e b6 bd
       0.47436017 -0.04715291 0.56641597 -0.089077964
000240 29 b1 90 3e d2 04 a2 bd b5 0b f7 3e 50 5a f6 3c
       0.28260162 -0.07911076 0.4825112 0.030072361
000250 70 da a1 3d 67 71 1d 3f d5 55 6f be 49 cc 5b be
       0.07902992 0.61501163 -0.23372586 -0.21464647
000260 39 9f 82 3b 9b 39 f6 3d 48 91 69 3d f9 2b e3 3b
       0.003986266 0.12022706 0.057023317 0.006932732
000270 74 38 20 bf 2e 52 49 3d c7 e5 29 3e b6 d0 32 bc
       -0.6258614 0.04915064 0.1659156 -0.010914018
000280 f7 32 03 bf 4e 60 a8 3e c9 36 8c be e8 46 90 be
       -0.5124964 0.32885975 -0.27385548 -0.28179097
000290 1a bd 5e bd b3 5e 07 3e 60 2a 97 3e 74 ed c4 be
       -0.05437956 0.13219719 0.29524517 -0.38462412
0002a0 a0 d0 ee be 7c 00 fb bd 65 fb 38 3e 04 f1 f4 be
       -0.46643543 -0.12255952 0.1806465 -0.4784013
0002b0 e2 1d d2 3b 94 57 d7 3d 32 8e 82 be a3 86 fb bd
       0.0064122537 0.10514751 -0.2549911 -0.12281539
0002c0 57 16 17 be 9b d2 23 be e0 90 24 3c ea cd b3 3d
       -0.14754616 -0.15998308 0.0100443065 0.08779509
0002d0 ed c1 e6 be 44 03 02 3f ea 9c 90 bd 1a e2 38 be
       -0.4506983 0.5078623 -0.07061179 -0.18055001
0002e0 5d 1c 30 bf 11 0e d9 3c fe f8 91 be c3 b0 c0 3d
       -0.6879328 0.026495965 -0.28510278 0.094087146
0002f0 e9 ac 31 be 0f 40 d2 3d 7d 8c bf bc 6a 8e 61 be
       -0.17351116 0.102661245 -0.02338242 -0.22026983
000300 d0 2e fc bd 8e 4d b4 3c 72 b7 8b 3e aa 52 61 be
       -0.12313616 0.022009637 0.27288395 -0.2200419
000310 65 24 08 bf 85 e1 f9 3c 1b a0 62 bc cb 16 cc bd
       -0.53180534 0.030503044 -0.013832117 -0.09965285

lstm_layers.0.weight_hh_l0 f4 [200, 50]
000000 b9 63 41 bd dd cf 18 be 78 a8 02 3e ba ff 2d bd
       -0.047214244 -0.14923044 0.12759578 -0.042480208
000010 4f 15 39 be 46 e1 5b 3e 27 ea 97 3d 28 0d de 3d
       -0.18074535 0.21472654 0.07417708 0.10842353
000020 7a dc 05 be be 61 22 be 3c 63 78 bd 13 f7 f9 bc
       -0.13072386 -0.15857598 -0.060641512 -0.030513322
000030 42 02 84 bc 1c a0 12 b9 4b f2 cd bc 03 d2 e5 bd
       -0.016114358 -0.0001398329 -0.025139948 -0.11221697
000040 56 3b ad bd 4c 9f c4 bc 98 24 19 bd ec 55 c3 bd
       -0.08458583 -0.02400174 -0.037388414 -0.09537873
000050 73 2a 36 bd 57 48 59 3e 10 12 dc bc fc 72 1d bd
       -0.044474076 0.21219002 -0.026864082 -0.038439736
000060 00 eb 01 3d 68 ed ba 3c e0 2d d9 3a 55 88 1d 3d
       0.031718254 0.022818282 0.0016569458 0.038460094
000070 8d b7 d8 3c 35 98 a1 bd 9a 0e c7 3d 79 e6 21 3d
       0.026454711 -0.07890359 0.09719582 0.039526436
000080 e8 cf 0b 3a 74 da f1 bd 11 7c 47 be fe d8 b5 3d
       0.00053334096 -0.11809245 -0.19480921 0.088792786
000090 a1 67 05 3d 29 04 c6 3d 70 e7 ff 3d dc a2 98 3d
       0.03256953 0.09668762 0.12495315 0.07452938
0000a0 38 ba 1b bb e3 8f fa 3d 93 3b 45 3e e0 69 26 3e
       -0.0023762118 0.122344755 0.19261007 0.16251326
0000b0 59 c7 67 3d 8d 6a f0 bd 53 26 bb 3d eb e8 89 3d
       0.056586597 -0.11739073 0.09138169 0.06733879
0000c0 e0 78 6d bb 8a 73 a7 3d 91 f6 c4 be d2 86 23 3e
       -0.0036235377 0.08176334 -0.38469365 0.15969399
0000d0 c1 34 3b be dd ae fe 3d 99 9d 4d bd 10 15 55 bd
       -0.18281843 0.12435696 -0.050199125 -0.05202204
0000e0 2a da 0d 3f bd 5e 85 be f8 1b 29 3d f3 ff 34 be
       0.55411017 -0.26048842 0.04128644 -0.17675762
0000f0 60 9c 17 3f 9f 7d c3 bc 1f ae e5 3e 35 ed 60 3e
       0.59222984 -0.023863612 0.44859406 0.21965487
000100 13 7d ad 3e 45 1e f8 be d0 27 91 be 34 9d b2 bc
       0.33884487 -0.48460594 -0.28350687 -0.021803476
000110 65 4f 6f 3e 99 89 52 3e b9 a2 94 be 79 dc 58 be
       0.2337013 0.20560302 -0.29030398 -0.21177854
000120 ce 6c b8 be 7d e7 04 3f de 0f 95 be 59 b7 2c be
       -0.3602051 0.51915723 -0.29113668 -0.16866817
000130 ec 8d 4b 3e 38 53 91 be 67 cb 0f 3e 3e 8f 0a be
       0.19878358 -0.28383803 0.14042436 -0.13531205
000140 27 b0 43 3d 4d 70 ce ba 90 c4 24 be d3 9d bf bd
       0.047775414 -0.0015750021 -0.16090608 -0.093562745
000150 81 4b 38 bf cb b6 5b be 4a 4d 55 3c d6 29 b1 3d
       -0.7199021 -0.21456449 0.013018915 0.08650558
000160 99 4e ca bd d6 7f fa 3d da f0 29 bf 3f 13 63 3e
       -0.098782726 0.12231414 -0.66383135 0.2217531
000170 34 c5 57 be 88 fa 83 3e 31 d1 c1 3d a8 16 73 3e
       -0.21071321 0.25777078 0.09463728 0.23739111
000180 32 0f a6 3c b8 4b 8c be e6 c3 c8 be 8c c7 5f bd
       0.020270918 -0.2740152 -0.3921196 -0.054633662
000190 7c b5 6f 3c 7b 9d 04 3d 61 9f bf bb bd 20 23 3e
       0.014630672 0.032376748 -0.005847857 0.15930457
0001a0 8e 87 bc 3d de 4d 56 3c 7d 1e e1 3d 4c 2c 73 3b
       0.092055425 0.013080088 0.10992143 0.003710526
0001b0 82 fe d1 3a 86 85 93 3c b9 c7 95 3d bc 0c d3 bc
       0.0016021284 0.018008005 0.07313485 -0.025762908
0001c0 89 52 26 3c ea 9f 2e 3d 30 8b f2 bd fb d4 b2 3d
       0.010151514 0.042632975 -0.11842954 0.08732029
0001d0 51 9b 58 bd 40 9b 63 be 76 74 a1 bd 6c 09 a4 3d
       -0.052882496 -0.22227192 -0.07883541 0.080096096
0001e0 13 83 13 be b7 a5 05 be 6a 83 2c bd 64 e1 ae 3d
       -0.1440547 -0.13051496 -0.042117514 0.085390836
0001f0 16 7b 4b 3c 90 fb bc 3d 55 96 2e be 7a 4a 0b 3d
       0.012419483 0.09227669 -0.17049535 0.034006573
000200 aa 1e 1a 3d b8 e8 d6 3c 21 96 e2 3c 55 4f 48 bd
       0.0376269 0.026234016 0.027659478 -0.048903782
000210 c9 c4 18 3e b0 8a 0c 3e 8c 9c b9 be e5 d5 06 3c
       0.14918818 0.1372478 -0.36252248 0.008229707
000220 f9 d8 2e 3e 82 b4 71 3d 5b fd 7e 3e 9f 19 24 bd
       0.17074956 0.059010036 0.24901335 -0.040063497
000230 c0 5a 67 bb 4c ee 23 bd 9a 05 8a be 72 72 0e 3e
       -0.0035301894 -0.04002218 -0.269574 0.13910845
000240 5b 32 12 3d be aa 86 3d 15 d4 2c bc c0 3e 01 3d
       0.035692554 0.06575535 -0.010548611 0.031553984
000250 10 ba 3d 3d a2 29 2e 3d 5d 9c ad be d0 48 aa bc
       0.04632002 0.042520173 -0.33908358 -0.020786673
000260 2f 97 74 bc f3 c9 c5 bc 50 89 f8 bd 22 1e 7b be
       -0.014928623 -0.024144148 -0.12135565 -0.24523214
000270 ed 06 2d 3f 4c 66 6f be 9a be 80 3e 72 2e 83 be
       0.6758869 -0.23378867 0.25145417 -0.25621372
000280 da 64 1b 3f d2 d0 fc bc 93 66 99 3e e2 30 80 3e
       0.6070076 -0.030861292 0.2996107 0.25037295
000290 0c 0e b5 3e 22 91 e5 be 8b dd be bd 13 5c 1e be
       0.3536228 -0.4483729 -0.093196 -0.15464811
0002a0 2c f0 a2 3e 5b c1 13 be d0 a8 c1 be cb cc 38 bf
       0.31823862 -0.14429228 -0.37824106 -0.7218749
0002b0 1f cc 47 be 64 09 bd 3e 2a fb a0 bd 79 ca 68 bd
       -0.1951146 0.36921227 -0.07860406 -0.056833718
0002c0 05 46 9b 3e 42 1d 60 be 16 a2 52 3e 54 37 f1 bd
       0.30326858 -0.21886161 0.20569643 -0.11778131
0002d0 97 72 1f 3d 44 b4 1c 3e a8 65 28 be 6c d6 f7 bd
       0.03892764 0.15303141 -0.16445029 -0.121014446
0002e0 6c ca ac bd 32 79 bb be c1 f2 44 bd bd a9 0d 3d
       -0.084370464 -0.36615902 -0.04808307 0.034585703
0002f0 d0 97 4d 3e e5 f9 3c 3e ca 8d 42 bf ea 6b 5c 3e
       0.20077443 0.18454702 -0.759976 0.21525541
000300 73 de 30 be ba 3d 5c bd f2 d5 0b bd 0b 13 ef 3d
       -0.17272358 -0.053769805 -0.03413958 0.11673554
000310 00 a1 10 be 43 1e ac be f5 43 16 bf ba 37 a8 bc
       -0.14123917 -0.33616838 -0.58697444 -0.020534385
000320 a0 0d 24 bd d6 c2 29 3e 2b 40 eb bd 4d 41 0e 3d
       -0.040052056 0.1657823 -0.114868484 0.034730244
000330 c1 06 31 3d e2 89 6c 3c 14 5f e1 3b e3 21 2f 3e
       0.04321933 0.014437171 0.0068777893 0.1710277
000340 91 3d 98 bc 07 87 25 be aa 0d 8c bd 05 d9 fb 3d
       -0.018584045 -0.1616479 -0.06838544 0.122972526
000350 ca 4c 43 be 21 e8 29 be 4b c0 dd bd b6 6e 64 3d
       -0.19072261 -0.16592456 -0.108276926 0.055769645
000360 2c 59 22 be ea 80 80 be ae 72 21 be fe 7b 85 3d
       -0.15854329 -0.25098354 -0.15766403 0.0651779
000370 15 b1 7d 3d df 07 39 3e e4 ae 46 3e c0 17 f2 3d
       0.061936457 0.18069409 0.19402653 0.11820936
000380 85 18 66 bd 3d 9e 5d bd 05 7b 85 bd ba 28 dd bc
       -0.056175727 -0.054105986 -0.06517605 -0.026996959
000390 cb 2d 80 bd e0 2b 72 bd e0 88 ea bd b4 d7 e3 bd
       -0.06258734 -0.059123874 -0.11451888 -0.111251265
0003a0 1a 47 2d be ae 54 4c 3e d5 78 00 3d 68 28 d6 3d
       -0.16921654 0.19954178 0.031365234 0.10456926
0003b0 4b a0 6b 3e 80 42 9a bd ac d5 07 be 4a d9 0a 3d
       0.23010366 -0.07532215 -0.13265103 0.03389863
0003c0 50 6b 4f 3e 74 66 06 be 6b ca b8 bb 66 3c 05 bd
       0.2025578 -0.1312502 -0.0056393645 -0.032528304
0003d0 42 e9 5f be 59 f0 a4 bc 31 46 81 3b 0e de aa 3d
       -0.21866325 -0.020134138 0.003945135 0.08343135
0003e0 81 5d 97 3e be c8 86 3d 09 3a 2f 3e 12 0e 83 be
       0.29563525 0.06581257 0.17111982 -0.25596672
0003f0 40 09 d7 bc 7e 7e ec bd c3 1a 1c be 05 ce 44 be
       -0.026249528 -0.11547564 -0.15244584 -0.19219215

lstm_layers.0.bias_ih_l0 f4 [200]
000000 7d bb 19 3e 96 49 46 3e 96 c8 ea bd 1e 52 20 3e
       0.15012927 0.19364008 -0.1146404 0.15656325
000010 97 54 53 be 0a 70 b0 bd 22 00 a2 3e d5 6c e1 3d
       -0.20637737 -0.0861512 0.31640726 0.11007086
000020 d1 da 86 3d 91 53 2d 3d 82 f4 11 3e 82 d1 99 3c
       0.06584705 0.042316023 0.14253429 0.018776659
000030 c3 b7 9d bc fe 03 84 3e ba b0 6c 3e 69 4b 46 ba
       -0.019252663 0.25784296 0.23114291 -0.00075643376
000040 8d 90 0b 3e f5 e6 94 3e de 76 bd 3d 23 4a ab 3e
       0.1362936 0.29082456 0.09251188 0.33455
000050 38 9e 0c 3e b6 db 5a 3e 0e 7f a3 bd b8 23 6f 3e
       0.1373223 0.21372876 -0.07983218 0.2335347
000060 ad 7c 56 3e af 5e 03 3e 9e f0 31 bc eb 1f 0f 3e
       0.20945998 0.12829088 -0.01086059 0.1397702
000070 d1 31 3d 3d b1 56 28 3e a0 74 14 bd a5 fc 60 3e
       0.046190087 0.1643932 -0.036244035 0.21971376
000080 88 17 b2 bd 12 37 e9 bd 03 9e ab 3d 88 65 50 3e
       -0.086958945 -0.11387457 0.08379748 0.20351231
000090 ba 07 b7 3d fc 1b 66 bd 2c 1f 64 3a ef 3d 94 3d
       0.089370206 -0.05617903 0.0008702155 0.072383754
0000a0 61 ce 16 3e ca d7 c8 bb 18 66 af 3e 4e 7c 41 3e
       0.14727165 -0.0061292397 0.3425758 0.18895075
0000b0 9b 3b 30 bd 1d 91 65 3c 31 81 f6 3e 0b 2d 14 bb
       -0.043025594 0.0140116485 0.4814544 -0.0022609856
0000c0 df 49 5c 3e d3 09 0d 3f 04 3d fd 3d 9d 5b 8a bd
       0.21512555 0.55093116 0.123651534 -0.06755755
0000d0 2f a1 50 3c 3f 1c 70 bd 01 bc 4a be 2b 6e e8 3d
       0.012733742 -0.058620688 -0.1979828 0.11349138
0000e0 62 28 ea bd fc 04 0b be ff 13 d6 bd d1 7f 0c be
       -0.11433484 -0.1357612 -0.10453033 -0.13720633
0000f0 11 e2 72 be af 89 39 be 7d c3 5a 3d e1 39 e9 3d
       -0.2371905 -0.18118928 0.05340909 0.11387993
000100 3e cc 30 3d d5 bd 4d 3d 86 68 8b be f4 4e 83 bd
       0.04316353 0.050229866 -0.27228183 -0.064115435
000110 67 12 17 bc 7d 59 71 3c 6c ef ea 3b 88 e4 98 3d
       -0.009220696 0.014730808 0.0071696546 0.07465464
000120 6e cd 4b be 99 51 99 bd e9 35 1f 3e f4 01 99 bc
       -0.19902584 -0.07486267 0.15547909 -0.01867769
000130 0f 34 aa 3d 62 4f cd 3d ac 06 3f 3d dd d7 9e 3d
       0.08310711 0.10024907 0.046637222 0.077560164
000140 e3 5c 94 bd 4d c2 8c 3d d6 35 41 be 71 1f 46 be
       -0.07244279 0.068729974 -0.18868193 -0.19347931
000150 45 b3 87 3d 28 46 9e 3c b5 47 d5 3d dc 26 cf 3c
       0.0662599 0.019320562 0.10414068 0.025287084
000160 2a cd 6a be 80 05 75 bd 72 96 e4 bd e6 73 51 3d
       -0.22929826 -0.0598197 -0.11161508 0.05113592
000170 03 fa b9 bb d2 8f 46 3e 50 48 29 be 62 cd 24 3b
       -0.0056755557 0.193908 -0.16531491 0.0025146832
000180 47 40 ec 3d 5b 0c a9 bb 26 37 d4 3d 0d 29 43 bd
       0.115356974 -0.0051589436 0.10362081 -0.04764657
000190 8c 17 28 be 15 dd 34 be f5 d3 b1 3d 16 4a 0b be
       -0.16415232 -0.17662461 0.08683006 -0.1360248
0001a0 fd 08 a7 3c d4 49 27 3c 1c 77 c6 bd 62 b8 0e be
       0.020390028 0.010210473 -0.09690687 -0.13937524
0001b0 ca 11 b8 bc 89 84 7f bd 7c 97 e1 3a 34 71 fe 3c
       -0.02246942 -0.062382255 0.0017211284 0.031059839
0001c0 c9 ce 8c 3d 00 ed 50 bd 1d 82 1a 3e cc 9d 96 bd
       0.06875379 -0.05100727 0.15088697 -0.07354316
0001d0 26 7f 00 be 13 0d 1f bd 1a ce 0d 3d f6 74 9f bd
       -0.12548503 -0.038830828 0.034620382 -0.077859804
0001e0 79 2f 17 bd 8c 46 97 3b 06 6c 9f bc f4 94 78 3d
       -0.036910508 0.004616564 -0.01946069 0.060688928
0001f0 1f 0e 0f be 2b 6f 23 be ac d1 91 3d 7e 0f 40 bc
       -0.1397023 -0.15960376 0.0712007 -0.011722444
000200 ae a2 34 bd 37 de 53 3d 0c ff 31 3e d2 20 78 3d
       -0.044100456 0.051725592 0.17382449 0.060578175
000210 16 03 91 3d 14 bf ff bd 47 38 c6 3d bb 63 a4 3b
       0.07080667 -0.12487617 0.09678703 0.0050167716
000220 91 e6 39 be 48 17 14 3d c6 e9 db bc 5f d4 0b bc
       -0.1815436 0.036155015 -0.02684487 -0.00853452
000230 d6 ef af 3d e3 d9 d8 3d 8a 57 e3 3d d7 9f 2e 3e
       0.08590667 0.105884336 0.11100681 0.17053162
000240 08 13 10 bd 27 0c f5 3d e5 d6 f3 3d 83 b5 b7 bc
       -0.0351744 0.119652085 0.11906222 -0.022425419
000250 fc 64 83 bd 4d d8 57 3d 87 1c a4 3d 45 fa 34 3e
       -0.064157456 0.052696515 0.08013254 0.17673595
000260 ef 92 db 3c a4 6a da 3d 79 c9 89 bd 62 16 58 3e
       0.026803462 0.10664871 -0.06727881 0.21102288
000270 21 f2 8d 3e 65 88 78 bd 6a 34 81 3d 56 87 b9 bd
       0.27723792 -0.06067695 0.06308825 -0.090590164
000280 c9 71 21 3e 4b da bd 3c 98 92 f1 bc a2 17 c1 3d
       0.15766062 0.02317538 -0.029488847 0.09428336
000290 d4 99 43 3e c4 25 ab 3d 6e 2a 3a 3e 34 5f 88 3e
       0.1910165 0.083568126 0.18180248 0.26635134
0002a0 e2 0c e4 3d e8 b8 95 3e ec 1e c3 3b 33 00 aa 3d
       0.1113527 0.29242635 0.005954614 0.08300819
0002b0 b8 0a 2f 3d c4 24 b6 3d bc 07 48 3e c3 af 7e 3a
       0.04273483 0.08893731 0.195342 0.00097155216
0002c0 f4 01 47 3d a4 22 bb 3d 8e b8 ed 3d 41 5f 7b 3e
       0.048585847 0.091374665 0.11607467 0.24548055
0002d0 4d ab 7e 3d 1b 95 02 bc a8 3f e4 3d b9 a4 04 be
       0.062175084 -0.00797012 0.11144954 -0.12953462
0002e0 44 39 64 3e 06 24 5a 3e f2 cf 9e bd c2 fa ca bd
       0.2228747 0.21302804 -0.07754506 -0.099111095
0002f0 fd 6e ea 3d e1 50 04 bb 1d 1c 05 3e e0 28 11 3e
       0.114469506 -0.002018981 0.12999006 0.14175749
000300 89 52 9e 3d f8 f7 18 3e 8b fc 7a bd 7f d3 b2 bd
       0.07730586 0.14938343 -0.061276 -0.08731746
000310 64 9c a3 3e bc a9 59 3d 4b a4 5f 3e 24 c0 8e 3e
       0.31955254 0.053140387 0.21840017 0.27880967

lstm_layers.0.bias_hh_l0 f4 [200]
000000 4d 9d 8a bd 7b 50 12 3e 6d 3e 06 3d a3 ce ae 3c
       -0.06768284 0.14288513 0.032774378 0.021338766
000010 89 06 46 bd 10 45 eb 3d 88 d4 8e 3e b5 28 bf 3d
       -0.048346076 0.11487782 0.27896523 0.09333936
000020 d3 19 4d bd 44 7c 92 bd cb 91 8e bd c5 ad 18 bd
       -0.050073456 -0.07152608 -0.069614016 -0.037275095
000030 13 fa f6 3d 35 4c 4b 3d da 32 3b 3e f7 96 43 3e
       0.120594166 0.049633224 0.18281117 0.19100557
000040 99 c6 26 3e 31 0a b5 3e 22 f3 ab 3c af 29 cd 3e
       0.16286696 0.35359338 0.020989958 0.40070865
000050 42 0e 63 3d 5d ac c8 3d f6 d6 90 3c c0 11 8a 3d
       0.05543352 0.09798501 0.017680626 0.06741667
000060 b9 8e 00 3e 49 b3 07 3d 13 85 8e 3d 6b a2 0b 3e
       0.12554444 0.033129964 0.06958976 0.13636176
000070 68 87 b7 3d 39 6f 43 3e f7 b7 80 bd 3f bf 20 3e
       0.089613736 0.19085397 -0.062850885 0.15697955
000080 44 8d f1 bd 61 5a 14 bd 63 68 a2 3e 2a de 3c 3d
       -0.117945224 -0.036219005 0.31720266 0.04611031
000090 33 84 37 3e 6a 82 77 3d 5b fe b5 bd 4b bf 8d bd
       0.17921524 0.060427107 -0.08886405 -0.06921252
0000a0 86 7b c5 3d 8e 73 d3 3d 07 72 34 3e 2c 6a 40 3e
       0.09642701 0.10324775 0.17621623 0.18790501
0000b0 0b de 00 3e f3 7a e9 3d 67 02 11 3f dc 59 89 3d
       0.12584703 0.11400404 0.5664429 0.067065924
0000c0 f1 41 e3 3d 91 25 ad 3e 0f a3 0a be 52 3a 22 3d
       0.11096562 0.33817723 -0.13538764 0.0396064
0000d0 9a fb 08 be f9 a5 23 bd ee 0e d4 3c ae 69 c0 3a
       -0.13377228 -0.039953206 0.025886025 0.0014679933
0000e0 e6 0d 27 3d e8 64 ba bd df d5 b8 bd 48 68 b8 bd
       0.04078474 -0.091012776 -0.09025168 -0.09004265
0000f0 88 95 08 be 2d 83 2a bd aa 2e 5b 3c 77 3f cd bd
       -0.13338292 -0.041629005 0.013377825 -0.100218706
000100 9e bc 47 3e d8 8b 9a 3c f4 7a 13 bd e5 00 69 bc
       0.19505545 0.01886551 -0.03600593 -0.014221405
000110 cf 9c 50 bb db e6 06 3e ec 23 c2 bd f2 f7 2f 3c
       -0.0031831746 0.13174002 -0.09479508 0.010740267
000120 54 6b a8 bc de 03 89 3d 1c c2 f1 3d 30 48 9d 39
       -0.02055899 0.06690191 0.118046016 0.00029999157
000130 3f 73 89 3c a9 36 08 bd 56 76 2f be 33 d4 f8 3d
       0.016778586 -0.033255253 -0.17134985 0.12149849
000140 cf 6a 92 bd 72 8a 3c 3d 4a 47 e4 bd b4 a3 c5 3c
       -0.07149278 0.04603047 -0.1114641 0.024125911
000150 15 2b da 3d ac b6 17 bc ea 8c 3d 3e bf 8d 5f 3d
       0.106527485 -0.009259861 0.18510786 0.05457854
000160 14 83 62 be 3a 7c 29 be 2a 1c ec bd e0 c0 7d bd
       -0.22120315 -0.16551295 -0.11528809 -0.061951518
000170 d2 4b fa bd 6b ea 1e 3d 40 5e 3c 3d 83 fa a2 3d
       -0.12221493 0.038797777 0.04598832 0.079579376
000180 1e 29 4a 3e fe 12 ea bb db 6a 00 3d e6 fa d8 bc
       0.19742247 -0.0071433773 0.031351905 -0.026486825
000190 c7 7f 93 3d 05 19 17 be 60 75 06 3d c0 b7 2c bd
       0.07202106 -0.14755638 0.03282678 -0.042167425
0001a0 44 81 77 bd 19 a9 d7 3c 16 84 e6 3d 2a 9b d6 bd
       -0.06042601 0.02632575 0.11255662 -0.10478814
0001b0 6a 59 11 3d 11 d5 22 3c 28 eb 17 be ac 50 75 bd
       0.035485663 0.009938494 -0.14835799 -0.059891388
0001c0 58 01 5c 3d c7 f5 0b be 5b b0 b4 bd 1e 8e e8 bc
       0.05371222 -0.13667975 -0.088227 -0.02838808
0001d0 01 08 e6 3d 58 5b 09 3e 00 97 96 3c e6 d6 a3 bd
       0.112319954 0.13413751 0.01838255 -0.07999973
0001e0 64 37 e1 bd 97 c6 de bd c8 40 10 bd ae 24 a6 3d
       -0.10996893 -0.10877722 -0.03521803 0.08112465
0001f0 6b df 22 be 16 13 08 bd ba d5 30 3e ea d6 10 be
       -0.1590554 -0.033221327 0.1726903 -0.14144483
000200 86 e8 15 3e a2 b0 42 be f6 77 c5 bc 70 a7 07 bd
       0.14639482 -0.19012693 -0.024105053 -0.033118665
000210 83 f4 54 bd cf b4 b0 3c e8 2d 41 3d 20 9c 50 3d
       -0.051990997 0.021570591 0.04716292 0.050930142
000220 cb b4 31 be d6 fd b9 bc 3c 85 e7 3d 2a 52 0a 3d
       -0.17354123 -0.022704046 0.11304709 0.033769764
000230 14 81 ad bd d9 22 d6 3d 0d 12 49 3e 59 71 2d 3d
       -0.08471885 0.104558654 0.19635792 0.042344425
000240 bd fd f9 3d ac 18 35 3e 79 00 0f 3d 5c ce 40 bd
       0.122066 0.17685193 0.03491256 -0.0470718
000250 9c 1a 4f 3d b3 9b 64 3d 95 12 0b 3e 4d 7c 56 3d
       0.050562486 0.05581255 0.13581307 0.052364636
000260 25 e6 22 be a2 fb a4 3c 2a 6b 3a be f4 4c 26 3e
       -0.15908106 0.02013952 -0.18204942 0.16240293
000270 a6 f2 3d 3e 1f 40 54 3a d6 39 08 3e 44 2d 03 bc
       0.18549594 0.0008096713 0.13303313 -0.008006398
000280 b8 ee 9e 3b c3 73 4e 3d a4 e3 c4 3c 5a 8b 29 3e
       0.004850235 0.050403368 0.024034329 0.16557065
000290 e9 a6 e7 3d 10 89 6c bc 32 24 10 3e 00 15 53 3e
       0.113111325 -0.014436975 0.14076307 0.2061348
0002a0 a9 26 7f bd 12 77 20 3e 4a d3 38 bd a2 98 14 3e
       -0.06229273 0.15670422 -0.045123376 0.1451135
0002b0 e5 49 8f 3d 81 bd 4e bd 04 3c 05 3e 70 4d b7 3d
       0.06996516 -0.050473694 0.13011175 0.08950317
0002c0 9a 5c 05 bd ac 00 f1 bd 0c 3b db 3d 35 95 cf 3d
       -0.032559015 -0.11767706 0.10704622 0.10135881
0002d0 40 99 a6 3d e2 0a 3d 3e 96 a1 04 3e 98 a8 9c 3d
       0.08134699 0.18461183 0.12952265 0.07649344
0002e0 a2 e0 0b bd e9 68 17 3c 1b 91 b9 bc db 9f 44 bb
       -0.034149773 0.009241321 -0.0226522 -0.0030002508
0002f0 3e e1 23 3e 75 30 c0 3d 2d c3 5b 3e b0 20 b4 bc
       0.16003892 0.093842424 0.21461172 -0.021988243
000300 da 6a 86 3e 2c 57 0c bc 39 f5 01 bd 3f 8b b2 3d
       0.26253396 -0.008565705 -0.031728003 0.08717965
000310 d5 b4 8b 3e e3 93 b2 bd 5a 02 41 3e 2d ed 59 3e
       0.272864 -0.087196134 0.18848553 0.21281882

linear.weight f4 [1, 50]
000000 13 ce 95 3d 4d 34 fe bd 84 ab 88 3d 3c 28 5d be
       0.07314696 -0.12412319 0.06673339 -0.2159738
000010 f5 08 88 bc bd 2a 89 bd 9d 16 9f be 5c d7 b4 3d
       -0.016605834 -0.06697605 -0.3107194 0.08830139
000020 d3 2b 69 bc 7d 58 c7 3c 88 26 72 3c 83 9a 57 bd
       -0.01423164 0.024334187 0.014779694 -0.05263759
000030 19 bf d0 bd 40 ea 6c be cb 43 2e be 09 f2 b3 3d
       -0.10192699 -0.23136234 -0.17018048 0.08786399
000040 df 7c 8c 3e 03 f3 06 3e db e9 1a be 6d d9 84 be
       0.2743902 0.13178639 -0.15128271 -0.25947133
000050 22 5a 02 3e 46 87 62 3e 0b db 42 bd ba 46 d8 bd
       0.12729695 0.22121915 -0.047572177 -0.10560365
000060 97 58 63 3e d6 a9 c1 3d e1 3a 67 bd cc 77 07 3e
       0.22201763 0.09456222 -0.056452636 0.13229293
000070 84 27 39 be 54 cd 36 3e 18 53 03 be 2f 76 d6 3d
       -0.1808148 0.17851764 -0.12824667 0.104717605
000080 41 73 95 3b 40 64 f0 3c 46 58 16 bc d8 00 08 3e
       0.0045608585 0.029344678 -0.009176319 0.13281572
000090 90 89 69 3e dd 2e fb bd bc 19 16 bd 73 d5 f9 39
       0.22806382 -0.12264798 -0.036645636 0.00047652013
0000a0 1f be e3 3d 26 51 b0 bd fa 51 17 3e 91 79 9e bd
       0.11120247 -0.08609228 0.14777365 -0.07738031
0000b0 ec d4 21 3e cb d1 ea bd 1c 1d 56 3e c8 ea 70 3d
       0.1580388 -0.11465796 0.20909542 0.058817655
0000c0 f9 61 82 3d d7 ed 8a 3e
       0.06366343 0.27134582
