lstm_model_weights/model_5.pth (torch, 108665 bytes, 13 tensors)

lstm_layers.0.weight_ih_l0 f4 [100, 1]
000000 d5 bc bc 3d b6 13 1f 3e b3 51 07 be 3a d0 03 bf
       0.09215704 0.15534863 -0.1321476 -0.51489604
000010 53 b6 4e be 73 fd 5d be 33 c9 86 be d3 4e 28 be
       -0.20186739 -0.21678714 -0.26325378 -0.16436319
000020 15 d8 ad be 0b 0f 01 3e 0d 76 ec 3d d0 77 1d 3d
       -0.3395392 0.12603395 0.11545954 0.03844434
000030 27 39 23 3d e8 4e 58 3e 33 f8 0e bc d0 9f 2b be
       0.039849427 0.2112385 -0.0087261675 -0.16760182
000040 1f 0a 98 bd 62 90 da be 1b 28 95 be 1c b4 04 be
       -0.074238054 -0.4268828 -0.2913216 -0.12959331
000050 62 9e 9f be 42 40 f9 bd b4 72 83 bd 1e 9f aa 3e
       -0.31175524 -0.12170459 -0.06418362 0.33324522
000060 a6 6e e9 3a 52 7d 1f be 53 33 15 3e 54 19 8a be
       0.0017809465 -0.1557515 0.1457036 -0.2697245
000070 60 33 f3 be ab 56 81 be 2c ae a1 3c df 5a 83 be
       -0.47500134 -0.25261435 0.019736372 -0.25655267
000080 d1 b6 b4 bd 54 b8 bf be 40 bb 4d be 45 ee 50 3c
       -0.08823932 -0.3744532 -0.20090961 0.01275212
000090 0c 86 01 bd e4 ea 09 be ae 95 4f 3e 00 3a 7a be
       -0.031621978 -0.1346851 0.20271942 -0.24436188
0000a0 3e 24 96 3e e2 cd 14 3e f7 1b 81 be 7f 52 39 bd
       0.29324526 0.14531663 -0.25216648 -0.04524469
0000b0 e3 26 c6 bd e7 4f ca 3c e0 08 d8 bd 29 7f 18 be
       -0.09675386 0.024696304 -0.10548568 -0.14892258
0000c0 e6 f6 7d 3e 16 aa b6 be 0f 1d 0f bf 65 c8 58 be
       0.24801216 -0.3567664 -0.55903715 -0.21170194
0000d0 ee 8b 49 be 6c 05 53 be a9 1d c7 3e a5 61 da 3e
       -0.19682285 -0.20607537 0.38889816 0.42652622
0000e0 28 b7 c9 bd af 4e 0d 3e 9c 9b 8f be c2 61 76 3d
       -0.098493874 0.13799547 -0.28048408 0.060151823
0000f0 cd b8 b4 bd 66 eb 21 3f 2f bd c1 3e a1 ae db be
       -0.088243105 0.63249815 0.37839648 -0.4290667
000100 a6 5b bc be 89 dc d7 be e0 93 f3 be f5 a9 fb 3e
       -0.36788672 -0.42160442 -0.47573757 0.49153104
000110 12 9d e6 3e 48 4e 08 bf b5 42 00 3f 4a 04 81 3e
       0.4504171 -0.5324445 0.50101787 0.25198585
000120 7a 84 56 3e 7a fd ef 3e 29 d6 de 3e d6 e0 26 be
       0.20948973 0.46873075 0.43522766 -0.16296706
000130 94 c6 c7 3e ce e9 c5 be 85 a0 e1 be 23 81 5c be
       0.3901869 -0.3865494 -0.4406778 -0.21533637
000140 18 42 b1 bd 1a 90 9b be ca 1f cc 3d a9 7b dc be
       -0.086551845 -0.30383378 0.09967001 -0.43063095
000150 a3 80 6e bb 6e ac 83 bd 63 46 61 3e 69 69 32 be
       -0.0036392591 -0.06429373 0.21999507 -0.17423023
000160 91 0f 8e 3e 3f a6 b5 be ea 92 99 bd 75 18 da 3c
       0.2774625 -0.35478398 -0.07498725 0.02662299
000170 73 83 90 be 12 60 62 be f2 10 20 be d0 e7 05 be
       -0.28225288 -0.2210696 -0.15631464 -0.1307671
000180 7f 9d 58 be ad eb 86 be 2b 01 81 3e f0 f6 e2 be
       -0.2115383 -0.2635168 0.25196204 -0.44329023

lstm_layers.0.weight_hh_l0 f4 [100, 25]
000000 ea 8c 9f bc c0 93 61 be 67 c7 ea 3e c7 9b d7 3e
       -0.019476373 -0.22029018 0.45855257 0.42111036
000010 9b 4a b1 bd 88 5b c0 be 6c aa 98 3d 15 4d 5b 3e
       -0.08656808 -0.37569833 0.074543804 0.21416123
000020 52 31 5e 3e 87 19 ae be 50 41 63 bd 53 38 10 3e
       0.21698502 -0.3400385 -0.05548221 0.14083986
000030 c0 4b 05 3e 64 54 ef bd e1 42 12 3c a0 9e 53 be
       0.13017178 -0.11686018 0.008927078 -0.2066598
000040 72 c2 d6 bc a7 de 51 be ec be db be 7f e7 e9 3e
       -0.026215766 -0.20495091 -0.429191 0.4568443
000050 0c cf 8b be cd 4b c8 3e e9 2c 74 bd 2c 72 9b 3e
       -0.27306402 0.3912033 -0.059613142 0.30360544
000060 d3 21 8d be dc 5f f8 bc e1 28 ef bd 6e 4d 7d 3e
       -0.27564868 -0.030319147 -0.11677719 0.24736568
000070 d7 b8 07 bd 73 18 10 3b dd 95 0a 3d 98 e4 22 3e
       -0.03313526 0.002198723 0.033834327 0.15907514
000080 10 b2 22 3c 4b 5f 03 bd 51 b0 73 bd 80 f3 20 3e
       0.009930149 -0.0320733 -0.05949432 0.15717888
000090 fd 67 68 3d 97 36 84 be 77 c4 07 3e 21 91 5f 3e
       0.056739796 -0.258229 0.13258539 0.21832706
0000a0 b2 22 19 3d db 29 c2 bd 63 56 24 be 78 fa bf bd
       0.037386604 -0.094806395 -0.16048579 -0.09373945
0000b0 0d 54 b6 3e eb cc bf 3d 51 66 e9 bd 87 7a 2f 3e
       0.35611 0.09365257 -0.113964684 0.17136584
0000c0 3e fa de 3a 1b 96 49 bd 26 3a 2a be 7b 32 ba 3c
       0.0017011834 -0.049215417 -0.16623744 0.02272915
0000d0 b5 0c d6 3d 71 ab 09 3e dc 58 17 3e 67 d7 88 3e
       0.104516424 0.13444306 0.14779991 0.2672684
0000e0 c4 2d 60 bd c9 5a 8d 3e 2b 0c 06 bd 4e 1f ef 3c
       -0.054731146 0.27608326 -0.032726448 0.029189732
0000f0 fd 06 aa be 7f 4c 2b 3e 21 b2 36 bd 89 dd 30 bd
       -0.33208457 0.167284 -0.04460347 -0.043180022
000100 d2 f9 62 be 3b 80 e3 be 32 a9 0e be 88 33 48 3e
       -0.22165611 -0.4443377 -0.1393173 0.19550908
000110 0b 50 b5 3d eb c0 cd 3c 88 91 5e 3d a5 6d 12 3d
       0.088531576 0.025116405 0.05433801 0.035749096
000120 14 c7 0b 3e 50 42 b5 3d 79 18 74 3e 7a 4b ac 3e
       0.13650161 0.08850539 0.2383746 0.33651334
000130 4d 1a 37 be 6a 86 81 bd fa 1b 10 be 2c c4 89 be
       -0.17881127 -0.063244656 -0.14073172 -0.2690748
000140 ca de 3b be 1d fd 30 3d bf 2f 93 3e 50 58 84 3d
       -0.18346706 0.043210138 0.28747365 0.06462157
000150 6d f1 16 be 94 59 7b 3d d5 20 2d be 70 88 98 3d
       -0.14740534 0.061364725 -0.16907056 0.074478984
000160 08 ea 27 3e ea f8 3d 3e e5 39 35 be ca 15 89 3e
       0.1639787 0.18551984 -0.17697866 0.26774436
000170 8b 68 bf be 97 a9 18 be 62 04 d2 3e 1a 03 f7 be
       -0.37384447 -0.14908443 0.4101897 -0.48244554
000180 c7 fa 3f bd 2e b2 88 3c 31 75 28 3e 19 de 57 be
       -0.04687002 0.016686525 0.16450955 -0.21080817
000190 b6 2f 9b bd 4d 83 7a be 95 5d a7 3e 96 39 c9 3e
       -0.075774595 -0.2446415 0.32688585 0.39301747
0001a0 be d0 9a be cf dc 3e be 9d 55 89 3e 39 85 bd bc
       -0.30237383 -0.1863892 0.2682313 -0.023134815
0001b0 68 a1 6d 3e f3 b1 29 be 4d 3e cb bd 7a d0 4a 3d
       0.23206103 -0.16571788 -0.09923992 0.049515225
0001c0 33 44 9f 3d 29 4e 38 3d 05 a1 10 3c b4 63 1f be
       0.0777668 0.044996414 0.008827453 -0.15565377
0001d0 d2 70 04 3e 8c 0e d7 be 1d 45 2a be 1e 90 b0 3e
       0.12933663 -0.42003286 -0.16627927 0.34484953
0001e0 e0 02 88 be cd a6 65 3e 2b 13 a2 be 1d 1d 20 3d
       -0.26564693 0.2242691 -0.3165525 0.039090265
0001f0 28 d2 4f bd 9e bc 4c 3e d7 5f 77 be 3e c4 9e 3e
       -0.05073753 0.19993827 -0.24157654 0.31009096
000200 34 d9 cc 3c 3c 41 89 ba 61 9c 4b be d6 f5 ad bc
       0.025005914 -0.0010471712 -0.19883873 -0.021235388
000210 67 b8 58 3e 14 57 f6 3d eb 4c c3 bc 9c 59 99 be
       0.21164094 0.120283276 -0.023840388 -0.2995118
000220 4b 33 db 3d 3d 75 a6 3e 86 bd 1d bd fe 81 56 3d
       0.10703143 0.3251132 -0.03851082 0.052370064
000230 41 b0 e9 bd c3 e9 d6 3d a6 ee a9 3c cb a5 1f 3c
       -0.11410571 0.10493805 0.02074368 0.009744118
000240 8f 37 42 3e 20 84 00 3e 9d e2 ac 3e 2b 39 b8 bc
       0.18966506 0.12550402 0.33766642 -0.022488197
000250 b6 1f ce 3e 35 fd 4a be 70 d2 ee bd 5d 02 f3 bd
       0.4025857 -0.19823153 -0.116612315 -0.11865685
000260 c9 2e a7 bd dc 22 97 bd cb c0 06 bd 88 f0 b2 3b
       -0.081632204 -0.07379696 -0.032898705 0.0054608025
000270 31 cf 20 3e c0 ed 99 ba c4 66 87 be 4e 7a 6d be
       0.15704037 -0.0011743829 -0.2644559 -0.23191187
000280 c0 ff 8b be 62 62 30 be 15 01 2e 3e 5f f4 15 be
       -0.2734356 -0.1722503 0.169926 -0.14644001
000290 c7 ad 62 be 31 16 65 be c2 50 30 be 87 b4 14 3c
       -0.22136603 -0.22371747 -0.17218307 0.009076244
0002a0 c3 9e 49 3e 1f 83 8f 3c 8d 66 0f 3d cd 8c 20 bd
       0.19689469 0.017518578 0.03500991 -0.039196778
0002b0 a3 ba 10 3e c6 57 e6 bd a2 58 81 3d d4 d5 2d 3d
       0.14133696 -0.1124721 0.063157335 0.04244025
0002c0 be 1e c2 bd bf a5 fb bd 0c 7d c5 bd 5c 93 44 bd
       -0.0947852 -0.12287473 -0.096429914 -0.047992095
0002d0 6f d1 ea 3d f0 af 83 bd dd f6 31 bd c0 f1 a1 be
       0.114657275 -0.06430042 -0.043448318 -0.31629753
0002e0 75 45 8d be e8 52 9f 3c e5 a1 29 be 7d 80 f8 bd
       -0.27592054 0.019448712 -0.16565664 -0.12133882
0002f0 1c 3f ed bd f6 e9 28 be aa 6d 08 bd 09 12 30 be
       -0.11584303 -0.16495499 -0.03330771 -0.1719438
000300 93 61 0d 3e 6e 85 22 3e b4 4d 7c 3e 84 65 86 3d
       0.13806753 0.15871212 0.24639016 0.06562331
000310 ef 87 3f be 03 fc 5d 3e ee 12 cc 3d 5c 3d 87 3e
       -0.18704198 0.21678166 0.09964548 0.26414
000320 df 1e 3b 3d 6c 9b 82 be 5a d7 d0 3e 8b 9d 92 3e
       0.045683738 -0.25509202 0.407893 0.2863582
000330 e5 2e c4 be 69 8d a4 3b 7b 08 31 3e 5a b2 c5 3d
       -0.38317028 0.00502174 0.17288391 0.096531585
000340 64 79 43 3e 20 e4 0a be 0d 34 95 3b c4 8a 7e 3e
       0.19089276 -0.13563585 0.004553324 0.24857622
000350 20 9a 3b 3e 3b 1f e4 bd e7 7d af 3e 0d 83 98 bd
       0.18320513 -0.11138769 0.34275743 -0.07446871
000360 35 9b 96 bc a3 22 23 be 1b 91 6d be 98 2a 7a 3e
       -0.018384555 -0.15931182 -0.23199885 0.2443031
000370 54 63 6f be 55 21 8a 3e 82 a3 6b bd 1a ea 16 3f
       -0.23377734 0.26978555 -0.05752898 0.5895096
000380 2e 5c a6 bd 53 6f 00 bf 57 53 b9 bd c9 f1 80 3c
       -0.08123051 -0.5016987 -0.09049099 0.015740292
000390 36 e0 9d 3d 6c 44 e8 3e 87 35 e3 3e d3 4a bc bd
       0.077087805 0.45364702 0.44376776 -0.09193959
0003a0 24 c2 80 bd 6c ff a3 be 5f a4 55 bd 83 04 c7 bd
       -0.062870294 -0.3203081 -0.05215871 -0.097176574
0003b0 ee 81 3c 3e ec 05 16 bd 6a 8f 59 be 80 f0 93 bd
       0.18408939 -0.03662674 -0.21246114 -0.07223606
0003c0 5b 7a 14 bf 0b 4d bd be 54 0b 90 3e 99 7a ee 3e
       -0.579992 -0.36972842 0.28133643 0.4657791
0003d0 46 a8 70 3e c9 a0 bb 3e 69 8e 33 bd 94 56 b2 3e
       0.23501691 0.36646107 -0.043836985 0.3483168
0003e0 b1 e2 a2 bb b6 5c 12 3e cc 6d 94 3c c4 65 ef bd
       -0.0049708714 0.14293179 0.018118761 -0.11689332
0003f0 f7 0b e8 bd 09 9e a4 3d d4 69 71 bd e8 13 90 3e
       -0.11330407 0.08037955 -0.058938816 0.28140187

lstm_layers.0.bias_ih_l0 f4 [100]
000000 26 d4 0f 3d aa 80 27 be 68 69 8b 3b e0 97 2a 3d
       0.03511443 -0.16357675 0.0042545088 0.041648746
000010 c9 63 1f 3e 43 ad 7c 3d 77 29 e1 3c 7e 15 87 bd
       0.15565409 0.061688673 0.027485592 -0.06595896
000020 96 f0 80 3e ab 52 57 be 50 b8 14 3e ba 8e 97 3e
       0.25183553 -0.21027629 0.14523435 0.2960108
000030 5e 1a 03 3e a4 09 f7 3c 84 1a 08 3e c4 a5 96 bc
       0.12803027 0.030155964 0.13291365 -0.01838959
000040 d9 56 91 3e 25 a1 2b bd 59 ca c4 3d 06 8a 9b 3e
       0.28386572 -0.041901726 0.09608907 0.3037874
000050 05 ba 89 3e 6d 27 6e 3e 6c 28 1d 3e fc d1 af bd
       0.26899734 0.23257227 0.15347451 -0.08584973
000060 6b c6 4a 3e 6a 57 1e 3e 8a 70 dd 3c cd 1d 12 be
       0.19802253 0.15463033 0.027031202 -0.1426918
000070 21 93 0e 3e 57 04 3a be f9 41 22 be 9e 6e 96 bd
       0.13923313 -0.18165718 -0.15845479 -0.07345317
000080 42 9e 32 be d6 2a 2b 3d 91 75 5a 3e 6d 0d 15 be
       -0.17443183 0.0417889 0.2133391 -0.14555903
000090 d3 32 49 3d 1c 78 1a be 50 b4 c4 3a 97 4f 4a 3d
       0.049120735 -0.1508488 0.0015007351 0.04939231
0000a0 d0 60 60 3e 3a d5 0d bd 28 1e 00 be 5e a7 12 be
       0.21911931 -0.034627177 -0.12511504 -0.14321658
0000b0 bb 0a 2a 3e df 94 34 3e 78 f9 cf bc 19 12 41 be
       0.16605656 0.17634915 -0.02538751 -0.1885456
0000c0 df 11 17 be b9 14 e2 bd a8 b5 40 be 27 e4 2f be
       -0.14752911 -0.11039109 -0.18819296 -0.17176877
0000d0 86 e4 15 3e 73 6e 84 bd e3 23 b5 3d 78 7f e3 3d
       0.14637956 -0.06466379 0.088447355 0.11108297
0000e0 d0 ae 10 be 74 e4 06 3e ec eb 83 3e a9 d9 9e bd
       -0.14129186 0.13173085 0.25765932 -0.07756359
0000f0 eb e9 01 3e ae c8 6b 3e 8c 2c a8 bd dd 0b 00 be
       0.12686889 0.23025772 -0.08211622 -0.12504525
000100 f6 3d 1e bd 83 db 04 bd 9f 0a 10 be 8e f7 12 bd
       -0.03863331 -0.032435905 -0.14066552 -0.035880618
000110 c7 b4 60 3d 1f ab d2 3d 11 e3 04 be 5e a2 dd 3d
       0.054859903 0.10286545 -0.12977244 0.10821985
000120 42 4a 7f bc 88 af 1a 3e aa e1 fe 3b 24 2c 50 3e
       -0.015581669 0.15106022 0.007778366 0.20329338
000130 2d a7 0b 3e 71 e2 34 3e c6 63 6d 3e 8e a1 85 3d
       0.13637991 0.17664506 0.23182592 0.06524955
000140 49 99 43 3e 20 f1 4e 3d d2 cb ea bd 8d b0 8c 3e
       0.19101442 0.050522923 -0.11464657 0.27478448
000150 ed ac 3b bd 0a e1 49 be ca 9e 7b 3e 3c 8c 2e 3e
       -0.04581921 -0.19714752 0.24572292 0.17045683
000160 dc c7 75 3e 1a 5d d3 bc e5 f6 50 3d b9 ec 6e 3e
       0.24002022 -0.02580123 0.051016707 0.2333249
000170 f0 44 ad 3e e7 a3 8b 3e 51 23 d2 3e ea 6b da 3e
       0.33841658 0.27273485 0.4104257 0.42660457
000180 04 a1 aa bd ce 67 2f 3e ac a5 11 3d 36 2e b8 3c
       -0.083314925 0.17129442 0.035558388 0.022482973

lstm_layers.0.bias_hh_l0 f4 [100]
000000 4f a4 95 3e 22 02 84 bd 43 a0 ad 3b e7 c3 d5 3d
       0.2922692 -0.06445719 0.0052986457 0.10437756
000010 1d 89 a2 3c f8 69 0a bd 49 36 24 be ba 1d dc bb
       0.019840771 -0.033792466 -0.16036333 -0.006717411
000020 80 f2 f1 3e d4 fc 67 3d 18 7b 19 be 2e 91 6d 3e
       0.47255325 0.0566376 -0.14988363 0.23199913
000030 33 7b 13 3e 5b ba 38 bd ea 51 af 3e cc d6 94 3e
       0.14402466 -0.045099597 0.34242183 0.29070127
000040 ca ec 9c 3e f7 67 5d 3e c3 d1 b8 3d 87 30 88 3e
       0.30649406 0.2162169 0.09024384 0.26599523
000050 af 1e 13 3e 17 b6 31 3e 3e 97 32 3e 7a 16 95 3d
       0.14367174 0.17354618 0.17440507 0.07279678
000060 93 f3 13 3e 4b 67 eb bd 10 b7 10 be 49 2e 02 3e
       0.14448385 -0.11494311 -0.14132333 0.12712969
000070 df 57 e5 bd 41 ee b1 bd b9 29 eb bd 0a 14 94 bd
       -0.11198401 -0.086880215 -0.11482567 -0.07230385
000080 ee 86 bf bd 46 16 23 3e 18 02 80 3e c4 2f 70 3d
       -0.09351908 0.15926465 0.25001597 0.058639303
000090 94 32 b8 3e a9 ab dc bd b8 a6 03 be 1a 55 0b 3e
       0.35976088 -0.10774929 -0.12856567 0.13606682
0000a0 54 b4 2b 3e 3b 80 64 3e 7f 74 24 3e da e5 c6 3d
       0.16768008 0.22314541 0.16060065 0.097118095
0000b0 ba 67 02 be 9d 3d f1 bd b7 cb 96 3e 51 06 13 be
       -0.12734881 -0.1177933 0.29452297 -0.14357878
0000c0 45 ae a8 bd 6d 0d c9 bc 34 17 c2 bc 85 90 3b be
       -0.08236364 -0.024542535 -0.023692705 -0.18316849
0000d0 52 b2 cb bc 5c f3 34 3e 92 bd 15 be 00 14 c1 bd
       -0.024865303 0.17670959 -0.14623097 -0.09427643
0000e0 22 24 30 3e 44 49 cf 3c 36 24 e7 bb 1f 95 ca bd
       0.17201284 0.02530349 -0.007053877 -0.09891724
0000f0 c5 be 9e bd b4 fe 84 3e 72 55 99 ba bd a7 8b bd
       -0.0775123 0.25975573 -0.0011698438 -0.06819103
000100 f4 b1 0f 3e d5 4c 9f bd 28 02 e6 3b 8f 01 85 bc
       0.14032727 -0.077783264 0.0070193 -0.016236095
000110 0b 8c bf bd 82 03 e3 bc ff dd 1c bd 1b 61 01 3d
       -0.09352883 -0.027711634 -0.03829765 0.031586748
000120 93 7a c8 bd ed 30 b2 3d 37 09 f5 bd 5c 69 da 3e
       -0.09789004 0.08700738 -0.11964648 0.42658508
000130 07 99 bf 3c af bc 2e bd ca 51 db bd 1b e9 04 3d
       0.023388399 -0.04266041 -0.107089594 0.03244887
000140 78 a1 95 bc 79 a2 fe bd e0 21 be bd 37 6c 93 3e
       -0.01826547 -0.12433333 -0.09283805 0.287935
000150 4d 3d 04 be c1 8f fa 3c ef 05 88 3e a3 82 72 3d
       -0.1291401 0.030586125 0.26567027 0.059206616
000160 ad da 3f 3c 3f a6 63 3e a6 4a e4 bc 9c 1d 27 3e
       0.011709851 0.22231387 -0.027867626 0.16319889
000170 be 6a 7b 3d bc e9 82 bd 9d 42 a6 3e a8 95 c5 3e
       0.061381094 -0.063922375 0.32472697 0.3859074
000180 76 b2 bc bd 1f 06 8d bd 7c 6b 3b bb 06 1f e8 3d
       -0.09213726 -0.06885933 -0.0028598001 0.11334042

lstm_layers.1.weight_ih_l0 f4 [200, 25]
000000 26 c3 c9 bd 94 72 90 be e3 ed ae 3e 30 db b9 3e
       -0.09851675 -0.28212416 0.34165868 0.3630004
000010 3e 87 f1 3d 85 2a 18 be 18 21 88 3e b5 93 07 3e
       0.117933735 -0.1485997 0.2658775 0.1323994
000020 d4 43 cd 3e 1d 21 a5 be 95 17 c1 be 9d f8 a3 3e
       0.4009081 -0.32251826 -0.37713304 0.32025614
000030 64 bd 07 3e 86 70 bf bd 5b 64 3e bb 44 bc 24 be
       0.1325584 -0.09347634 -0.0029051516 -0.16087443
000040 76 6e 3e 3d 55 13 15 be 87 4a 7a bd dc 10 f3 3d
       0.046492063 -0.14558156 -0.06110623 0.1186845
000050 f2 a9 0a 3d 61 2a 03 3e 3b f1 65 be 89 35 13 3e
       0.03385348 0.12809135 -0.22455303 0.14375891
000060 7a 73 5b be 19 11 59 3e a2 75 7f bd ef 7d bc 3c
       -0.2143077 0.21197928 -0.062368043 0.023009269
000070 e0 96 f3 bd 27 18 9a bd 28 2b 0a 3c 95 67 32 be
       -0.118940115 -0.07524138 0.008433141 -0.17422326
000080 ab 18 e6 bd 9b d6 37 3c 4a a5 30 3e d0 2b 0e 3e
       -0.11235174 0.0112205995 0.17250553 0.138839
000090 ba 7a 85 bd 14 aa 52 be ff f9 90 3d ba 90 eb 3c
       -0.06517549 -0.20572692 0.07078933 0.028755534
0000a0 b3 b3 90 3e 35 d4 28 3e e3 fc c0 bd 8a 05 1c be
       0.282621 0.164872 -0.09423234 -0.15236488
0000b0 49 d1 ba 3d 8f e6 53 be 29 e2 59 be c2 60 0c be
       0.09121949 -0.2069342 -0.2127768 -0.13708785
0000c0 b0 c2 a7 bb 20 18 ac bd 77 3c 55 bd 3d 12 08 bd
       -0.005119644 -0.08403039 -0.052059617 -0.03322052
0000d0 dc 56 4e 3e c6 60 f9 3d d7 45 6f 3d 1d ef cc bd
       0.20150322 0.12176661 0.058416214 -0.10006545
0000e0 09 66 b3 3d 39 bd 99 3b c3 f5 0a 3d a5 3b fa bd
       0.08759696 0.0046917466 0.033925783 -0.122184075
0000f0 0f df af bd fc 04 36 3e db 3a 90 bd 47 5c 0b be
       -0.08587467 0.17775339 -0.07042476 -0.1360942
000100 49 50 92 3c 2d 89 a1 bd 6e 7d 49 3d 3b 8e bf bc
       0.017860549 -0.07887492 0.049191885 -0.02338325
000110 b9 d9 07 be ca 02 fe 3d 71 35 65 bc 89 42 21 3e
       -0.13266648 0.12402876 -0.013989792 0.15748037
000120 46 bc f3 bd 66 95 c2 3d 3b 83 8c bc 18 ba 3a 3e
       -0.11901145 0.09501152 -0.01715242 0.18235052
000130 2d 46 f9 bd e6 9f 84 3d 33 cb e4 3d 01 ac 42 be
       -0.12171588 0.06475811 0.1117157 -0.19010927
000140 a7 f3 8d be 17 87 70 3d 04 dc fb 3d b0 b3 6c 3e
       -0.27724954 0.05872258 0.12297824 0.2311542
000150 15 7b 29 3d c2 5c 15 be 6f b2 5c 3c 10 08 3c be
       0.041377146 -0.14586166 0.013470276 -0.1836245
000160 70 ae ae ba db 71 9a 3d cd 55 29 3b 51 6f 4b 3e
       -0.0013327133 0.075412475 0.0025838495 0.19866683
000170 7e 93 f2 bd 20 95 e2 bd d7 cb 43 3e ce 19 aa bd
       -0.11844538 -0.110635996 0.19120727 -0.08305703
000180 68 37 84 3d 3d 5a 37 be be 06 bf 3c d7 c7 95 bd
       0.064558804 -0.17905517 0.023318645 -0.07313507
000190 90 8a ac 3b 23 8a 9e bd 9b ae 4f 3e 0a 69 9c 3d
       0.0052655414 -0.07741191 0.2028145 0.07637222
0001a0 85 9f 45 bc ab 2a b9 3b a2 00 e4 bb 78 93 d4 3d
       -0.012061958 0.0056508384 -0.0069580832 0.1037969
0001b0 36 64 23 3d fa dd 4e be 3e 16 03 be 65 57 f6 3c
       0.03989049 -0.20201865 -0.12801453 0.03007097
0001c0 09 c1 18 be f9 d5 b1 bd ee b3 18 3e 6c 69 fe 3c
       -0.14917387 -0.0868339 0.14912388 0.031056128
0001d0 c5 85 1c 3d a1 18 ea bc b5 ca c3 bd 9d 32 95 3e
       0.03821351 -0.028576197 -0.09560148 0.29140177
0001e0 2d b6 51 bd 42 12 5b 3e ba d9 bf bd 90 c2 03 3e
       -0.051199127 0.21393684 -0.093677 0.12867188
0001f0 d4 83 47 be 13 e8 3e 3e 08 3c 3c 3d 57 c9 7c 3d
       -0.19483882 0.18643217 0.045955688 0.06171545
000200 05 aa 9e 3d af 78 90 be 12 4a 14 be 54 ae 03 3e
       0.077472724 -0.28217074 -0.1448138 0.1285947
000210 85 e0 00 be 0f 6c 72 3e 63 72 b6 bc 14 06 5a 3d
       -0.12585647 0.23674034 -0.02227134 0.053228453
000220 f2 03 94 bc 8c 2b 38 be 63 42 82 3d 0e 96 23 3e
       -0.018068288 -0.17985362 0.063603185 0.1597521
000230 e6 9e 56 3e 91 8b 46 3e 31 7e c6 bd 80 9a e0 bd
       0.20959052 0.19389178 -0.09692038 -0.109669685
000240 5a 4e d0 3c b4 3b 38 be 24 4f fa bd ad dd c5 bd
       0.025427986 -0.17991525 -0.12222126 -0.09661422
000250 ae c2 00 3e 37 5b a3 be 62 1d 03 3e dd 1a 81 3d
       0.12574264 -0.3190553 0.12804177 0.06303952
000260 27 49 6d 3d c0 5d 0e 3e f0 d7 82 be 40 42 f9 bd
       0.05793109 0.1390295 -0.25555372 -0.12170839
000270 b8 61 fb 3d 6a 6e 5d 3d 01 db 93 bd 06 93 8e bd
       0.12274498 0.054060377 -0.07219506 -0.06961636
000280 aa 89 8e 3d 60 10 66 bd 48 49 5c bd 65 49 ec 3d
       0.06959851 -0.05616796 -0.053780824 0.115374364
000290 a2 21 da 3c 7c 4c 8c 3e 5d aa 75 3e 61 d1 a4 3c
       0.026627365 0.27402103 0.2399077 0.02011937
0002a0 50 e2 51 be c7 4b 2c 3e d8 78 1c be 74 34 4f be
       -0.20496488 0.16825782 -0.15280473 -0.20234853
0002b0 1f e6 3e be 3e 96 17 bd 6c 9e 23 be b0 8e ca 3d
       -0.18642472 -0.037008516 -0.15978402 0.09890497
0002c0 9a 12 61 be e7 14 81 3e 6c a7 57 bc b2 35 47 ba
       -0.21979752 0.2521126 -0.013162475 -0.0007599249
0002d0 54 81 16 be 0e eb 1c 3e 38 da 3b 3d 15 e9 ec 3c
       -0.14697772 0.15324041 0.045862406 0.028919736
0002e0 bf ef 1a be b8 58 38 be b0 8e 77 3d d8 d9 7b bd
       -0.15130518 -0.18002594 0.06043881 -0.06148705
0002f0 c3 b5 52 3c c1 a6 61 3e 9e 4a 41 bd 8e 5d 03 be
       0.012860718 0.22036268 -0.0471903 -0.12828657
000300 f0 e2 46 be 01 19 a0 bc 39 d8 69 3e 76 47 53 bd
       -0.19422507 -0.019543173 0.22836389 -0.051581822
000310 58 4f 76 3e ae c0 13 be f6 a0 97 3e 4e 48 09 bd
       0.24053705 -0.1442897 0.2961499 -0.03351622
000320 79 96 05 be 4d ec b2 3d a5 36 02 bc 9a 0b 00 3e
       -0.13045682 0.08736477 -0.007947599 0.12504426
000330 08 99 9f 3d d0 43 55 3e ca 94 97 3d 84 8d 62 3d
       0.0779286 0.2082665 0.07401426 0.05531074
000340 ba ad 26 be be 13 fe bc d5 fd 4e be 32 31 b3 bc
       -0.16277209 -0.031015273 -0.20214017 -0.021874044
000350 8c 4b 40 3e dc 7a 78 be c2 05 3f bd e1 9a 2b be
       0.18778819 -0.24265617 -0.04663635 -0.167583
000360 a9 97 ca bd 16 b6 26 3d f5 42 71 3e c8 f5 a9 be
       -0.09892208 0.040700994 0.23560698 -0.3319533
000370 53 5e 2f 3e e4 a1 16 bc 93 46 73 3e c4 67 cd bc
       0.17125826 -0.009193871 0.2375739 -0.025073893
000380 e8 ae 68 3e d5 a4 bd 3d 3a 11 8b 3c 36 84 90 3e
       0.22722971 0.09259955 0.016975988 0.2822587
000390 f2 be f2 3d 13 df 19 bd b6 20 15 3d a9 13 9f 3c
       0.11852826 -0.037566256 0.03640815 0.019418554
0003a0 d4 65 a8 ba ed 1f ee 3e f6 17 54 be 78 32 e9 3c
       -0.001284773 0.46508732 -0.20712265 0.028466448
0003b0 f7 79 56 3c 99 70 0d 3e 4a 25 b2 bd 44 1e 2f 3e
       0.013090602 0.13812484 -0.086985186 0.17101389
0003c0 da 55 31 be b0 97 67 3d 4b 49 66 be ea dd 88 bd
       -0.17317906 0.056541145 -0.22488897 -0.06682952
0003d0 c6 ef 98 bd f9 13 97 3d dd 09 e8 3d 41 2c 2c be
       -0.07467608 0.07376856 0.11330006 -0.16813757
0003e0 29 a5 b0 3c a9 c2 49 be a5 e8 48 bc 3f 1f 1f be
       0.02156313 -0.19703163 -0.012262498 -0.15539263
0003f0 42 ca e3 3d 7c f1 0d 3e fd 5e 27 3e 39 5a 53 3d
       0.11122562 0.1386165 0.16344829 0.051599715

lstm_layers.1.weight_hh_l0 f4 [200, 50]
000000 a7 ae f7 3c 46 ed 16 be 68 0d 57 bd 31 fb f1 bd
       0.030234648 -0.1473895 -0.05250302 -0.11815489
000010 64 25 d3 3c 0a a1 20 3e d9 6d b4 bb 6c 46 d0 bd
       0.025774665 0.15686432 -0.005506259 -0.10169682
000020 34 7d 66 bc cb 7a 21 3e 96 09 9b bd f4 d6 c6 be
       -0.014067937 0.15769498 -0.07570188 -0.3883587
000030 15 61 85 3e 0d 80 a8 be 60 0f 56 3a c5 04 08 3e
       0.2605063 -0.32910195 0.0008165743 0.1328307
000040 ac 2d 68 be ba a5 22 be ef ff 88 bd 05 60 a1 bc
       -0.22673672 -0.15883532 -0.066894405 -0.019699106
000050 16 e6 b3 3d 65 0c 8f 3e d7 d7 a6 bd bb f1 43 be
       0.0878412 0.27939144 -0.08146637 -0.19135182
000060 af f4 9a be 7c 9a 49 be 1d 5b 86 be e9 09 45 3d
       -0.30264804 -0.19687837 -0.2624139 0.048105154
000070 9b 46 87 3d 99 a3 ad be 17 2b 9a bc 48 68 90 bc
       0.06605264 -0.33913878 -0.018819375 -0.01762785
000080 fb 90 8f 3c 12 a5 47 bd 9e a3 d7 bc 4b f3 48 3e
       0.017525187 -0.048741408 -0.026323136 0.19624059
000090 81 93 ac be 21 50 12 be db 4e de bd f2 e1 a4 be
       -0.33706287 -0.14288379 -0.10854884 -0.32203633
0000a0 51 52 74 be 64 b4 0b be 8d ba 29 3e 6a a9 4e bd
       -0.23859526 -0.13643032 0.1657507 -0.050454535
0000b0 aa 4b 8b 3d f7 0c 3e be 42 d4 15 3d f6 fc af bc
       0.06801541 -0.18559633 0.036579378 -0.021482926
0000c0 3d a1 22 3e 1b 1b 33 bd 13 7d 69 bd f9 94 b6 3c
       0.1588182 -0.04372702 -0.057004046 0.022287833
0000d0 f3 68 cc 3d 98 bc ed 3c 4e 5a ee 3d 51 3f 5e bc
       0.09980955 0.029020593 0.11638318 -0.0135649005
0000e0 5e 62 ca bd a7 05 da 3d d8 e7 74 ba 35 c7 57 bd
       -0.09882043 0.10645609 -0.0009342409 -0.052680213
0000f0 07 3f 72 3c 70 e9 f1 bd b5 df b4 bc 8f c0 96 bc
       0.014785535 -0.11812103 -0.022079328 -0.018402366
000100 be 51 50 be 79 17 cc 3c 50 f1 b4 3d 2c 17 cb bd
       -0.20343682 0.024913536 0.08835089 -0.09916529
000110 28 8c 24 be 21 5e 70 bd d2 90 8d bd a3 a4 c4 3d
       -0.1606909 -0.05868352 -0.06912388 0.096017145
000120 37 77 aa bd 51 dd e1 bd 56 ed 31 be 6e 9c 20 3d
       -0.0832352 -0.11028541 -0.17375693 0.039211683
000130 08 c9 19 3e f9 28 32 3d d4 f7 83 3d 87 a2 01 3d
       0.15018094 0.043496106 0.06443754 0.03164914
000140 47 c4 55 bd d9 a1 87 3d d6 72 aa bd e2 2f 60 3d
       -0.052189138 0.06622667 -0.083226845 0.054733165
000150 3c 5b 1d be b1 0a 0c 3d 31 d4 ee bc 44 7b bd bc
       -0.15366834 0.034189884 -0.029153915 -0.023130067
000160 5c d3 d0 3c e5 97 90 bd 39 d0 9e 3b 73 d2 5b bc
       0.025491409 -0.070602216 0.0048465994 -0.013416874
000170 e5 bc be 3d 98 13 98 3c 72 a9 a1 bd b6 eb 89 bd
       0.093133725 0.01856403 -0.07893647 -0.067344114
000180 6d a2 d7 bd 2a cc 82 3d d1 17 63 3d 1b 1e f3 3d
       -0.10529027 0.063865975 0.055442635 0.118709765
000190 ef 67 a1 3e e9 a6 4b 3d c7 45 af bd 42 e5 ff bc
       0.31524608 0.049719725 -0.08558231 -0.031237248
0001a0 a0 83 d1 3d 4f 21 ed 3d 3e fd 08 bb d6 a5 05 be
       0.102301836 0.11578619 -0.0020902897 -0.13051543
0001b0 e8 fe 38 3e e2 92 ad 3e 78 ac ca bd 20 b6 21 be
       0.18065989 0.33901125 -0.09896177 -0.15792131
0001c0 da 1d 60 3e 0d 1d 34 be a3 bf 07 3d e0 4d 9f 3d
       0.21886387 -0.17589207 0.033141743 0.07778525
0001d0 5c f4 fa bd a4 f4 13 3e d0 2e 2d be 45 1d 46 3e
       -0.12253639 0.14448792 -0.16912389 0.19347103
0001e0 bc 42 1d 3d 50 dc 19 3e 69 22 06 3d 16 2d 5b be
       0.03839372 0.15025449 0.03274766 -0.21403918
0001f0 a7 a6 07 3d a0 d5 0c be ae 49 48 be f1 ee 2e be
       0.033117916 -0.13753366 -0.19559357 -0.17083336
000200 b7 f6 38 be 7b 10 94 bc 22 97 c2 3d 5b 90 40 3d
       -0.18062864 -0.018074265 0.095014825 0.047012668
000210 86 3f 1a be 9f c4 2a be e8 7c 93 3d cc b7 1f 3e
       -0.15063295 -0.16676567 0.07201558 0.15597457
000220 36 74 82 be 60 67 29 bd 04 9b 53 3d 0a cc b2 3c
       -0.25479287 -0.04135835 0.051661506 0.021825809
000230 df 58 82 be 12 43 05 3e e9 8e 37 3d c4 d8 77 3e
       -0.25458428 0.13013867 0.044814024 0.24203783
000240 fd ba 29 bc e0 6b d6 bd 92 7e 22 bd 22 e9 17 3e
       -0.010359523 -0.10469794 -0.039671488 0.14835027
000250 c6 86 34 3e a8 c7 a5 be fb 6e 68 3e 61 7f 09 bc
       0.17629537 -0.32378888 0.22698586 -0.008392186
000260 75 b6 10 bc 66 4a a3 bd d7 59 ce 3c 71 92 58 be
       -0.008832564 -0.07973175 0.025189323 -0.21149613
000270 ba de 1c bd ac 7e 1a 3e 9b 40 84 bd 34 89 06 3e
       -0.038298346 0.15087384 -0.06457635 0.13138276
000280 27 fa 45 be 52 61 8a be b6 ad f9 3d 86 f1 19 be
       -0.19333707 -0.27027375 0.12191336 -0.1503354
000290 ed db 6d bd 98 87 af bc 3f 3a bb 3d bb 43 ae 3d
       -0.058071066 -0.02142696 0.09141969 0.08509012
0002a0 41 77 d8 bd 54 ad 36 3c 26 20 9f bc 04 19 72 3d
       -0.10569621 0.011149723 -0.01942451 0.059105888
0002b0 05 d6 ed bc 5f 11 93 bd 5c 87 95 bd 63 e2 d6 3d
       -0.029032717 -0.07181048 -0.073012084 0.104923986
0002c0 23 95 0e 3d 55 bb ab be 5b 01 b2 bc a3 e3 ca bc
       0.034810197 -0.3354136 -0.021729162 -0.024766749
0002d0 c4 64 81 3c 47 95 7a 3e 40 ac 24 bc 4a 61 9b 3d
       0.01579512 0.24471007 -0.010050833 0.07586916
0002e0 53 91 e4 bc 3c 71 fb 3d 4b 56 65 be f3 5c 48 be
       -0.027901327 0.12277457 -0.223962 -0.19566707
0002f0 ec dd bb 3b 88 42 2a be 25 a1 86 bd 3a 1e 11 bd
       0.0057332423 -0.16626942 -0.06573705 -0.035429217
000300 66 ea 1a 3d f3 df 56 bd a3 70 2d 3e 2e d0 1c 3d
       0.037821196 -0.05245967 0.16937499 0.038284473
000310 8b 92 95 3d 33 fa 1a be 6f 35 61 bd 2b d0 d5 3d
       0.073033415 -0.15134506 -0.0549826 0.104400955
000320 f0 df 02 bd 8e 07 e0 bd 48 fd 95 bd a5 b9 8f bc
       -0.031951845 -0.10938941 -0.073237 -0.017544577
000330 b3 26 0d be ad 99 d2 3d 14 3b 31 3d 10 df 82 bd
       -0.13784294 0.102832176 0.043269232 -0.06390202
000340 56 e0 77 bc 12 12 aa 3e 4e 66 d3 bd 0f e0 6c be
       -0.015129169 0.33216912 -0.103222474 -0.23132347
000350 49 0f 26 3e 40 02 06 be 54 8f 08 3d 1b b2 e2 bb
       0.16216768 -0.13086796 0.033339813 -0.0069182045
000360 de 09 df bd c0 07 89 3d 92 e2 21 3e e0 a2 e5 bd
       -0.10890554 0.06690931 0.15809086 -0.112127066
000370 a2 06 41 3d 09 b4 57 3d 37 a3 33 be 7e 1e 3e be
       0.047125466 0.05266193 -0.1754273 -0.1856632
000380 04 e3 00 be 0e d4 15 3d 5c 82 1d bc 4d ab a6 bd
       -0.125866 0.036579184 -0.0096136 -0.08138142
000390 b8 dc e9 bd 81 46 01 be a2 01 15 3a 04 ad c4 bd
       -0.11419052 -0.12624551 0.0005684142 -0.096033126
0003a0 89 36 d2 3c ed cb 88 3d 20 ea 19 be e7 88 f4 3d
       0.02566077 0.06679521 -0.15030718 0.119401745
0003b0 ec 0a 82 bd 43 19 6b bd 3f e1 18 be a8 59 bf bd
       -0.063497394 -0.05739714 -0.14929675 -0.093432724
0003c0 3c 8c f6 bd fa 63 ec bd 47 23 00 3e a9 d8 69 bd
       -0.12038466 -0.115425065 0.12513457 -0.05709139
0003d0 45 04 7d bd e6 3b 94 bd 67 b9 5e bd d1 25 b4 3d
       -0.06177165 -0.07237987 -0.054376032 0.087962754
0003e0 84 5d d3 3d 0b a3 8d be f6 db 38 be 6e 9b a0 be
       0.10320571 -0.27663454 -0.18052658 -0.31368583
0003f0 3b ad 55 3d 3b 00 15 3d 6d b5 80 be 4d 4b 9f be
       0.05216716 0.036377173 -0.25138417 -0.31112137

lstm_layers.1.bias_ih_l0 f4 [200]
000000 42 94 91 3e 5d 56 4d bd 88 e6 0a 3e 23 31 06 3e
       0.28433424 -0.05013119 0.13564503 0.13104682
000010 2f 45 4a 3e 25 ce 58 3d 2f 39 65 3d dc 2e 03 3c
       0.19752954 0.05293097 0.055962738 0.008006778
000020 2e be a3 3d bf f5 8a 3d c6 42 a1 bd 30 dd 2e 3e
       0.07995258 0.067851536 -0.07874064 0.17076564
000030 37 c6 e0 3c 87 b0 0e 3d 8d 7d b6 3d 14 30 22 3e
       0.027438266 0.03483632 0.08910666 0.15838653
000040 76 06 66 3e 17 64 34 3e 8f 1f df bd 52 84 92 3e
       0.22463402 0.17616306 -0.10894691 0.28616577
000050 69 ac 98 3e 08 75 33 bd 12 f0 36 bc 90 12 ba bd
       0.2981904 -0.04381278 -0.011165636 -0.09085572
000060 d3 6f 85 3b c9 d8 1f 3d 33 b2 48 3e 13 4a eb 3e
       0.0040721684 0.0390251 0.19599228 0.45954952
000070 aa a6 c0 3d a4 7b 3b 3e 39 57 05 be 41 de 9c 3e
       0.09406789 0.18308884 -0.13021554 0.30638316
000080 fe b0 8d 3c 9b e7 cf bc 36 9e 9c 3d a7 54 10 bc
       0.01729631 -0.025378993 0.07647364 -0.008809245
000090 be b1 33 3e 30 eb aa bd a4 5d 07 3c b4 2d 06 3e
       0.17548272 -0.0834564 0.008262072 0.13103372
0000a0 5a 8c 2d ba db 6b 15 be 4d 21 6a 3e 7c 83 1f 3e
       -0.000662034 -0.14591925 0.22864266 0.15577501
0000b0 72 b7 83 3c c9 67 b6 3e 10 51 1c 3c 70 e4 13 3e
       0.016078684 0.35626057 0.009540811 0.1444261
0000c0 0e e4 45 3e 60 54 15 3e e5 80 d8 3d c9 ee 35 3d
       0.19325277 0.14582968 0.1057146 0.044417176
0000d0 71 d2 e2 bc 9a f1 e1 3c 08 fc 02 3e 67 e9 86 bc
       -0.027688237 0.027581025 0.12791455 -0.016468717
0000e0 e7 22 02 3e 0d 33 b9 3c 4a 8d 03 3e f2 c7 15 3e
       0.12708627 0.02260735 0.12846866 0.14627054
0000f0 18 14 dc bc a7 2c aa 3d bd c4 25 be 52 bc 98 bc
       -0.02686505 0.08309298 -0.16188331 -0.018644486
000100 37 9a c8 3b c1 2e 63 bd b6 75 a5 3d 3e 7c a7 bd
       0.0061218995 -0.05546451 0.08079092 -0.08177994
000110 4c 3c d5 bd 39 18 1f be 48 b4 d2 bd 95 b8 d5 3b
       -0.10411891 -0.15536584 -0.10288292 0.006522248
000120 f1 cd 14 3d 43 30 42 bc 79 be ae 3d 6a 4d 0c 3e
       0.036329214 -0.011852327 0.085324235 0.13701406
000130 59 57 2d 3e b1 4c 7f bd 7c 3d b3 3c d1 3a e2 3d
       0.16927852 -0.062328998 0.021879904 0.110463746
000140 d5 a1 2e 3b aa 0b 8a 3c ba 51 7f 3d 22 8f ff 3c
       0.0026646752 0.016851265 0.0623338 0.03119618
000150 f9 13 40 ba bc 61 fe bc 8d 2a 95 3d a1 ba a7 3d
       -0.0007327195 -0.031052463 0.072835065 0.081898935
000160 05 b4 90 3c 2a 9a ff 39 14 63 55 3c af 2b fe bc
       0.017663965 0.0004875225 0.01302411 -0.03102669
000170 f0 71 0e be 8e 67 84 bc cf bf a1 3d f8 c7 55 3d
       -0.13910651 -0.01616266 0.07897913 0.05219266
000180 c4 88 da bd 12 d4 42 bd fc d2 ad bd ec 2e fc 3d
       -0.10670617 -0.047565527 -0.08487508 0.12313637
000190 f4 79 38 bd ed 07 34 be 5c af 21 be f8 14 00 3e
       -0.04503818 -0.17581148 -0.1578955 0.12507999
0001a0 5b bd d6 bd 59 e2 d7 bd 0e 82 0b 3e 06 92 de ba
       -0.104853354 -0.10541219 0.1362383 -0.0016980774
0001b0 e8 95 ac 3d 5b 90 0a 3e 97 d1 27 bd 2f 84 2d bd
       0.0842703 0.1353163 -0.040971365 -0.04236239
0001c0 fb c2 b7 3d 2f 56 b6 bd 50 79 8b bd 62 eb d1 3b
       0.089727364 -0.08903157 -0.06810248 0.0064062336
0001d0 12 fc 1e be 70 3f 70 bd d4 86 f4 3d 6f 14 e4 bd
       -0.15525845 -0.05865425 0.11939779 -0.1113671
0001e0 1d ee 91 3d bb 10 10 3d 47 f3 46 3d fa 2b 80 bd
       0.07125495 0.035172205 0.04857185 -0.06258388
0001f0 3e 96 c8 bc fd 66 36 bd 60 91 de bd 61 d8 97 bd
       -0.024485704 -0.04453181 -0.10867572 -0.07414318
000200 ea 14 84 3d 8a 45 3a be d8 7f 09 3d c6 4a 3f 3d
       0.064493015 -0.1819059 0.033569187 0.04670217
000210 35 00 57 3d d1 47 92 bc 12 4a 24 be fe 25 1d bd
       0.05249043 -0.01785651 -0.1604388 -0.03836631
000220 51 e2 09 be 97 f3 d9 bc b5 55 a8 bd 63 28 c4 bd
       -0.13465239 -0.02660541 -0.08219472 -0.09578016
000230 d0 0c 95 3d e8 d2 b1 bd 7e f7 1f 3e d6 71 cf bd
       0.072778344 -0.08682805 0.15621755 -0.10129134
000240 8f 94 ad 39 66 df 1a 3e 3d 51 0e 3e 31 41 f6 bc
       0.00033107816 0.15124282 0.13898177 -0.030060383
000250 99 67 9d 3d f8 a5 fc bd d7 e0 4f 3e 70 1d c8 bc
       0.07685775 -0.123363435 0.20300613 -0.0244281
000260 51 1c 8f bc 14 fd 2b 3e 46 42 1a 3e e8 7b 51 3e
       -0.017469557 0.1679576 0.15064344 0.20457423
000270 8e 1c 07 be 26 d3 4b 3e 97 13 12 3e 96 03 65 3e
       -0.13194486 0.19904765 0.14265285 0.22364649
000280 36 78 3a 3c ae 75 64 3e a0 34 80 bc dc 69 20 3e
       0.0113812 0.22310516 -0.015650094 0.15665382
000290 50 71 8f 3e ba 9b 25 3e 1e 5d 1d 3e b6 6a 25 bd
       0.28016138 0.16172686 0.15367553 -0.04038497
0002a0 81 2d cc 3c 4c 1e fb 3d b5 45 74 3e 58 2b 11 3e
       0.024924042 0.12261638 0.23854716 0.1417669
0002b0 6e 3b 13 3e d3 a4 bf bd ab 8f dc 3d fb 80 40 3e
       0.1437814 -0.093576096 0.1076959 0.18799202
0002c0 92 98 91 3e b2 51 d7 3e 3d 79 a8 bd 5f 8f ef 3c
       0.28436714 0.42054516 -0.08226249 0.02924317
0002d0 80 b8 c5 3c 27 bf fd 3b 8a 3b 05 3e 58 86 e2 3c
       0.024135828 0.0077437344 0.13010994 0.02765195
0002e0 26 4e 8e 3d 93 b9 23 3e 7f 15 2a 3e d8 ce a7 bc
       0.069484994 0.1598876 0.16609763 -0.020484373
0002f0 8d 93 37 bd 3d b0 13 bd ec c4 58 bd 80 3f 53 bd
       -0.04481845 -0.036056746 -0.052922174 -0.05157423
000300 39 34 59 3e b0 18 03 b8 07 5e 35 3d af cd 58 3e
       0.21211328 -3.1255826e-05 0.044279125 0.21172212
000310 36 82 bd bc ac 90 c1 bd db 2b 02 3e 24 f5 4b 3e
       -0.023133378 -0.09451422 0.12712042 0.19917732

lstm_layers.1.bias_hh_l0 f4 [200]
000000 0a f8 95 3e d9 10 25 3d 52 12 70 bc 06 8e b6 3c
       0.292908 0.04029927 -0.014652805 0.022284519
000010 7f 81 dc 3d 80 02 53 3e f6 4a 15 3e d7 b8 8f 3c
       0.10766887 0.20606422 0.14579377 0.017544193
000020 1b 1e ab 3c 29 0e 7a 3d 15 15 5d 3c 40 12 61 37
       0.020888379 0.06104866 0.013493796 1.3415294e-05
000030 2e 5e eb 3b ae 2f af 3d ba ae d6 3c bd df c0 ba
       0.007182858 0.08554016 0.026206363 -0.0014715117
000040 e2 00 6c 3e 07 03 2f 3d d8 fb d4 3d 0e 61 d6 3c
       0.23047212 0.042727496 0.10399598 0.026169326
000050 a4 5a 7b 3e 37 e5 2d 3e 86 39 05 3e f2 43 01 be
       0.24546295 0.1698197 0.13010225 -0.12623575
000060 b5 4b 4d 3e 27 91 ee 3d 1f 76 6f 3e e9 48 b5 3e
       0.20048411 0.11648779 0.23384903 0.3540719
000070 e6 82 9c bd 02 2b 43 3e 31 37 02 bd e4 17 78 3e
       -0.076421544 0.19059375 -0.031790916 0.24227864
000080 69 86 ee bc c2 a2 36 3e 14 73 c9 3d 70 0f db 3d
       -0.029116826 0.17835525 0.098364025 0.10696304
000090 56 02 23 3e c7 41 ca 3c 7d ff b2 bd 5a bf 50 3d
       0.1591886 0.024689568 -0.08740137 0.050963737
0000a0 be 51 ac bc c1 40 10 be 96 68 23 3e 2c 9e 18 3e
       -0.021035071 -0.14087202 0.15957865 0.14904088
0000b0 0b 34 a6 bd 1f e5 a4 3e fc c9 f0 3c f2 e2 15 3e
       -0.08115395 0.32206056 0.029393189 0.14637354
0000c0 6e a4 55 3e dc 58 11 3e d7 22 bb bd 49 7d 0c 3d
       0.20863506 0.14194053 -0.091375045 0.03429917
0000d0 4a c6 39 3b 03 76 b1 3d 41 db d9 3d f2 e2 77 bc
       0.002834695 0.08665087 0.106375225 -0.015129792
0000e0 a8 81 6f 3d 76 9d 5a 3d c3 52 91 3d 5e b2 ef 3c
       0.05847326 0.053372823 0.07095864 0.029259857
0000f0 45 81 b0 3d 4b f1 7e bd 62 2c 4c bd 68 88 bd 3d
       0.08618406 -0.062241834 -0.049847014 0.09254533
000100 f2 b4 b7 bb 34 61 b3 3d d2 a3 5a 3e d2 1d a2 3d
       -0.005606287 0.087587744 0.21351555 0.07915844
000110 b8 aa 22 3c 9d 0a 53 bd 87 98 3b 3d 31 07 aa bd
       0.009928398 -0.051523793 0.04579976 -0.08302153
000120 c7 6f fc bd e4 5b 1e bd b8 f4 4a 3d a3 06 06 3e
       -0.12326007 -0.038661852 0.04954979 0.13088469
000130 6b 11 33 3e 47 a3 1c be c0 62 af 3c b1 64 23 3e
       0.17487113 -0.1529666 0.021409392 0.1595638
000140 c0 ce 7f 3c 33 ee 39 bd 84 92 f8 bd 55 be 5a 3d
       0.015613258 -0.04539318 -0.12137321 0.05340417
000150 2b 24 13 3d e3 20 7f bd 7c 93 ae 3b 47 83 f6 3d
       0.035923164 -0.062287223 0.00532764 0.12036758
000160 eb f3 ba 3b 77 5c e4 3d 80 53 0c bd fb cb 52 bd
       0.005705347 0.11150449 -0.03425932 -0.051464062
000170 65 a6 e2 3d bb 41 b9 3c a5 ba ef bd 8c c9 7b bc
       0.110668935 0.02261435 -0.117055215 -0.015367877
000180 37 b2 8f bd b6 5a b3 3c c1 7c 32 be ff 67 4b 3e
       -0.07016414 0.02189384 -0.17430402 0.1986389
000190 b5 28 07 3e ad d8 d2 bd dc 63 2e bc f1 44 81 bc
       0.13199122 -0.10295234 -0.0106439255 -0.015779944
0001a0 9f 09 0c 3d 4b 4b 9f 3d 86 ef ea bc 8d 0f 12 3d
       0.034188863 0.07778033 -0.028678667 0.03565936
0001b0 d0 2c 96 3d 88 41 b4 3d 79 45 e1 bc 5d 11 bc 3d
       0.07332766 0.088015616 -0.027498947 0.09182999
0001c0 55 e1 aa bd 83 5c 33 be 46 4f 09 3e bd 29 d7 bd
       -0.0834376 -0.17515759 0.13409147 -0.10506008
0001d0 77 e7 29 bd dd 11 13 be a8 56 94 bd 3a f7 83 3d
       -0.041480508 -0.14362283 -0.07243091 0.06443639
0001e0 42 3d 0c bd e5 ed 28 3e ac 63 fc bc 5b 71 cf bd
       -0.034238108 0.16497 -0.030809246 -0.10129043
0001f0 9a e8 94 bd 6b a8 f9 bd f0 9b 42 be d8 1f 3a 3e
       -0.07270928 -0.12190326 -0.19004798 0.1817621
000200 2e 96 f8 3d 2c 7c 1b be 7e 05 11 3e 4c 5c b5 bd
       0.121380195 -0.15184087 0.14162251 -0.08855495
000210 0e 23 dd bd 38 84 85 bd 6a 2f 29 be 49 f9 b3 3d
       -0.10797702 -0.06519359 -0.16521993 0.08787782
000220 f4 2d 41 3d 27 61 04 be f7 99 b9 bd a7 b7 b0 bc
       0.047162965 -0.12927686 -0.090625696 -0.021571947
000230 0c 55 d4 bd bc f8 01 be f1 76 82 3d a4 c4 a3 3d
       -0.10367784 -0.12692541 0.063703425 0.079964906
000240 c4 04 07 3d 4a cb bd bc 86 90 ac 3d 70 58 f0 3d
       0.03296353 -0.023168225 0.08426003 0.11735618
000250 37 98 b2 bd 74 4d bf bd 17 cb b5 3e 58 51 0e 3c
       -0.08720439 -0.09340945 0.35506508 0.008686386
000260 47 f6 6a 3d 78 e4 ec 3d 90 be 3e 3e 1a 81 5e 3e
       0.057363775 0.115670145 0.18627381 0.21728936
000270 08 7f e9 bd 0e c9 ee 3c db af 66 3d 8f 7d d7 3d
       -0.114011824 0.029148605 0.056320053 0.10521995
000280 7f 04 22 3e 5b 86 8a 3d 60 f3 bd 3d 82 ba a3 bd
       0.15822028 0.067639075 0.09274936 -0.07994558
000290 20 04 3f 3e 9b c9 4c 3d e7 96 6c 3d 6a 25 5a 3d
       0.18653917 0.049996953 0.0577611 0.053258337
0002a0 bd f9 26 3d fe 8d 0e 3e 23 64 6b 3e 12 62 27 3e
       0.040765513 0.13921353 0.22987418 0.16346005
0002b0 3b ae 44 3c 5e 20 17 3d 23 0a 93 bd 4c 74 c0 bc
       0.01200443 0.036896102 -0.07179668 -0.023492955
0002c0 b5 2e 91 3d 7c 78 d5 3e 85 93 cf 3d 79 bd 73 3e
       0.07088987 0.41693485 0.10135559 0.23802747
0002d0 31 a1 2f be 5f 08 35 3d 68 fa 55 3e 05 43 03 3e
       -0.17151333 0.044197436 0.20896304 0.12818535
0002e0 02 21 01 3e d1 1a 28 3c ef 9c 23 3e 16 cd c2 3d
       0.12610248 0.0102603 0.15977834 0.09511773
0002f0 ca ba 93 3c 21 12 35 bc ed 11 df bc aa e9 b7 bc
       0.018033404 -0.011051686 -0.027230227 -0.022450287
000300 e4 17 86 3e 0a 2f eb bb 79 c2 18 3e 31 db 8c 3e
       0.26190102 -0.0071772384 0.14917935 0.2751098
000310 69 df 2f 3d c1 23 8e 3c f7 5f f3 3d 32 60 3a 3e
       0.04293767 0.017351033 0.11883538 0.18200758

lstm_layers.2.weight_ih_l0 f4 [100, 50]
000000 77 21 50 3d ba d8 3a bc 13 6c bf 3d 57 b7 83 bd
       0.050813165 -0.011404211 0.093467854 -0.06431454
000010 0c 8e 5d bd 9d 09 09 3d 7a 53 01 be fe 0d e7 ba
       -0.054090545 0.033456434 -0.126295 -0.0017628071
000020 e0 1e 57 3c fc d0 f1 bd 8c 2d 02 be 14 51 43 3e
       0.01312992 -0.11807439 -0.12712687 0.19073898
000030 a9 a0 36 be ba 29 5a bd 9e d5 df 3d ab 20 bc 3d
       -0.17834724 -0.05326245 0.10929416 0.091859184
000040 d8 f4 30 bd 7d 1e 3b 3e 10 92 d1 bd 59 d0 16 3e
       -0.04320225 0.18273349 -0.10232937 0.14727916
000050 16 a7 00 bd 6f 67 45 be 95 70 5e bd 74 24 5d 3d
       -0.031409346 -0.19277738 -0.054306585 0.053989843
000060 ce fd f3 bc 39 91 8b bd fe 9b 82 be cb 54 a8 ba
       -0.02978411 -0.068148084 -0.25509638 -0.0012842653
000070 10 86 24 bd 66 1a 11 3e 0e d5 04 3e e7 8d ad 3d
       -0.040166914 0.14170226 0.12971899 0.08474331
000080 85 9d 9f bb 38 a0 4d be 5a 09 d5 bd 14 bb 82 bc
       -0.0048710727 -0.2008065 -0.10402174 -0.015958346
000090 83 8e 3d bb 29 e2 6a bd 87 ae 03 be a8 d2 c8 bd
       -0.0028924055 -0.05734459 -0.12859546 -0.098058045
0000a0 0f 1b 06 3e 86 4b 97 3d 13 f1 6d 3e 2c f0 46 3e
       0.1309626 0.07387452 0.23236494 0.19427556
0000b0 8d de 88 be fc d5 15 be f2 c5 8e 3d ee dd 10 3e
       -0.26732293 -0.1463241 0.06971349 0.1414716
0000c0 c2 58 db bc 86 f7 43 3e ab 60 1b be ae 39 b1 bd
       -0.026775721 0.19137391 -0.15173595 -0.0865358
0000d0 48 79 c7 bd 20 4a de bb 9e ca 2f bd 89 23 cf be
       -0.097399294 -0.0067837387 -0.04291784 -0.404568
0000e0 01 91 af 3e 09 22 58 bd 5b 63 2a be e8 fe 60 3e
       0.34290317 -0.052766833 -0.16639464 0.21972239
0000f0 57 37 89 3e 4d e8 63 be 67 9c 98 3d d7 26 2e 3e
       0.26800033 -0.22256584 0.074517064 0.17007004
000100 96 ed c6 3d 6e 03 4d be b8 97 b5 3e 82 d9 84 bd
       0.09713285 -0.2002084 0.35467315 -0.06486799
000110 47 bd 1d 3c c5 53 9f be ad 0d 54 be 4a f2 68 3b
       0.009627647 -0.311186 -0.20708342 0.0035544806
000120 6a a3 1f be dc 9d 3a 3d ce f8 16 be 26 3d 12 3e
       -0.15589681 0.045560703 -0.14743349 0.14281139
000130 cd 41 4f 3e 26 46 5d be b0 d1 42 3e e1 f7 98 3e
       0.20239945 -0.21608791 0.19025302 0.29876617
000140 e9 d2 53 be a7 9d 81 3b 1f 11 a9 bd 2c 89 86 3e
       -0.20685925 0.003955561 -0.08255219 0.2627653
000150 ba 0f 21 3d fa 08 31 be 8d 36 bf 3d 9f 85 ca bd
       0.03932164 -0.1728858 0.093365766 -0.098887675
000160 45 78 71 be 9c ce ff 3d 47 fe 25 bc f0 2a 8b bd
       -0.23581035 0.124905795 -0.010131425 -0.06795299
000170 a9 7e 6f 3c bd 9a 1d be d3 eb de 3d 42 08 63 bd
       0.0146176005 -0.15391059 0.10884824 -0.055427797
000180 f9 6e fa bc 66 b7 1d be 97 e6 b6 be 0f bf be 3e
       -0.030570494 -0.15401992 -0.357228 0.3725514
000190 41 14 72 be 5d e5 09 3e f1 e5 aa 3e a9 a4 fa 3d
       -0.23640539 0.13466401 0.33378556 0.12238438
0001a0 e2 57 bb 3d e7 6f 7a 3d b6 8f 87 bd 4e c1 ac bd
       0.09147622 0.061141875 -0.066192076 -0.084353074
0001b0 c8 a6 3a 3d 53 93 20 3e 43 2b 2e be 9a d3 23 bd
       0.04556921 0.156812 -0.1700869 -0.03999672
0001c0 28 b2 a5 bc f1 9c 99 bc 55 b6 bf be 7a c4 a0 be
       -0.020226553 -0.018751593 -0.37443796 -0.313999
0001d0 7e 25 11 bd 8a e4 09 be 81 38 97 3d 74 4d 1d 3d
       -0.035436146 -0.13466087 0.07383824 0.038403943
0001e0 68 11 09 be 92 4a 10 3c cc 32 80 3d a4 90 18 be
       -0.13385546 0.008806841 0.06259689 -0.14898926
0001f0 b0 3a 93 3e 0c ef 38 3d ec aa b0 3c 69 b3 35 be
       0.28755713 0.045149848 0.021565877 -0.17744221
000200 88 d0 11 3e e7 be 66 3e af d5 b2 bd 9f 92 7d 3e
       0.14239705 0.22533761 -0.08732163 0.24762963
000210 37 27 93 3d 0f 59 ac 3d 66 17 55 3e b5 c7 cd bd
       0.07185214 0.08415424 0.20809707 -0.10047857
000220 e3 25 4e 3d 8e cf a8 3c 08 cf 46 be 58 26 fa 3d
       0.0503291 0.020606782 -0.19414914 0.12214345
000230 40 26 23 bd 28 33 d0 bd c4 30 03 be 10 58 74 be
       -0.0398314 -0.10166007 -0.12811571 -0.23861718
000240 20 96 fe bd ac 1a 23 be 1f 67 0b be 6a b4 bd bb
       -0.12430978 -0.15928143 -0.13613556 -0.0057893293
000250 f1 ed c3 bd d5 df ea bc 09 fa 09 3e 52 8b cb bd
       -0.09566868 -0.028671185 0.13474287 -0.099386826
000260 6c a2 93 ba 9c c8 80 3e 8e 4a 31 be f7 60 ce be
       -0.0011263615 0.25153053 -0.17313597 -0.40308353
000270 46 69 72 3d 34 d1 3f 3d 94 53 9f 3e e0 92 d0 bb
       0.059182428 0.04683037 0.31118453 -0.006365165
000280 4d 31 ac be aa ea 99 be 68 c3 00 3e b5 0a a9 bd
       -0.33631364 -0.30061847 0.12574542 -0.08253995
000290 b3 80 3e 3e 44 51 6f 3e ff 10 4f 3e c7 36 d9 bd
       0.18603782 0.23370844 0.20221327 -0.10606151
0002a0 04 d2 5a be a5 c9 b2 bc ef b9 01 3e 8a cc da bd
       -0.21369177 -0.021824667 0.12668584 -0.10683544
0002b0 ba 62 80 be f8 ef 72 be 59 f6 c9 be ff 61 c7 bd
       -0.25075322 -0.23724353 -0.3944576 -0.09735488
0002c0 c6 77 a6 bd df 50 af 3d 23 72 24 be cf 12 f9 bd
       -0.08128314 0.08560347 -0.16059165 -0.121617906
0002d0 7d c1 57 be 03 38 11 be dc 6c b6 3d 5f 46 e1 3d
       -0.21069904 -0.14181523 0.08907482 0.1099975
0002e0 fd 59 01 be 59 c3 d9 3d ac af a5 be 34 9a 72 be
       -0.12631984 0.10632963 -0.3236059 -0.23691636
0002f0 0a 7a 70 be 8c dc 30 be 62 e7 bf be eb cb 34 be
       -0.23484054 -0.17271632 -0.3748122 -0.17655914
000300 af e4 88 3e 9e 98 c9 bd ed a2 72 3e 9a a0 c0 bd
       0.26736972 -0.098435625 0.23694964 -0.09405632
000310 3a 07 3a 3b 7e f5 4e 3d 18 bc 26 3e 6e 02 b8 3d
       0.0028385655 0.05052709 0.1628269 0.089848384
000320 8f df 58 be 18 6e 99 bd d4 65 f1 bd ab 52 6b bd
       -0.21179031 -0.07491702 -0.11787 -0.057451885
000330 39 af 66 be c0 2e 73 b6 ac 34 b4 3d 4d 8f 83 3d
       -0.2252778 -3.6237034e-06 0.08799109 0.06423817
000340 48 8e b2 3e ac a6 d2 bd 8e 8c 1c be d4 4d eb bd
       0.34874177 -0.102856964 -0.15287992 -0.11489454
000350 62 6c 3c 3e 96 4f 27 be ed 9c c1 3e 82 90 65 3d
       0.1840072 -0.16338953 0.37815037 0.056046017
000360 6e 4e 05 3e 9b 8a 84 be ba d8 eb bd 80 b3 11 bd
       0.130182 -0.25886998 -0.11515947 -0.035571575
000370 4f 5f d8 3d fd 80 53 be 2e 40 89 be 81 2c d9 3d
       0.10565054 -0.20654674 -0.26806778 0.106041916
000380 db 59 6d bd cc 74 93 bc be f0 ad be 36 14 39 3d
       -0.05794702 -0.018000029 -0.33972734 0.04518529
000390 91 7c 6d 3e 31 c8 7b 3b 17 13 cb bb 1b 3b 5d be
       0.2319205 0.0038418884 -0.006197344 -0.21604578
0003a0 c4 b4 8f 3e 79 ad a6 3d 55 9e 56 3e a1 3a 5b 3e
       0.280676 0.08138556 0.20958836 0.21409084
0003b0 ab 3c 8c bd 40 96 89 be 2c b3 e1 bc c3 e2 93 be
       -0.06847509 -0.26872444 -0.027551256 -0.28883943
0003c0 b3 2f b6 3d e2 b8 90 be 8e 35 14 3e d3 67 10 bd
       0.08895817 -0.28266054 0.14473554 -0.035255264
0003d0 d8 27 1c 3e c1 e1 68 be b8 3c ab 3d 0c 87 7a bc
       0.15249574 -0.22742368 0.083611906 -0.015290987
0003e0 41 d5 03 3c 0d e9 a4 3d 5b 35 e8 bd 55 67 97 bd
       0.008046449 0.080522634 -0.11338302 -0.07392756
0003f0 4c 54 1e 3d 56 9c 45 3e e6 74 50 3d 33 9e ab 3c
       0.03865461 0.19297919 0.050892733 0.020949459
